RL4E2E/results/collected_results/2.0k1/episode_1001/actor.pt (torch, 20755 bytes, 4 tensors)

layers.0.weight f4 [128, 30]
00000000: 9834 163e 6c3a 02bf 5e96 3b3f d3cb 9d3e
00000010: ebe4 99bd d2a4 d53c db19 8b3e c221 ab3e
00000020: e18c d23e 3bb9 063d 642a 9d3d 6d0d 6cbe
00000030: f762 1abe b368 c9bd ff63 563e 70ce 88bd
00000040: a0ac f4bd edbc 8f3e 0ef1 95be 8b9c 0b3e
00000050: 2c77 ae3e 059c 863e 7649 27be f733 42be
00000060: a0a7 2d3e 2dd6 d43d 8e53 f53e e721 f33d
00000070: 5be1 d03d 16be 723e 9411 7d3e 2ed6 88be
00000080: f30f 8d3e 43ca fb3b db3c 60bc ec1f c73e
00000090: aeaa 6d3e 5899 48be 6000 373e 0ed2 ed3d
000000a0: d6f0 d9bd e151 223d be99 873e a026 a83d
000000b0: 6e73 083f 75dc 973e a654 933e f26b b33d
000000c0: 89a9 acbe ae50 6f3e fe95 b0bd 6280 ed3e
000000d0: 3c52 29be 0cee 633e 0c2a fd3d 626f c7be
000000e0: a4ca b7be bfd4 563c 7386 473e d6f0 d0be
000000f0: c173 253c d771 8a3c 29b2 e2bf bd3f aebc
00000100: 81fd a63d 2262 433d 0c65 dbbd 78ec b13e
00000110: 3b51 20be 8d18 cbbd e49c 0cbe aed4 07bf
00000120: e365 1b3e e956 98be 9bf1 41be a2ec a3bd
00000130: 8db5 d63d 7739 0dbe e235 d6bd 3f9d 2abe
00000140: 679c 4a3e a9ca 0f3d 85e4 543e 4c7d 993e
00000150: 4975 1ebe 5ca7 b63e bd89 0d3d f68c 5cbd
00000160: 4eb6 85be 5fd5 ee3d 445e 1bbc e9ed b43c
00000170: 144b a8be 792d 9f3c a410 6ebe 2ef0 e8be
00000180: 1ba2 6cbe 7227 9abe c153 0f3e b7a5 75be
00000190: f644 cbbc 58b5 ac3d dfee a1bd 35dc 0c3f
000001a0: 09fe 1f3e ee90 65be a2b3 28be 2c40 033e
000001b0: 501a ce3d 73f4 483e 8dff 873e 051c f9bd
000001c0: c1e3 b1bd c84f c43d 9a49 843d 9691 18be
000001d0: 45dd 793e 6050 8bbe d2ec cdbe dcd7 c73d
000001e0: f2f5 cfbb 408b f5be 68e7 863e 6eee f8bc
000001f0: 7400 afbd d794 073f 3b8e fbbd 527c 2cbf
00000200: ee03 37be 67ca ce3d 1538 95bd 3e8f ec3e
00000210: 0470 0abe 5279 dfbe c245 cd3e e77d a4be
00000220: 0f69 0b3f c329 153e 19aa e5be 269d 4c3e
00000230: da3d 8c3d e0c7 5a3e b18a a93d 6fc1 a8be
00000240: 82fd 39be fbdc 8dbe 8380 e43c 05ed 37be
00000250: 3911 f1bc 1b58 3dbe abf6 883e 197d c1be
00000260: 0585 e73e 159a a43e 5878 5d3e 51bd 96be
00000270: 5b13 103e f4a2 28be e0ee d6bd 7a3d 8dbe
00000280: 0ba4 0dbe 10e6 103e a32d aebe 8aca a13d
00000290: 8a76 8f3e b651 cfbd a158 08be 4fe0 e93c
000002a0: cfd2 a93d da3a 0fbe 2c59 453e d047 70bd
000002b0: 8e71 f8bd 7c3f a23d c9da 47be ed16 d9bd
000002c0: 6348 213f 686f ad3d f10b 4e3e 63a9 063e
000002d0: 4118 04be 0e61 27bb fae6 1fbe 9de4 583e
000002e0: 0910 66bd 838d 37be 6bee abbd 1b4c a3be
000002f0: e868 f0bd 4991 dfbd 96bc a63c fd35 57be
00000300: f444 96be 22df e9be 2452 003d 9346 6b3e
00000310: 954d e23d 2dfe 063f 6d56 19bf 8fae 97be
00000320: 386d d0be 816a 64be a5d3 a0bd 5596 823e
00000330: 94eb 333e ad03 003e c3ef e3bd 1a77 423e
00000340: be3a f7be 52e0 933d 1d91 933b c033 a13e
00000350: e34f 0c3d f08f 54be 0cae 10be 6ae4 e2be
00000360: e36b cdbe 71b4 98be 2512 943d f263 ce3d
00000370: b06f 03be b067 1d3f 6770 ba3d 6d9a 49be
00000380: 8ee2 473e 016c 3c3e f618 25bd 5000 99be
00000390: 5e5f 003e 6496 02bf 7c77 8cbd ebd9 b8be
000003a0: 3c63 3d3e c004 013d 35d9 883d 1092 40bd
000003b0: 3807 353d 436b 34be 0100 fb3d d9c9 85be
000003c0: b3cc 973e f6af 333e a028 283d 993c 90be
000003d0: db1f 413d 437a 02bd b257 4bbe b80f 8b3e
000003e0: 373c bf3e 84e4 1cbf 8ddd e4bd 10a8 adbd
000003f0: b192 3ebe e3ce 27bd c3ad b1be aa31 d23d
0.146685 -0.50870395 0.7327632 0.30819568 -0.07514366 0.026079569 0.27168164 0.33424193
0.41123107 0.032891493 0.07674101 -0.23051997 -0.15076815 -0.09834423 0.20936583 -0.0668
-0.11946988 0.28073826 -0.29285473 0.13633935 0.34075296 0.26290908 -0.16336617 -0.18965136
0.16958475 0.10392413 0.4791531 0.11871701 0.10199233 0.23705325 0.24713737 -0.26725906
0.2755123 0.0076840236 -0.013686384 0.38891542 0.2320964 -0.19589746 0.17871237 0.116123304
-0.10641639 0.039628867 0.26484483 0.08210492 0.5330113 0.29660383 0.2877552 0.08760823
-0.33723095 0.2337062 -0.08622359 0.4638701 -0.16535276 0.22258776 0.123615354 -0.38952166
-0.3589679 0.013112246 0.19484882 -0.40808743 0.010098399 0.016899986 -1.771062 -0.021270627
0.08153821 0.04770101 -0.107126325 0.34750724 -0.15655987 -0.09916792 -0.13731724 -0.530589
0.15175585 -0.29753807 -0.18939821 -0.080041185 0.10483847 -0.13791452 -0.10459496 -0.16661547
0.19786225 0.03510538 0.20790298 0.29978406 -0.15474428 0.3567456 0.034555186 -0.05384537
-0.2611565 0.11661791 -0.009482924 0.0220861 -0.3286978 0.019430863 -0.23248535 -0.45495743
-0.23108713 -0.3010822 0.13996793 -0.23988996 -0.024813157 0.08433026 -0.07906889 0.5502351
0.1562425 -0.22418568 -0.16474774 0.12817448 0.100636125 0.196245 0.26562157 -0.121635474
-0.08686019 0.095855296 0.06459351 -0.14899287 0.24400814 -0.2720976 -0.40219742 0.09757969
-0.0063464576 -0.47957802 0.26348424 -0.03038713 -0.08545008 0.52961487 -0.12282988 -0.673772
-0.17872593 0.10097199 -0.072860874 0.46203035 -0.13519293 -0.43647248 0.40092283 -0.32127306
0.5445718 0.14566712 -0.44856337 0.19981822 0.06847735 0.21365309 0.082784064 -0.32960078
-0.18163112 -0.27707657 0.02789331 -0.1796151 -0.029427158 -0.18490641 0.26750693 -0.37790754
0.45218673 0.32148805 0.21627939 -0.29441312 0.14069884 -0.16468412 -0.104947805 -0.27585965
-0.13832109 0.14150262 -0.34019193 0.078999594 0.28020126 -0.10123007 -0.13315059 0.028549341
0.08292162 -0.13987294 0.19272298 -0.058662236 -0.12131034 0.07922265 -0.19517054 -0.10600076
0.6300108 0.08468515 0.20121743 0.13150553 -0.12899877 -0.0025540027 -0.15615454 0.21180959
-0.056167636 -0.17925076 -0.08395084 -0.31894 -0.11738759 -0.10916383 0.020353597 -0.21016689
-0.29349482 -0.4567805 0.031328335 0.2297614 0.11049954 0.5273159 -0.598975 -0.29625365
-0.40708327 -0.22306253 -0.07852868 0.2550532 0.17570335 0.12501402 -0.11129715 0.18990746
-0.48287004 0.0722052 0.004503383 0.31484795 0.034255873 -0.20758033 -0.14128894 -0.4431489
-0.40121374 -0.29825166 0.07230023 0.10077657 -0.12835574 0.6148634 0.0910347 -0.19687815
0.19520018 0.18400575 -0.040307008 -0.2988305 0.1253638 -0.5101073 -0.06858727 -0.36103758
0.18494886 0.03149867 0.06682054 -0.047014296 0.044196337 -0.17619042 0.1225586 -0.2613056
0.2964836 0.17547593 0.041054368 -0.28171232 0.04714952 -0.03185488 -0.19857672 0.2716043
0.37350628 -0.6128619 -0.1117507 -0.08479321 -0.18610646 -0.040968787 -0.34702882 0.10263379

layers.0.bias f4 [128]
00000000: 44d7 68bf 7dd3 35bf 9cce ee3f 0000 0000
00000010: 24c2 073d cb2a 3fbf 5b8c cabc 9880 233f
00000020: 75cd 25bf ac93 c8bd 1ea7 6bbf 0ab1 9cbc
00000030: 8401 30bf de72 a4be 24fe 56bf 0000 0000
00000040: 5d2a 3e3f eb64 89bd a8f3 08bf 7819 4a3f
00000050: f41d 463f 8b8f 2e3f 5052 6f3f b9a8 4b3f
00000060: 095c 6f3f e67a 5ebd c722 f73d 782e 3fbf
00000070: a7fa 6bbe a3d2 3a3f 363c 96bf 1a09 4e3f
00000080: 0000 0000 36a1 7e3f 6c13 2a3f ab6f 8fbf
00000090: 0000 0000 11ab 863f fc6f 003e 578e fd3f
000000a0: d33c 223f 9b62 fa3d 155b fb3d d06e 763f
000000b0: 45a0 dc3f 04fc 633f 101a 66bf 0000 0000
000000c0: 4b45 093d 645c 60bf 08aa 773f 3f45 94bd
000000d0: b707 4a3b b355 de3f 156e a4bc b9b1 193f
000000e0: 7613 37bf ef30 49bd c9a2 37bd d3c7 25bf
000000f0: 707f 29bf a99a 39bf 2375 3c3f f430 3b3f
00000100: e998 56bd f6b0 bf3e 0000 0000 5d9e 38bf
00000110: 0000 0000 eb0e 113f 41cd 5b3d a31b 313f
00000120: d21b c13d 641a a0bd a244 4dbf ea75 81bf
00000130: 1443 d9bd 0000 0000 1ad6 533f 0000 0000
00000140: 5d3a 02bf 9460 6f3f 89a1 38be f23f 36bf
00000150: 1385 313f 6551 483f 0000 0000 f2c4 2cbf
00000160: dfc3 f73f e95f 56bf 0149 d5bd 0000 0000
00000170: e556 0840 3812 313f 0000 0000 262a 62bf
00000180: ec04 3cbf 60fe 2b3f f59a 18bf 0000 0000
00000190: cee3 693f 72cb ecbe 9f96 293f 8b60 8dbf
000001a0: 5e1f 2e3f c32f fcbc 0000 0000 ec9b 37bf
000001b0: a3cc 28bf 0fee 593f 0726 8bbf 61e0 e43e
000001c0: ec38 863f c623 6e3f 020c b3bd 60c2 6a3e
000001d0: 0000 0000 ff55 a4bc 0b15 9aba 85c2 643f
000001e0: 0000 0000 1e79 773f 1a9f 113f 0000 0000
000001f0: 6a34 b63f ddb5 603f 8eb8 4d3e efbc ec3b
-0.9095347 -0.7102583 1.8656802 0.0 0.03314413 -0.7467467 -0.02472513 0.63868093
-0.6476663 -0.09793791 -0.92051876 -0.019127388 -0.6875231 -0.32118887 -0.8398154 0.0
0.7428339 -0.06708702 -0.5349679 0.7894511 0.77389455 0.6818778 0.93484974 0.79554325
0.9349981 -0.054316424 0.1206718 -0.7468028 -0.23044835 0.72977656 -1.1737125 0.8048264
0.0 0.9946474 0.66435885 -1.1205953 0.0 1.0520955 0.12542719 1.9809064
0.6337406 0.12225839 0.12273232 0.96262836 1.723641 0.8905642 -0.8988352 0.0
0.03351335 -0.87640977 0.9674382 -0.0723977 0.0030827352 1.7369903 -0.020072022 0.6003681
-0.7151407 -0.049118932 -0.04483298 -0.6475803 -0.6621008 -0.7250162 0.73616236 0.7312157
-0.05239192 0.37439698 0.0 -0.72116643 0.0 0.5666339 0.053662542 0.69182795
0.094291344 -0.078175336 -0.8018285 -1.011411 -0.10608497 0.0 0.8274857 0.0
-0.50870305 0.9350674 -0.18030371 -0.7119132 0.6934368 0.782492 0.0 -0.67488015
1.935665 -0.837401 -0.10414315 0.0 2.1303036 0.69168425 0.0 -0.88345563
-0.7344501 0.6718502 -0.59611446 0.0 0.9136323 -0.46248966 0.66245455 -1.1045088
0.6801661 -0.030784493 0.0 -0.7172229 -0.6593725 0.85128874 -1.087098 0.44702438
1.0486121 0.93023336 -0.08742525 0.2292571 0.0 -0.020060537 -0.0011755539 0.89359313
0.0 0.96669185 0.56883395 0.0 1.4234746 0.877775 0.20089933 0.007224671

layers.1.weight f4 [6, 128]
00000000: 0269 d63d 8d44 803d db57 bcbf 1573 48bd
00000010: 1fd3 1a3d 46b6 863d 6fe6 5f3d 3112 fbbc
00000020: 72f0 c83d 4620 f23e 58bd 913d 99f0 213e
00000030: 59b6 aa3d 3ae4 3c3c 0f64 923d 9ada 21bd
00000040: 73b0 5abd 4659 bd3e b472 4a3c fb16 eebd
00000050: 2fea b5bc 78c9 8dbd 148c 00be b2cd efbd
00000060: a43b 39be c1b5 2bbc d090 d23e c59c 153e
00000070: c82c 5939 ddb9 2dbe a7a1 d83d 76ee cfbd
00000080: 0886 003d d06b bbbe 2bdd 4ebd 4890 bf3e
00000090: 42cb 353d dfb9 50bd a0c7 10be fa1b e9bf
000000a0: 5191 8abd 621d 98be 627d d03e 3b7f d4be
000000b0: c1f1 8dbf 3828 a5bf c439 e03c 2492 98bd
000000c0: e2ad 2cbd 7d2a 213e 86f5 bbbe c18a 7c3e
000000d0: 845d 3c3d 5c50 4abf b10a a7bd 0dc6 4dbd
000000e0: 5262 043d deb4 6ebd 9628 0abd bbed be3d
000000f0: 7aac 3c3d 1d98 2c3d a72e f2bd 8cd8 89be
00000100: 8919 303f b77a c9be 0ace 77bc 550e 0b3e
00000110: 56be 7e3b ff1a 5bbd 6079 eebe 173c bfbd
00000120: bb6d 883e ed4a be3b 8d2e ba3c 6b58 fe3d
00000130: e990 743e 057f b03c 4fdf c3bd 07e8 c0bc
00000140: ca6b 383f fb62 afbd 59a2 c33e 7da4 013e
00000150: 8e92 7ebd 4970 27be 8e11 ea3c a8e0 313d
00000160: 0133 9ebf 3024 3d3e 0836 f53e 755e b13d
00000170: 173d 01c0 564d 83bd 46a0 6dbd 0876 163e
00000180: 2368 b73d b28b 8abd c671 823d aaac 20bc
00000190: 3cca 10be 521a 803b caa2 b9bd b10a 0a3e
000001a0: 0906 b6bd dd64 573d cba2 523d 3f96 cc3d
000001b0: 28fb 633d d2cc bcbd 465c 033e b4df cdbc
000001c0: c2d1 8dbe bcac f2be b54a 1d3f d9c1 1ebf
000001d0: 1f76 96bd 09cd b9bc 86d9 713c 8081 02be
000001e0: f358 8bbd 7ef9 dbbe fd80 56bd df60 9cbc
000001f0: 5ad5 62bf eabc 9cbe 3590 ebbe be4d c4bd
00000200: 4b3d 2b3b 62bc ce3d 699d e2be db5b 87bc
00000210: f447 183e ea60 ae3d 0407 ddbc 8651 96bd
00000220: 7b39 3ebd 0d12 16be 27b5 9c3d 7908 28be
00000230: ecd8 cdbc 5db5 3abd 23bd 9ab9 a312 89bc
00000240: 4741 1cbe 8a29 6abd 48d3 c7bc 0026 763c
00000250: 3507 9ebc c718 43bd f52a 4fbd f06d ad3c
00000260: b204 8abc a4b2 95bd c6c4 44bd 3a3e 013e
00000270: e33c 07bd 6c3b 78be 1ce5 4e3d adfc a2bc
00000280: df42 a33c 0913 57be 1e66 99bc 848c 0a3e
00000290: e6a4 afbd 6837 ddbc 5a64 56bd 5380 a6be
000002a0: 0539 db3c 4bbe 0ebd 79a8 cabe 50f2 79be
000002b0: ff30 c6be c0ef 713d 9716 503c 2886 063d
000002c0: 5394 333d 7abf 613c da13 b5be 2ec8 963d
000002d0: f8fe 50bc cfe0 9dbe 2b73 c2bb d6bf 373c
000002e0: 27f9 37bd 6a12 77bd c82e 2cbd 527f ddbc
000002f0: 3ced 8fbc a0a8 c53d bf5e 1c3d dcea 39be
00000300: b880 af3d fae9 a93d c195 973d c2b8 4ebc
00000310: df40 75bd 7035 83bd ee48 5f3d b641 633d
00000320: 8811 9fbd d18a 863d 8b23 1d3c bf8e 333d
00000330: e048 0bbe 4fca 20bd 28fc 02be 75a5 9dbc
00000340: f42a 03be 26e6 e23c 93ab 993c 13ce b13d
00000350: 00fa a33d c7d0 33be 13cf 6bbd 7a8e d53d
00000360: 5388 6fbe 8e25 a33d 953e 7c3b 1817 673d
00000370: f9dd 0abf 18b8 00bb c7df 673d 6474 b23d
00000380: 2323 c83d 616e c83c b8e2 f3bc e50a 913d
00000390: 335f 63be 57b9 6fbd 08c0 89bd d7c7 ad3d
000003a0: dea3 633c 6d6d 11bd 6127 88bd a68f 81bc
000003b0: 0185 6bbd b01b 1d3d 5ca9 6f3c 9d5f c43d
000003c0: 28c5 96be 7f4f 67be e1b9 88bd 60eb d23d
000003d0: 854d 80bd c50f 713d 3620 99bc 6057 d0bd
000003e0: b6a0 fd3c fee9 7cbe c0b7 75bc 2236 34bd
000003f0: 1906 12bf b7c1 2bbe 13ec c53d 6ff2 b43d
0.104692474 0.06263075 -1.4714311 -0.048937876 0.037798997 0.06577735 0.054663118 -0.030648323
0.09811486 0.47290248 0.071161926 0.15814437 0.08335561 0.011529023 0.07147991 -0.039515115
-0.05339093 0.36982173 0.012356449 -0.11625477 -0.022206394 -0.06923193 -0.12553436 -0.11709155
-0.18089157 -0.010480345 0.41126108 0.14610584 0.00020711415 -0.16965432 0.10577708 -0.10152905
0.031377822 -0.36605692 -0.05050389 0.37414765 0.044383295 -0.05095851 -0.14138651 -1.8211663
-0.06765998 -0.29709917 0.4072066 -0.4150332 -1.1089402 -1.2902899 0.027371295 -0.07449749
-0.042158015 0.15738864 -0.36710757 0.24662305 0.04598762 -0.7902887 -0.08156336 -0.050237704
0.032320328 -0.058277957 -0.033730112 0.09322687 0.046062924 0.042137254 -0.118253045 -0.26923025
0.68788964 -0.39351436 -0.015124807 0.13579686 0.0038870773 -0.053492542 -0.46576977 -0.09337633
0.26646218 0.0058072717 0.022727275 0.12419208 0.23883404 0.021544943 -0.09564077 -0.02354814
0.72039473 -0.08563801 0.382098 0.12660404 -0.062151484 -0.16351427 0.028572824 0.04342714
-1.2359315 0.18470836 0.47892785 0.086605944 -2.0193536 -0.06411235 -0.058014177 0.14693463
0.089554094 -0.06764926 0.06369357 -0.009806791 -0.14139646 0.0039093876 -0.09064253 0.13480641
-0.0888787 0.052586425 0.051424783 0.09989595 0.055659443 -0.09218754 0.12828168 -0.025131084
-0.27699095 -0.4739741 0.6144212 -0.6201454 -0.073467486 -0.022680776 0.014761334 -0.12744713
-0.06804075 -0.42963785 -0.052369107 -0.01908916 -0.886068 -0.3061288 -0.4600846 -0.09585141
0.0026129063 0.10094525 -0.4426072 -0.016523292 0.14871198 0.08514579 -0.026980884 -0.07339768
-0.046441536 -0.14655323 0.076517396 -0.16409482 -0.02512785 -0.045583118 -0.00029514087 -0.01673252
-0.15259276 -0.05716852 -0.024392739 0.015023708 -0.019290546 -0.04763105 -0.050578076 0.021170586
-0.016847942 -0.073094636 -0.04803922 0.12621394 -0.03301705 -0.24241418 0.050511464 -0.019895876
0.019929348 -0.21003355 -0.018725451 0.13530165 -0.08576374 -0.027003959 -0.052341796 -0.3251978
0.026760587 -0.034849446 -0.3958166 -0.24408841 -0.38709256 0.059066534 0.012700698 0.032842785
0.043842625 0.013778562 -0.35366708 0.073624 -0.012756102 -0.30835578 -0.0059341392 0.011215171
-0.044915345 -0.060320295 -0.0420368 -0.02703825 -0.017569177 0.09651303 0.038176294 -0.18155998
0.08569473 0.082965806 0.0740161 -0.012617292 -0.05987632 -0.06406677 0.05451291 0.05548259
-0.07767016 0.06569446 0.009590994 0.043837305 -0.13602018 -0.039255437 -0.12791502 -0.019243935
-0.12809354 0.027697634 0.01875857 0.08681884 0.08006668 -0.17560111 -0.05757053 0.10427566
-0.23391847 0.07966147 0.003848945 0.05641851 -0.54244953 -0.0019640978 0.056609895 0.08713606
0.09772327 0.024466695 -0.029771194 0.07082156 -0.22204284 -0.058526363 -0.0672608 0.08485382
0.013894049 -0.035504747 -0.06648136 -0.015815567 -0.05749989 0.038356483 0.014627781 0.09588549
-0.29447293 -0.22588919 -0.066760786 0.102988005 -0.06264786 0.05885293 -0.018692117 -0.101729155
0.030960422 -0.24698636 -0.014997423 -0.043996938 -0.57040554 -0.16773115 0.09664168 0.08835303

layers.1.bias f4 [6]
00000000: 82d4 24bf 7cf6 c5bd 0000 0000 0000 0000
00000010: 0000 0000 0000 0000
-0.6438676 -0.09666154 0.0 0.0 0.0 0.0
