RL4E2E/results/collected_results/2.0k1/episode_1001/actor_param.pt (torch, 18853 bytes, 6 tensors)

layers.0.weight f4 [128, 3]
000000 58 0b 85 3d 70 84 03 bf b4 b4 e9 3e 24 bf 94 bd
       0.06496304 -0.5137396 0.45645678 -0.0726302
000010 44 1f 3d 3f 58 00 30 bf d3 05 87 3d cf 43 a4 3e
       0.7387583 -0.68750525 0.06592908 0.32082984
000020 87 0a 0e 3f 92 0c 98 3d 07 1f ba bd be 58 1a 3e
       0.55484813 0.074242726 -0.09087949 0.15072915
000030 40 5d 7d 3f 0a 3e f6 bd 74 b5 ea be 10 08 f0 be
       0.98970413 -0.12023552 -0.45841563 -0.4688115
000040 c1 f4 e2 3e ce f2 0a be 1e f4 88 3e c4 a5 eb 3f
       0.44327357 -0.13569185 0.26748747 1.8409963
000050 ed cb a1 3e c5 55 00 40 10 56 a6 3e 5d 17 97 3f
       0.31600896 2.005235 0.32487535 1.1804005
000060 3c 41 84 be 86 d7 3a bf 52 23 27 bf 91 f4 cd bf
       -0.2583102 -0.7298511 -0.6528827 -1.6090261
000070 62 35 df 3e b9 17 1f 3e 3e cc ed bf 23 11 49 3f
       0.43595415 0.15536393 -1.8577955 0.78541774
000080 06 c0 ef 3e 5f bb 85 bf 7b 94 3f 3d 64 31 34 3f
       0.4682619 -1.0447806 0.04677246 0.70387864
000090 08 0e a6 3e da aa 0d bf 44 71 0d be c9 7f 17 3d
       0.3243258 -0.55338824 -0.13812739 0.0369871
0000a0 c3 3d 76 3e 70 d5 18 3f 98 43 1a bd e3 91 85 3f
       0.24046998 0.5970068 -0.03766212 1.0435146
0000b0 29 25 1c 3f 77 57 72 bf 73 4a 9a bf 2c da 7c bd
       0.609942 -0.9466471 -1.205397 -0.061731502
0000c0 eb 83 2c bf 99 75 ee bf 02 cd 79 bf 70 c8 ab 3f
       -0.6738879 -1.8629638 -0.9757844 1.3420544
0000d0 f0 8a bb 3f 3d 2a 42 bf f5 d4 a0 3f 73 1d 07 bf
       1.4651775 -0.758457 1.2564989 -0.5277931
0000e0 bf 9f 14 be 02 70 3b 3f 24 3f 4a 3f 76 e8 56 be
       -0.14514063 0.73217785 0.79002595 -0.20987114
0000f0 ad fe c4 be 87 b5 0f be 33 d9 38 be 7b ce 71 bb
       -0.38475552 -0.14034091 -0.18051605 -0.0036896754
000100 35 a4 a7 bf c1 dc ee 3e a7 a8 93 3f 9a 89 3b bf
       -1.3096987 0.46652797 1.1535844 -0.7325684
000110 10 88 72 3e a5 8f 2e bf da 5b 7c be 43 1b f3 3e
       0.23684716 -0.68187934 -0.24644414 0.47481737
000120 ac 60 a0 3d 7f bb 8a be 00 e0 d0 3f fe 1f 39 be
       0.07830939 -0.27096173 1.6318359 -0.1807861
000130 eb ab cf be e6 1e d9 bf 29 5b c3 3e 96 da f7 be
       -0.4056085 -1.6962554 0.38155487 -0.48408955
000140 f9 79 cf 3e 8f 3e 19 3f 2c d0 06 bf c8 40 f8 bf
       0.40522745 0.5986108 -0.52661395 -1.939477
000150 1c 46 37 bb a1 ce 2e 3f b2 79 a1 bf 99 31 10 bf
       -0.0027965372 0.6828404 -1.2615263 -0.5632568
000160 0b b8 51 3d 2c b8 3e 3f 53 c9 06 3f 7a af d4 3d
       0.051200908 0.74499774 0.52650946 0.10385032
000170 9e 4e 91 be c4 06 20 3f f5 cf 97 3e eb 49 b7 be
       -0.28380293 0.62510324 0.29650846 -0.35798582
000180 1f 58 b6 bc 2d 84 43 be 5a bd 08 40 f4 84 9c bf
       -0.022258816 -0.1909339 2.136557 -1.2228074
000190 e7 98 30 c0 d1 2a c0 bf 57 87 b9 bf 77 57 8b be
       -2.7593324 -1.5013067 -1.4494427 -0.27215168
0001a0 2a 7c 64 3e b3 38 ce bf 72 98 03 3d 6f cb c3 bf
       0.2231299 -1.6111053 0.032127805 -1.5296458
0001b0 0b ea ad 3e 70 a3 23 bf 4c 05 bc 3e f4 63 8d bf
       0.33967623 -0.6392126 0.3672279 -1.1046128
0001c0 9f 2f 09 3f a8 02 25 3f 9e 64 82 bf e1 9d 9d 3f
       0.5358829 0.6445718 -1.0186956 1.2313806
0001d0 0c 9d a2 3e 31 ab b3 3e eb 16 7f 3f 3d 49 9c 3f
       0.31760442 0.35091546 0.99644345 1.220985
0001e0 1a 81 88 be e3 9c 74 bf ae 16 8d bf 13 21 49 3e
       -0.26660997 -0.9555189 -1.1022546 0.19641523
0001f0 fd a8 d3 3e 32 b5 95 be d5 c0 8e 3c 0b 47 71 3f
       0.41339865 -0.29239804 0.017425934 0.9424903
000200 ed 20 a0 be a2 ea 27 3f b9 5e e8 be 1b db dd bd
       -0.3127512 0.65592396 -0.45384768 -0.10832807
000210 ed d8 b9 3e 5a 42 e7 be 28 f4 b1 3f 9a 0c 47 3d
       0.36298314 -0.4516781 1.3902636 0.048596002
000220 41 d9 2c be 97 52 7f bf e4 1c 18 3f 79 0e d5 be
       -0.16879751 -0.997354 0.59419084 -0.41612604
000230 1a 2d de 3f 92 a0 8e 3c 8a e1 3d 3d 44 55 91 bf
       1.7357514 0.01741055 0.04635767 -1.1354146
000240 1f 58 0e 3f 57 7f d9 3d a3 e8 da 3e 18 cf 4a 3e
       0.5560321 0.10619991 0.42755613 0.19805562
000250 8b 76 bb be 46 ca 58 bf 1c 35 cd 3e 46 19 91 bf
       -0.3661388 -0.84683645 0.40079582 -1.1335838
000260 b1 99 9f 3f c1 4e b0 be 11 54 f3 3e cf 61 98 3f
       1.2468778 -0.34435084 0.47525075 1.1904849
000270 77 02 f5 be fc fc 82 bd 98 44 85 3f 22 08 02 bf
       -0.47853443 -0.06395909 1.0411558 -0.5079366
000280 f6 36 b2 be 7b 7d 8a be 68 89 d4 3e 50 78 0f 3f
       -0.34807557 -0.2704886 0.41511083 0.5604296
000290 8b b0 bb 3f 64 45 d1 3d f1 4a fa be 06 00 2f 3f
       1.4663252 0.10218313 -0.488853 0.6835941
0002a0 ae e5 72 3f 5f 1c 3d 3e db 73 9b 3f d8 ce 2c be
       0.94881713 0.18467854 1.2144731 -0.1687578
0002b0 85 e1 5c 3f 7a 07 cd 3e f5 a5 c6 bf 7c 7d 86 3c
       0.86281615 0.40044767 -1.5519396 0.016417257
0002c0 43 5e a9 3e 4a 1c 1e 3b cf 88 94 bf 52 50 b8 3e
       0.33079728 0.0024125748 -1.1604251 0.3599878
0002d0 c3 52 9d 3e 85 2d 57 bf c1 a9 ed 3e 07 b0 fd 3f
       0.30727205 -0.8405383 0.46418574 1.9819344
0002e0 a9 f4 fe bd 17 93 b3 be b0 60 b1 bb 89 cf 75 3d
       -0.12449009 -0.35073158 -0.0054131374 0.060012374
0002f0 11 13 26 3f 03 6d 45 3f f9 51 92 3f 74 57 44 3e
       0.64872843 0.77119464 1.1431266 0.19173986
000300 34 30 35 3f b8 11 5c 3f 5a 24 9e be f7 b6 05 bf
       0.7077668 0.85964537 -0.3088711 -0.5223231
000310 c9 c4 49 be 25 62 7e bf 64 d2 28 bf e5 59 28 bf
       -0.19703974 -0.99368507 -0.6594603 -0.6576217
000320 ef 90 ce 3e a9 3a db bf b8 ec e5 3d 0d 38 38 bf
       0.4034495 -1.7127277 0.11226791 -0.71960527
000330 90 69 ba 3e 54 07 7a be f0 47 3b bf 37 ae fe be
       0.36408663 -0.24416858 -0.7315664 -0.4974229
000340 8a ec c7 3f 2d 91 78 bf 0f fc 33 3f 36 a7 b5 3e
       1.5619061 -0.9709652 0.70306486 0.35479134
000350 a5 d6 75 3f a7 c2 30 3e 61 f2 3c 3d 0e 35 48 bf
       0.96030647 0.17261754 0.046129588 -0.78205955
000360 e5 20 e7 bf cc bc 89 bd 04 8d 07 be c5 f4 be 3e
       -1.8056914 -0.06725463 -0.13237387 0.3729612
000370 75 9e 6f 3f 1c 42 70 bf c3 96 9e 3b 20 27 03 3f
       0.9360116 -0.93850875 0.0048397495 0.51231575
000380 99 dc 71 bd e5 7d b7 bf 3f 4f 38 3e 06 13 7c be
       -0.05904827 -1.4335295 0.1799898 -0.24616632
000390 38 2f 48 be 15 7a 8f 3e b0 c5 47 bd 11 c4 b3 be
       -0.19549263 0.2802283 -0.048772514 -0.35110524
0003a0 c5 d8 28 3f 57 90 4f bf d6 07 07 3d 85 ba 05 bf
       0.65955764 -0.8107962 0.032966457 -0.5223773
0003b0 f5 6b 79 bf 68 54 a1 bd 7f b4 84 bf 31 08 18 be
       -0.97430354 -0.07877427 -1.0367583 -0.14846875
0003c0 99 e2 6a 3e 9b 02 d2 be 82 f0 91 3e ae 1f 30 3f
       0.22938003 -0.41017613 0.28503805 0.6879834
0003d0 40 e3 8a be e9 f4 5f 3c 94 94 83 bf d3 c1 bf 3e
       -0.27126503 0.013669231 -1.0279717 0.37452564
0003e0 4b 36 88 3f bf e4 a5 be 89 6c f0 be ea e3 8d bf
       1.0641569 -0.32401082 -0.46957806 -1.1085179
0003f0 2b 4e d7 3e c9 9d 6e be a0 2f 90 3f 89 b8 de bc
       0.42051825 -0.23302378 1.1264534 -0.027187603

layers.0.bias f4 [128]
000000 f2 18 c6 3e b5 94 24 3e fd a3 d5 3e 6c fa 12 bf
       0.38690907 0.16072352 0.41726676 -0.57413363
000010 53 3f df be b5 cf 67 3d f8 de a1 3e 36 ab c5 3e
       -0.43603 0.05659457 0.31615424 0.38607186
000020 00 00 00 00 58 c7 52 3d ad 7a 9c 3b 44 06 f5 3c
       0.0 0.05145964 0.0047753663 0.029910214
000030 82 e7 d7 be 75 89 d6 3e a4 aa 07 3f 00 00 00 00
       -0.42168814 0.41901746 0.5299475 0.0
000040 00 00 00 00 4e 97 77 3e 22 2f db be 98 fd c5 3e
       0.0 0.24178812 -0.42809397 0.3867004
000050 00 00 00 00 d1 b5 d3 3e 6a d2 dd be 3b 1e 3e 3d
       0.0 0.41349652 -0.43324596 0.04641555
000060 d9 b9 c9 3e 00 00 00 00 b2 73 ee be 57 53 ab be
       0.39399603 0.0 -0.46572644 -0.3346202
000070 e7 cc 60 3c 73 5e 20 bc 91 1b fc be 42 3e 9e be
       0.0137207275 -0.009788143 -0.49239781 -0.30906874
000080 0d f8 a7 3d 00 00 00 00 46 40 b6 3d 00 00 00 00
       0.08201609 0.0 0.08898978 0.0
000090 e7 d6 ea be a1 ef 48 bd 81 32 9d 3c 7a 18 b5 3e
       -0.45867082 -0.049056653 0.019189121 0.35370237
0000a0 00 00 00 00 53 e2 f2 3e a2 7b b5 3e dd 02 de be
       0.0 0.47438297 0.35445887 -0.4336156
0000b0 f6 45 db 3e 76 3d a5 3e 70 4b d0 3e 8e 69 8f 3e
       0.42826813 0.32273453 0.40682554 0.2801022
0000c0 5a 44 e5 3e cc cd c9 be 44 5b c6 3e 3f 84 dc 3e
       0.4477871 -0.39414823 0.38741505 0.43069646
0000d0 b7 24 83 3e 00 00 00 00 ac 14 bf 3e 14 45 fa 3e
       0.2561395 0.0 0.3732046 0.48880827
0000e0 b7 54 cb 3e 12 fa aa 3e e3 09 eb 3d b6 0e 71 3e
       0.3971307 0.33393914 0.11476495 0.23540768
0000f0 f9 b8 d9 be 09 e7 e0 be 7f 66 01 3f 2c 45 c0 3e
       -0.42523935 -0.43926266 0.5054702 0.37552774
000100 1c 2b ca 3e 00 00 00 00 c0 7f 22 3d 00 00 00 00
       0.39486015 0.0 0.039672613 0.0
000110 89 ed d2 be 15 fc 5a 3e 3a 80 cc 3e a6 39 e5 be
       -0.4119685 0.21385224 0.3994158 -0.44770545
000120 00 00 00 00 43 cd f5 3c 8d 15 df 3e 23 a0 6d 3d
       0.0 0.030005103 0.4357113 0.058014046
000130 74 b7 7c 3c 60 f5 c9 3c 60 bf 9c 3e 00 00 00 00
       0.015424598 0.024653137 0.30614758 0.0
000140 29 fc fc be 71 44 ee be 10 93 a8 3c 00 00 00 00
       -0.49411133 -0.46536592 0.020577937 0.0
000150 9c 66 dc 3e 34 33 59 3e 5b 8c ed 3e 8f 80 cd 3e
       0.43047035 0.21210939 0.46396145 0.40137145
000160 a8 15 b2 3d 06 5d be be 30 1a e8 be 65 2e c2 3e
       0.08695537 -0.37180346 -0.4533248 0.3792602
000170 88 ea d1 3e 9d c7 c7 3e e7 92 30 3d 65 7a da 3e
       0.40999246 0.3901948 0.043108847 0.42671505
000180 aa 0a c2 be 8e b6 cd be a0 e0 da 3c eb f4 d8 3e
       -0.3789876 -0.4017834 0.026718438 0.42374358
000190 b6 6c f7 be fa ea cf be cf dd ee be c6 e2 6b 3e
       -0.48325127 -0.4060896 -0.46653602 0.23035726
0001a0 9a 8b 47 3b 4e 81 b8 3c ee 71 66 3d b5 be c6 be
       0.00304482 0.022522595 0.056260996 -0.38817373
0001b0 53 6e 41 3e 7a 40 ea 3e 2e 8c e0 be 6c 62 e0 be
       0.18889742 0.45752317 -0.4385695 -0.4382509
0001c0 3f b1 e0 3d 66 0c d1 be a8 1c 86 3d 01 cd d6 3d
       0.10971307 -0.40829772 0.065484345 0.1048832
0001d0 00 00 00 00 8a 1e c1 3e 03 03 e0 bc 0f b2 e2 be
       0.0 0.37718612 -0.027345186 -0.44276473
0001e0 49 ed c8 3e bc 63 ad 3e 00 00 00 00 41 b1 e0 3e
       0.39243534 0.33865154 0.0 0.43885234
0001f0 da 5d 33 3d 3a 86 e1 3e 00 00 00 00 3f cb 66 3d
       0.043790676 0.4404772 0.0 0.056346174

action_parameters_output_layer.weight f4 [27, 128]
000000 55 a5 a3 b9 29 df 6b bb 16 0d 28 ba 4c dc 71 38
       -0.00031212965 -0.0035991168 -0.00064106414 5.7664045e-05
000010 ba a3 af b6 f9 78 95 bb ac fc 0f 39 41 df d1 38
       -5.2344667e-06 -0.00456154 0.0001373167 0.00010007481
000020 b5 85 f2 38 2f 5e da bb 6d 36 03 bb d7 7d 84 bb
       0.00011564364 -0.0066640596 -0.0020021454 -0.0040433216
000030 db aa 70 38 19 42 a0 ba 31 0e ad 3a f5 4c f7 36
       5.737958e-05 -0.001222673 0.0013203082 7.3701326e-06
000040 53 fd 01 38 44 89 fc 37 87 ec cf b8 f5 1f d6 38
       3.0991923e-05 3.010466e-05 -9.914586e-05 0.00010210268
000050 78 2f c3 37 56 66 88 3b 55 bc 6b b7 3c fc 17 bc
       2.3267916e-05 0.00416259 -1.4050941e-05 -0.009276446
000060 89 35 98 ba 55 83 16 38 81 f3 20 38 b6 42 8d 39
       -0.0011612634 3.58851e-05 3.8373753e-05 0.0002694332
000070 c3 92 33 3b 98 40 8d 3b 54 f2 33 38 9b 7d 06 39
       0.002740071 0.0043106787 4.290261e-05 0.00012826028
000080 4b 6c ff 3a b7 e8 25 38 a1 90 d9 ba f1 12 09 b9
       0.001948723 3.9555798e-05 -0.0016598889 -0.00013072394
000090 ad 7b 82 b9 fa 09 8d 3b de c4 98 3b a0 ef d9 38
       -0.00024887678 0.004304168 0.0046621403 0.00010392
0000a0 54 df d7 b8 d8 31 1d 39 ab d2 86 39 6c 7d 0f b9
       -0.00010293597 0.00014991255 0.00025715432 -0.00013684266
0000b0 16 aa 9f b9 a0 a4 3c bb d3 81 15 b9 ec d9 1d bb
       -0.00030453567 -0.0028784648 -0.0001425811 -0.002408619
0000c0 8d 93 40 b8 89 65 7b 39 0c 2e b1 b9 16 bf 5a 3c
       -4.5913785e-05 0.0002397505 -0.00033794378 0.0133512225
0000d0 93 a7 2b 3c 70 2b 11 b7 0b ac a9 b8 70 c6 07 ba
       0.0104769645 -8.652787e-06 -8.0905935e-05 -0.0005179411
0000e0 fc ed 85 b9 80 38 2c 3c f6 0d 8d ba 7f 5f e3 bb
       -0.0002554505 0.0105115175 -0.0010761607 -0.0069388743
0000f0 47 0d 2d b9 63 00 1f b7 06 83 fd 3b b9 d2 14 39
       -0.00016503512 -9.477229e-06 0.0077365665 0.0001419288
000100 11 f1 1a 39 a6 cb 81 39 ee c1 a9 bb 66 cf 9e 38
       0.00014776389 0.00024756527 -0.005180589 7.572658e-05
000110 b8 fe 26 39 7b c2 86 bb 61 fb ed 38 55 7b 23 3a
       0.00015925884 -0.0041125393 0.000113478636 0.00062363344
000120 12 fe 55 b8 20 fd a9 39 28 90 95 ba 3c da 38 3a
       -5.101978e-05 0.00032422785 -0.001141076 0.00070515624
000130 4f fa a3 3b f9 7b c7 bb d5 dc 65 3b 9e 29 ca b8
       0.0050042043 -0.0060877767 0.0035074253 -9.6398624e-05
000140 7b 1a 0f b9 bc 70 b2 b8 ca 35 ed 3b bf 45 66 38
       -0.00013647407 -8.5087e-05 0.007239078 5.490123e-05
000150 75 42 19 b9 40 34 7a bb 9a 40 de b8 f6 c4 26 bb
       -0.00014615974 -0.0038178116 -0.00010597818 -0.0025446988
000160 00 1f 4e bb db b6 86 38 5c 15 8c 37 2e 5e 4a 37
       -0.0031451583 6.4236774e-05 1.6699247e-05 1.2062066e-05
000170 92 56 9d 37 92 54 95 39 c7 36 46 bb 2f e9 3e 38
       1.875617e-05 0.00028482504 -0.0030245052 4.55167e-05
000180 8b 35 52 b9 85 16 3b 39 d4 7b 02 3c 85 f4 fb 38
       -0.00020047107 0.00017842099 0.007964093 0.00012014158
000190 72 f9 a0 39 79 86 b1 38 31 48 ed 3a fa 82 22 b8
       0.0003070343 8.465065e-05 0.001810318 -3.874579e-05
0001a0 ae 52 fc bb 2c a5 b2 3a 71 f0 e3 ba 7c 28 67 b8
       -0.007700286 0.0013629547 -0.0017390383 -5.5112396e-05
0001b0 cc f9 29 bb a0 68 82 b9 8f 7b 97 b8 aa 6a 24 39
       -0.0025936244 -0.00024873484 -7.223256e-05 0.00015679994
0001c0 e5 16 ae bb 5b 49 1a b9 fd ff 87 bb 14 19 00 3b
       -0.005312788 -0.00014713912 -0.004150389 0.0019546198
0001d0 3c 99 06 b9 82 52 4a b9 14 a6 c3 3b 99 8f 57 39
       -0.0001283632 -0.00019294958 0.005970726 0.00020557492
0001e0 fa 59 0c 39 1c 63 0f 39 c6 df 2a 39 de 3a 18 38
       0.0001338496 0.00013674464 0.00016295825 3.629445e-05
0001f0 9e 2c 00 bb 89 1a ba b8 25 02 44 38 bc 31 03 ba
       -0.0019557844 -8.874114e-05 4.673204e-05 -0.00050046644
000200 ae 7c 91 3b e2 c0 42 3d 0d 8f 9f 3b bb a0 8a bb
       0.004439912 0.04754723 0.004869348 -0.0042305863
000210 de db d9 b9 00 3d 4b 3a e7 9c 6c 3a 2d 6e 10 3a
       -0.0004155328 0.0007752925 0.0009026066 0.00055095815
000220 bb 7a a4 38 bf 1d 0f 3d ad ff 9b 3b 5c 71 85 3c
       7.84299e-05 0.034940477 0.0047607035 0.016289406
000230 ba 6e 8c ba 8e fd ea 3b e7 2c 69 3d 7d a6 ec 38
       -0.0010714151 0.0071713394 0.056927588 0.00011284368
000240 2c 8a 1d 38 d0 4a 65 b8 75 64 94 b9 c3 b2 a0 39
       3.75604e-05 -5.466753e-05 -0.00028303606 0.00030650766
000250 65 3d 40 39 61 70 1f 3d 9f 22 9e b9 4c 4a 99 3b
       0.00018333418 0.038925532 -0.00030161903 0.0046780463
000260 7e 27 cc 3b 88 93 14 39 78 5b 0b ba 1c f0 10 bb
       0.006230294 0.0001416934 -0.0005316059 -0.0022115773
000270 23 dc 06 be 42 0d 68 3d c4 9f 5d ba 2b 67 02 b9
       -0.13169913 0.05665327 -0.0008454288 -0.00012436199
000280 0f 41 e0 bc 1b a1 38 b8 cb ef cd 3c af 6c 3a 38
       -0.027374772 -4.401906e-05 0.025138756 4.4447075e-05
000290 2b 14 33 ba dc 14 5c bb 1a 49 95 3c cb 0b cc 3a
       -0.00068313134 -0.003358177 0.018223334 0.001556748
0002a0 63 52 54 b7 ee 5d 86 3a 99 28 c6 3a eb ae 4a ba
       -1.2655367e-05 0.0010251382 0.00151183 -0.0007731753
0002b0 4b f1 03 3b 17 b1 10 bc ae 87 b3 3a 01 86 e8 bd
       0.0020132835 -0.008831284 0.0013697052 -0.11353684
0002c0 8c 41 56 3a 38 6f a0 bb 28 93 b2 3a b6 09 da bd
       0.00081732194 -0.004896071 0.0013624178 -0.106463835
0002d0 36 c1 97 3c 8f 37 c9 b8 97 fa d8 3a 70 6d 98 3b
       0.018524747 -9.5947755e-05 0.0016554174 0.004651718
0002e0 91 c1 16 3a 3d 88 ae bd 9a 4b 33 3d 8f 98 d1 bb
       0.00057508895 -0.08522079 0.04377327 -0.00639636
0002f0 86 80 12 ba c0 82 20 b9 0a b7 9a 3c 32 83 0f 3a
       -0.00055886095 -0.00015307497 0.018886108 0.0005474567
000300 50 66 33 39 6b d6 15 b9 a7 a7 9e bc 88 8e 2a b8
       0.00017108885 -0.00014289624 -0.019367052 -4.06639e-05
000310 a1 d0 e2 ba a8 e9 2f 3d 56 89 44 3a d7 63 98 bb
       -0.0017304608 0.04294744 0.0007497271 -0.0046505737
000320 ad dc 93 b7 ce 95 02 ba fa 1a 7f 3b 97 12 41 3d
       -1.7626526e-05 -0.0004981429 0.0038925991 0.04713687
000330 aa f8 89 3c d6 c5 4e 3b 54 b5 b2 bb cc af cd b6
       0.016842205 0.0031551025 -0.005453745 -6.1299415e-06
000340 76 4f 8c ba 1b 27 f4 b9 05 28 15 3d 1d 1e 99 37
       -0.0010704834 -0.00046568442 0.03641512 1.8253044e-05
000350 82 59 c2 3a bc bf b7 bd fb f8 ed 3a d2 ef 20 3c
       0.0014827701 -0.08972117 0.0018155867 0.009822803
000360 c2 50 8d 3b ca 96 c5 b9 64 67 c8 b9 7d 11 53 3a
       0.0043126056 -0.00037687115 -0.00038224005 0.0008051617
000370 c1 75 4f 39 14 23 94 3a 86 8e db 3a 16 32 aa 39
       0.00019784925 0.0011301958 0.0016750849 0.00032462244
000380 7d f4 aa b9 16 8a 12 ba b5 b2 be bb 78 cf 04 3a
       -0.00032607085 -0.00055900344 -0.0058196434 0.00050663156
000390 48 e2 d8 ba 8c 41 1e ba 43 c6 37 bc 82 64 0c 39
       -0.0016546929 -0.0006036989 -0.011216703 0.00013388883
0003a0 5d d9 07 3d a5 8d 1d 3d 55 cb a5 bc ca ca 22 36
       0.03316628 0.03846516 -0.020238558 2.425792e-06
0003b0 e9 3c b6 3b d2 a7 9f 3a cd 7d 53 b9 d3 e9 d7 b9
       0.0055614603 0.0012180752 -0.00020169393 -0.00041182208
0003c0 a1 69 6b 3d 0a 6a ed ba 2c a9 96 3c a0 d4 d4 3c
       0.057473782 -0.0018113267 0.018391214 0.025980294
0003d0 69 c7 b7 38 37 a0 3f 3a b0 ce b0 3c 69 42 0e ba
       8.763263e-05 0.00073099456 0.021582931 -0.0005426766
0003e0 4e 38 0b 3a c4 73 70 39 d4 31 1b b8 65 54 ec 39
       0.0005310819 0.0002293131 -3.7001286e-05 0.00045076307
0003f0 6e 92 8e bc 86 df f1 39 e7 ae 0e b9 b9 71 5f 3c
       -0.017403807 0.0004613364 -0.00013607331 0.013637953

action_parameters_output_layer.bias f4 [27]
000000 0d 0b ef 3b 33 01 58 3e 28 77 03 3d 34 7a 6d 3e
       0.0072950185 0.21094207 0.032096058 0.23191148
000010 1a 32 a7 3c a5 a9 8f 3d 48 90 51 3e a5 6f a2 3e
       0.020409632 0.07014779 0.20465195 0.31725803
000020 72 09 a3 3c 05 a5 4f 3e 9b e3 80 3c 2e 5f ae 3e
       0.019901965 0.20277794 0.01573353 0.3405699
000030 13 45 a0 3e ac 28 69 3e 0b c8 9d 36 2f cb 92 3e
       0.313027 0.22769421 4.7022527e-06 0.28670642
000040 98 cd 12 3e 97 5b 8f 3e dd b2 a8 3d 4e 7a 79 39
       0.1433624 0.27999565 0.082372405 0.00023792053
000050 8d d3 7e 3b 11 a1 5f 3d 1d bf f9 bb 3b f2 bb 3e
       0.0038883418 0.054596964 -0.0076216594 0.36708245
000060 53 db b8 3e 63 8e 1b 3e b3 4a 60 3c
       0.3610483 0.15191035 0.013689685

action_parameters_passthrough_layer.weight f4 [27, 3]
000000 00 00 00 00 00 00 00 00 00 00 00 00 00 00 00 00
       0.0 0.0 0.0 0.0
000010 00 00 00 00 00 00 00 00 00 00 00 00 00 00 00 00
       0.0 0.0 0.0 0.0
000020 00 00 00 00 00 00 00 00 00 00 00 00 00 00 00 00
       0.0 0.0 0.0 0.0
000030 00 00 00 00 00 00 00 00 00 00 00 00 00 00 00 00
       0.0 0.0 0.0 0.0
000040 00 00 00 00 00 00 00 00 00 00 00 00 00 00 00 00
       0.0 0.0 0.0 0.0
000050 00 00 00 00 00 00 00 00 00 00 00 00 00 00 00 00
       0.0 0.0 0.0 0.0
000060 00 00 00 00 00 00 00 00 00 00 00 00 00 00 00 00
       0.0 0.0 0.0 0.0
000070 00 00 00 00 00 00 00 00 00 00 00 00 00 00 00 00
       0.0 0.0 0.0 0.0
000080 00 00 00 00 00 00 00 00 00 00 00 00 00 00 00 00
       0.0 0.0 0.0 0.0
000090 00 00 00 00 00 00 00 00 00 00 00 00 00 00 00 00
       0.0 0.0 0.0 0.0
0000a0 00 00 00 00 00 00 00 00 00 00 00 00 00 00 00 00
       0.0 0.0 0.0 0.0
0000b0 00 00 00 00 00 00 00 00 00 00 00 00 00 00 00 00
       0.0 0.0 0.0 0.0
0000c0 00 00 00 00 00 00 00 00 00 00 00 00 00 00 00 00
       0.0 0.0 0.0 0.0
0000d0 00 00 00 00 00 00 00 00 00 00 00 00 00 00 00 00
       0.0 0.0 0.0 0.0
0000e0 00 00 00 00 00 00 00 00 00 00 00 00 00 00 00 00
       0.0 0.0 0.0 0.0
0000f0 00 00 00 00 00 00 00 00 00 00 00 00 00 00 00 00
       0.0 0.0 0.0 0.0
000100 00 00 00 00 00 00 00 00 00 00 00 00 00 00 00 00
       0.0 0.0 0.0 0.0
000110 00 00 00 00 00 00 00 00 00 00 00 00 00 00 00 00
       0.0 0.0 0.0 0.0
000120 00 00 00 00 00 00 00 00 00 00 00 00 00 00 00 00
       0.0 0.0 0.0 0.0
000130 00 00 00 00 00 00 00 00 00 00 00 00 00 00 00 00
       0.0 0.0 0.0 0.0
000140 00 00 00 00
       0.0

action_parameters_passthrough_layer.bias f4 [27]
000000 00 00 00 00 00 00 00 00 00 00 00 00 00 00 00 00
       0.0 0.0 0.0 0.0
000010 00 00 00 00 00 00 00 00 00 00 00 00 00 00 00 00
       0.0 0.0 0.0 0.0
000020 00 00 00 00 00 00 00 00 00 00 00 00 00 00 00 00
       0.0 0.0 0.0 0.0
000030 00 00 00 00 00 00 00 00 00 00 00 00 00 00 00 00
       0.0 0.0 0.0 0.0
000040 00 00 00 00 00 00 00 00 00 00 00 00 00 00 00 00
       0.0 0.0 0.0 0.0
000050 00 00 00 00 00 00 00 00 00 00 00 00 00 00 00 00
       0.0 0.0 0.0 0.0
000060 00 00 00 00 00 00 00 00 00 00 00 00
       0.0 0.0 0.0
