RL4E2E/results/pptod/2.0k1/episode_2500/actor.pt (torch, 20755 bytes, 4 tensors)

layers.0.weight f4 [128, 30]
00000000: 73e8 703d 37cf 753e d146 a9bd 5694 f3be
00000010: 3df4 4ebe 6cbe 0fbf a900 5dbe 10d4 f63d
00000020: 3f4a 4dbe f5de e4be 3f79 2b3d c011 093f
00000030: 8254 28be 5c4f b23d 508e 9ebe 1b34 efbe
00000040: 84a1 0abd d857 b83e cb57 94bc 0fd5 ddbe
00000050: 3a43 dcbd 0acb 013e 3c30 023e 450d 7f3e
00000060: 5e41 d9be 7603 06bf 3547 e5be 90e8 12bd
00000070: 3555 83be 392f efbe 315f 86be 89eb dfbe
00000080: 9868 3cbe 631d 4f3e 815a 5bbe ca43 01be
00000090: e03d 11be 0d90 c23c 4217 0bbd c449 113d
000000a0: 7010 14be 30cf 74be 729b 083d 9122 d33e
000000b0: 030f 583e 7df0 8c3c dee3 54be 80de fdbd
000000c0: c4b4 2a3c aa4c d7be 5db2 c33e 66b8 873c
000000d0: 0d7e 523e 69ff 273d d559 4a3d bf85 60be
000000e0: 87a0 133e 313b 94be e140 43bd b155 b8bd
000000f0: c614 d5be a789 313f bbf3 1b3f d4f1 9dbe
00000100: b9c6 3d3e 8a4f 45bf d408 fbbe 5440 71bc
00000110: 6fd2 2fbe f7ab 5f3e 8c9f 8fbd 89f1 6abd
00000120: 2a38 24bd 04ae 023d 8115 3f3f d395 933e
00000130: c447 85be c8b1 453e 7805 a3be f55d e13e
00000140: 63b5 8e3e 389f 1a3f 1da1 48bc fbf6 d03e
00000150: 935e 26be b1cb 88be 1011 2dbe 55c9 d13e
00000160: 60bb b8bd c97f 66be e259 ca3c c2f3 1bbf
00000170: 906b 6cbd b41f 853e 2a55 803e f40c 26be
00000180: 0ca1 c03d 022d 5b3f 50f5 083e 9f66 ee3d
00000190: 99ad a63e 732a 263f 7649 4c3e 52c7 8b3e
000001a0: fd06 f13e ca19 e93e c97c 45be d686 993d
000001b0: 2b8e 8c3e 5cbf 4cbe eecc 4b3f 43d0 ad3e
000001c0: 230d 573e 6111 7d3f 9446 1dbe 3e98 f23e
000001d0: 8528 d93d caab 833d 31e2 643f 6418 b13d
000001e0: 3111 cd3e eb62 a1be 5283 39be 1040 5abd
000001f0: 9b11 133e 154b e4be fd9e abbe 8950 7d3e
00000200: 1f95 f2bc baec d2be 9c23 d4bd 5f13 013e
00000210: 6555 dcbe 17cc 39bf bd75 943d e556 573d
00000220: 0210 84be df04 2b3e e05f 1dbe fb3c f13d
00000230: 231b acbd 2bc0 81be 35e5 683d efad fbbd
00000240: fec4 bebe 833a 85be f394 e2be 6078 ae3d
00000250: 24b3 4abe 30d5 67be b3f7 a0be 989f e9bd
00000260: 16d2 99be 43dc 35bc 9e7d a03e 70a0 30be
00000270: c919 07bd b48a d8be 2b19 473e b143 17be
00000280: 35b1 86bc a147 fe3e ed37 5abc ed8a 49be
00000290: 55a7 a83e fa09 d63d 373f 65bd ce9e bbbe
000002a0: 5223 c3be f229 22be a825 99bd 2602 5d3e
000002b0: c659 823e 72b1 2b3e dec4 dbbd 2de7 763e
000002c0: afdf c3be 7415 e8be 4790 913e dde8 2cbe
000002d0: edd4 94bb 870e 1e3f b225 9abf b498 063d
000002e0: 10a3 893e 9010 f1be 50e0 3e3f 37fa 29bf
000002f0: 1ed8 b73e 3f5e 1d3f 00ce 8ebf 55a3 debe
00000300: a522 3d3f af28 11be 541b e53d 2d19 93be
00000310: c368 913f afe7 993e 2e3c 2c3f eb56 7a3f
00000320: 390f de3e fcab 233f 18a8 f63e 335a 223e
00000330: b068 a33d c38a 813e 3223 003f 98ae 013e
00000340: beb2 c83e b832 893f 62df 0bbe 2f8e 3d3e
00000350: d3a5 7e3f 3507 573e 4fe0 64bd ac23 203f
00000360: 96f8 823e 38d0 60be 25e8 1fbf 3db8 7d3e
00000370: f119 dfbe 88cb 20be 016f 95be 3272 15be
00000380: 2df8 58bd f3b0 9e3d 9286 75be 91d4 1d3f
00000390: fb8b 03bf 3d2f b33c ad7c 7fbe 13a3 66bf
000003a0: d691 f93e b06c 8e3f 0664 35bd 69aa 6dbe
000003b0: 5a7d 23be f3b1 56be 3c67 f63c 24ab 77bd
000003c0: b1b8 80bd 6c29 4bbe 7e45 dbbd 4a27 fbbd
000003d0: 5c01 76be eb1c 1bbe 926f a03e e449 d4be
000003e0: 25d7 253e 12ac 10bd 5d57 9c3d 738d 073e
000003f0: e875 423d 0221 183e 10c5 58be 1372 cebd
0.05881543 0.24004827 -0.0826546 -0.4757411 -0.20210357 -0.56149936 -0.21582283 0.120521665
-0.20047854 -0.44701353 0.041863676 0.5354271 -0.16438487 0.08706543 -0.3096795 -0.4671944
-0.03384544 0.3600452 -0.01810827 -0.43326613 -0.1075501 0.1267511 0.12713712 0.24907406
-0.42432684 -0.5234903 -0.4478089 -0.03586632 -0.25650945 -0.46715716 -0.262445 -0.43734387
-0.18399274 0.20226054 -0.21421243 -0.12623516 -0.1418376 0.02375033 -0.033957727 0.03547074
-0.14459395 -0.23907161 0.03335137 0.4123731 0.21099477 0.017204517 -0.2079005 -0.12395954
0.010419074 -0.42050678 0.38222018 0.01656742 0.20555897 0.041015062 0.049402077 -0.2192602
0.14416705 -0.2895141 -0.047669295 -0.09000719 -0.4161741 0.69350666 0.6091878 -0.30848563
0.18532838 -0.7707449 -0.49030173 -0.01472481 -0.17170118 0.21842943 -0.07012853 -0.057359252
-0.040092625 0.031904235 0.7464219 0.28825244 -0.26031315 0.193061 -0.3184011 0.44016996
0.27872762 0.603992 -0.012245444 0.4081343 -0.16247015 -0.26717904 -0.1690104 0.40973917
-0.09020114 -0.22509684 0.024701063 -0.6091882 -0.057719767 0.2600075 0.25064975 -0.16215879
0.09405717 0.8561555 0.1337483 0.11640667 0.3255432 0.6490852 0.19949898 0.27300507
0.47075644 0.45527488 -0.19285883 0.07496421 0.27452216 -0.19994873 0.7960957 0.33947954
0.21001105 0.98854643 -0.15358955 0.47381777 0.106034316 0.064292505 0.8940764 0.0864723
0.40052179 -0.3152078 -0.18116501 -0.05328375 0.14362185 -0.44588533 -0.33519736 0.24737753
-0.029612122 -0.41196233 -0.103583544 0.12605046 -0.430339 -0.7257704 0.07249019 0.052573103
-0.25793463 0.16701077 -0.15368605 0.11779209 -0.084036134 -0.25341925 0.056859214 -0.122890346
-0.37259668 -0.26021203 -0.44254264 0.085190535 -0.19794899 -0.22639918 -0.3143898 -0.11407393
-0.30043095 -0.011099878 0.31345838 -0.17248702 -0.032983575 -0.42293322 0.19443195 -0.14771916
-0.01644192 0.49664024 -0.013318998 -0.19681902 0.32940164 0.10451122 -0.05596849 -0.36644596
-0.38112885 -0.15836313 -0.074778855 0.21582851 0.25459117 0.16766909 -0.10730909 0.24111624
-0.38256595 -0.45328867 0.28430387 -0.16885705 -0.0045419843 0.61740917 -1.2042754 0.032860473
0.2688222 -0.4708295 0.74561024 -0.6639742 0.35907072 0.61471933 -1.1156616 -0.43483987
0.7388099 -0.14175676 0.11186853 -0.28730145 1.1360096 0.30059573 0.67279327 0.97788876
0.4337099 0.639343 0.4817512 0.15854721 0.07978952 0.2530118 0.50053704 0.12664258
0.3919887 1.0718603 -0.13659433 0.1851127 0.9947178 0.20998843 -0.05587798 0.6255443
0.2558028 -0.21954429 -0.624636 0.24777313 -0.4357448 -0.15702641 -0.29186252 -0.14594343
-0.052971054 0.07748594 -0.23977116 0.61652476 -0.5138547 0.02187311 -0.24949904 -0.9009258
0.48744076 1.1126919 -0.044284843 -0.23209538 -0.15965787 -0.2096632 0.030078523 -0.060465947
-0.06285227 -0.1984002 -0.10706614 -0.12263353 -0.24023956 -0.1514775 0.3133512 -0.41462624
0.16195352 -0.03532035 0.07633851 0.13237552 0.047475725 0.14856341 -0.21168923 -0.10080352

layers.0.bias f4 [128]
00000000: 005e 1a40 0000 0000 b44c 0b3f 36de 0840
00000010: 88cd f43f be7d f8bc df9e 3c40 4c39 6b3f
00000020: 7416 fabc 4892 40c0 a40d 1040 a9f2 923e
00000030: cf3d 1740 8149 0140 9bb2 9e3e 6b7b f43f
00000040: 2014 25c0 8a35 0840 0000 0000 7b20 1240
00000050: 1524 3d40 e044 32c0 228d 1940 1782 953e
00000060: 937a 0f40 c9be 0040 700e 0d40 53bf 2840
00000070: 8fda 2ec0 d34b 17c0 f5d2 c43e 4176 0b40
00000080: 0000 0000 0000 0000 0000 0000 485a 2840
00000090: e7d9 43c0 dae0 2040 0000 0000 6dd6 0440
000000a0: 1eee 56c0 e7f2 fd3f 63db 1740 4289 4cc0
000000b0: 0000 0000 3cd3 23c0 e278 0e3f 0000 0000
000000c0: accd 2940 eb13 0340 c183 ef3f 0000 0000
000000d0: bef7 043f 78b7 03bd 8491 123f cbb9 ea3f
000000e0: 4954 cd3e 33a4 1340 7174 1740 ed2f 3fc0
000000f0: 20cb 073f ddee 2740 6568 90bd b2fa 35c0
00000100: d286 0340 feed 2640 068d 0440 e24b 1d40
00000110: 7135 1240 26e2 0b3f 8f49 1940 b0d5 ff3f
00000120: b265 3440 432b 913f 8b8c 19c0 7e8c 023f
00000130: 786e 64bd ebd7 da3f e2ee 3940 c82d 1440
00000140: 18c5 1e40 857c 3ac0 9565 2140 b1c8 0dbd
00000150: 27bd 2ac0 9900 3b40 0000 0000 0000 0000
00000160: 0000 0000 e0c5 0840 ba15 2fc0 6fa2 0640
00000170: ff48 2cc0 7ab2 38c0 f105 2ac0 b5f0 0540
00000180: e4c0 0740 c61e 4dc0 031d f23e ea28 643f
00000190: ce3c a73e aa19 0a40 2789 2240 de0d 22c0
000001a0: 9529 ccbb 9d07 6a3f 07bc 1240 de25 2e40
000001b0: cf03 1d40 ccd2 43c0 28e1 883f 33d5 1d40
000001c0: e0a5 3ec0 229f 34c0 b76b 0440 77e7 2ac0
000001d0: 0000 0000 5e9a 2040 ea1c 4b3f 946b 8fbc
000001e0: 2f62 3840 b52e 0440 e5cd 0f40 34d9 0c40
000001f0: 0000 0000 73f1 883e ac36 ef3e ea93 4040
2.4119873 0.0 0.54413915 2.1385627 1.9125223 -0.030333396 2.9471967 0.91884303
-0.030528285 -3.0089283 2.2508326 0.2870076 2.3631475 2.0201113 0.3099564 1.9100164
-2.5793533 2.1282678 0.0 2.2832325 2.9553273 -2.7854538 2.399239 0.29200813
2.2418563 2.0116446 2.2040062 2.6366775 -2.7320898 -2.364003 0.38442197 2.1790926
0.0 0.0 0.0 2.6305103 -3.0601747 2.5137239 0.0 2.0755875
-3.3582835 1.9839753 2.3727653 -3.1958776 0.0 -2.5597677 0.556532 0.0
2.6531782 2.0480907 1.8712083 0.0 0.51940525 -0.03215739 0.5725329 1.833795
0.40103367 2.306897 2.366482 -2.9873002 0.5304432 2.623954 -0.07051162 -2.8434262
2.0551038 2.608276 2.0711074 2.4577565 2.2845118 0.5464195 2.3951147 1.9987087
2.818707 1.1341327 -2.399203 0.50995624 -0.055769414 1.7097143 2.9052052 2.3152943
2.4807796 -2.91385 2.521825 -0.034615222 -2.667795 2.9219115 0.0 0.0
0.0 2.1370773 -2.735701 2.1036642 -2.6919553 -2.8858933 -2.6566126 2.0928166
2.121148 -3.2050033 0.4728776 0.8912493 0.32663578 2.1578164 2.539621 -2.5320964
-0.006230543 0.91417867 2.2927263 2.7210612 2.4533575 -3.059741 1.0693712 2.4661376
-2.9788742 -2.8222127 2.0690744 -2.6703775 0.0 2.5094218 0.79340994 -0.017507352
2.8809927 2.0653508 2.2469418 2.200757 0.0 0.2674671 0.467214 3.009028

layers.1.weight f4 [6, 128]
00000000: f433 a6be 7be0 a9bb 4cf1 29bf 56e2 68bf
00000010: a35d 30be 50f6 99bc 0421 a2bf 8594 ddbf
00000020: 8db9 30bd 2c69 b83e 4908 f7bd dde5 cb3f
00000030: c7f4 89be a793 08bf bb00 9b3f 11e5 2abe
00000040: ecfa 273e f53b 03bf 9bec 8d3c f529 35bf
00000050: ad23 edbf ca93 2f3e 4033 60bf ef87 05c0
00000060: 069d 5cbe 63b5 02bf aad0 a6be 3f6c 6abf
00000070: 0662 573e b7d3 6d3d d379 15bf 5b07 2cbf
00000080: f565 153d b52a 91bd 99fd 90bd a743 0ebf
00000090: a47f b23e b8b0 6bbe e4a5 59bc ab82 1ebe
000000a0: b9c9 e53e e78f 17be 24db 1abe e3f2 f63e
000000b0: 9b97 16bd 178d 843e 178a 36bf 7057 f8bc
000000c0: 7eae 53be 271d 06be bc3b 79bf ca3f 89bd
000000d0: fe4c f9be 4ed6 193d 40a7 14bf 89aa f9be
000000e0: bf3d 9c3f 3eb5 9cbf df47 9fbe ac3b 0b3f
000000f0: 6e46 0fbf 0c32 08bf a113 eabb 45b2 9e3e
00000100: 05f4 a8be b202 98bf 0ef1 0bbe 711b bdbe
00000110: 186e 1ebf c9dd 0dbf 10a9 2cbf 5c52 53bf
00000120: 5ede 5dbf 65d7 51be b448 b33d 902a 1cbf
00000130: 8938 963c 6784 07bf 217a a4bf 02c9 90be
00000140: b337 6ebe e526 133f 6e98 22bf 664c 4b3d
00000150: 2147 0f3e 0470 7bc0 5daf 13bd 1836 783d
00000160: fabc 523c 40ad 02bf cb81 e53e 8767 7fbe
00000170: e43d 943e a55d f53d 0461 313e 6173 20bf
00000180: 3c99 4bbe ad68 243f 3d49 1fbf 79bd 00bf
00000190: 25b0 fdbf 681b 3bbe e793 88be c059 063e
000001a0: 58cf 11bf b754 a4be eaa8 14c0 1fde 0dbe
000001b0: 8ca8 90bd 071e 053f 6be7 b9be fe94 d6be
000001c0: 7cdf cc3e eaaa 073f a5b5 47be cfb2 dd3e
000001d0: ee94 3c3d a590 37bf a7d0 88bf 0456 533d
000001e0: da76 3abf 71a1 e2be 5b54 58be bb9e 25bf
000001f0: a638 883b b836 ecbf 097c 0fbf 3b53 a7bf
00000200: 9143 eabd e637 45bd 27b2 9ebd 6cfc 30be
00000210: ca62 62bc dda5 913d 16df 81bf 20aa a53d
00000220: 7fdc 33bb 25f6 d63d 78e9 41bc f4c6 883c
00000230: a204 b7be 3dc1 0bbf 1838 243d a23f 9e3c
00000240: 9a13 26bd 9a08 28bf 01b9 643d 56e9 09bf
00000250: 9957 1ec0 5c3a c33c af4a ccbe d58b 923d
00000260: ee17 fabd 479c 57bf 5422 aebd b07b adbf
00000270: c8ee 053e 2c73 a3bd 53a9 4f3d c72a cdbe
00000280: 78c0 32bd 2503 ab3c b051 a5bc 9760 42bf
00000290: b521 383d 79d5 b0bd f539 05bd c682 1bbc
000002a0: 51a3 5b3e 1aac 483c 3dce 34bd ab36 fa3d
000002b0: 35dd 433c 721d d33b 65e6 e13c 86c9 4a3c
000002c0: a5dd 3cbe 8127 f6bd bb09 31bf c931 a0bd
000002d0: ebb3 0cbd 8ddf 08bd bd23 4b3d 74ff 2abe
000002e0: b0b4 2abe 7328 a4bd 23da 0dbe dfc5 5a3e
000002f0: cce2 ae3c c9e2 87be 5002 a0bd f4dc 1e3e
00000300: 0efd 56bf 6065 75bf baf3 16bd 4987 f3bd
00000310: e1a6 0ebf 8953 c43c 794c 19bf c2e3 28bf
00000320: 93f2 bcbf 639e 56bf ed6c 91bc 1c58 553d
00000330: 92b5 893d 12c4 2fbf 954b 6ebf 21aa 7dbe
00000340: 1ade ebbd 0071 ec3d bd79 e5be 74ba d73b
00000350: 2c80 cc3d 6c18 bebf 83b2 e13c c687 863d
00000360: 9bda 4e3d eb48 0bbf 455e fc3d d787 e4bc
00000370: 0316 06bc e2c2 303d 2e89 4e3d 9f6f 3cbf
00000380: 333b 493c 4e9d e73d e426 da3d 115a 2fbf
00000390: 949f c7bc 6664 6ebd d206 eebd 27a2 d13d
000003a0: 6b76 9c3a 3466 75bf e8f5 bbbf b10c e3bd
000003b0: 25ea c4bd 6850 0f3e 4946 37bf 77ee 8cbe
000003c0: eb3a 473e 2590 043e 44e7 16bd 86b6 2f3d
000003d0: 8764 af3d 8ee7 07bf 3d53 c63e de27 453a
000003e0: f285 8abf 78d2 67bf 80da 19be d88f 33bf
000003f0: 7410 653c 37a8 a2bc 9520 22bd 64a2 65bf
-0.32461512 -0.005184231 -0.66383815 -0.9097036 -0.1722322 -0.018794209 -1.2666326 -1.731095
-0.043145705 0.3601774 -0.12062127 1.5929524 -0.26944563 -0.533503 1.2109598 -0.16688944
0.16404313 -0.5126336 0.017324736 -0.70767146 -1.8526512 0.17146221 -0.875782 -2.0864217
-0.21544275 -0.51058024 -0.32581073 -0.9157142 0.21033487 0.058063235 -0.58389014 -0.67198724
0.036474187 -0.07088224 -0.0707962 -0.5557198 0.34863007 -0.23016632 -0.01328418 -0.15479533
0.44880465 -0.14800988 -0.15122658 0.48232183 -0.036765676 0.25888893 -0.7130446 -0.030315131
-0.20672032 -0.13097058 -0.9735677 -0.0670162 -0.48691553 0.037557893 -0.58067703 -0.4876292
1.2206343 -1.2242811 -0.3110952 0.5438793 -0.5596684 -0.53201365 -0.007143453 0.30995384
-0.32998672 -1.1875823 -0.13666174 -0.36935 -0.6188674 -0.5541654 -0.6744547 -0.82547545
-0.8666743 -0.20492323 0.087541014 -0.61002445 0.018337505 -0.52936405 -1.2849771 -0.28278357
-0.23263435 0.57481223 -0.6351384 0.049633406 0.13991977 -3.928712 -0.03605591 0.060598463
0.012862438 -0.5104561 0.44825587 -0.24941836 0.2895347 0.11980752 0.17322165 -0.62676054
-0.19882673 0.6422222 -0.6222113 -0.5028911 -1.981938 -0.18272173 -0.2667534 0.13120174
-0.56957006 -0.32095882 -2.3228097 -0.13854264 -0.07063398 0.51998943 -0.3630937 -0.41910547
0.40014255 0.5299517 -0.19502886 0.43300483 0.046040468 -0.71705085 -1.0688676 0.051595703
-0.72837603 -0.44263795 -0.21125929 -0.6469533 0.0041571436 -1.8454199 -0.5604864 -1.3072275
-0.114386685 -0.048149012 -0.077488236 -0.17283791 -0.013817498 0.07111714 -1.0146205 0.080890894
-0.0027444658 0.10496167 -0.011835448 0.01669643 -0.35745722 -0.54591733 0.040092558 0.019317452
-0.040546037 -0.65638125 0.055840496 -0.5387167 -2.4740965 0.023831539 -0.3990073 0.07155577
-0.122115955 -0.84222835 -0.08502641 -1.3553371 0.13079369 -0.07980952 0.05069859 -0.400717
-0.043640584 0.020875523 -0.020180553 -0.75928634 0.04495402 -0.08634467 -0.032525975 -0.009491628
0.21449019 0.012248063 -0.044141997 0.12217458 0.011954595 0.006442719 0.027575681 0.0123771485
-0.18443926 -0.120192535 -0.6915547 -0.07821996 -0.03435127 -0.03341632 0.04959463 -0.1669901
-0.1667049 -0.080155276 -0.13852744 0.21364544 0.02134838 -0.2654021 -0.07812941 0.15513974
-0.8397988 -0.9585781 -0.03685353 -0.11891038 -0.55723387 0.023965614 -0.59882313 -0.6597253
-1.4761528 -0.8383543 -0.017752135 0.05208598 0.06724085 -0.68658555 -0.9308408 -0.2477193
-0.11516972 0.115449905 -0.4481944 0.0065835062 0.09985384 -1.4851203 0.027550941 0.065688655
0.050501447 -0.5440814 0.12322668 -0.027896805 -0.008183959 0.043154605 0.050423793 -0.7360782
0.012282181 0.113093 0.10651949 -0.68496805 -0.024368085 -0.058201216 -0.116223946 0.10236006
0.0011937147 -0.95859075 -1.468442 -0.11086405 -0.09614972 0.13995516 -0.7159162 -0.27525684
0.19456069 0.12945612 -0.036841646 0.042898677 0.08564096 -0.530877 0.3873538 0.0007520894
-1.0822127 -0.90555525 -0.15024757 -0.70141363 0.0139809735 -0.019855602 -0.039581854 -0.89700913

layers.1.bias f4 [6]
00000000: ec23 e9bf 8d3d 74bf 0000 0000 0000 0000
00000010: 0000 0000 0000 0000
-1.8214087 -0.9540642 0.0 0.0 0.0 0.0
