RL4E2E/results/pptod/2.0k1/episode_2500/actor_param.pt (torch, 18917 bytes, 6 tensors)

layers.0.weight f4 [128, 3]
00000000: 2059 223e d375 0ebe b743 cf3f f6ae 693e
00000010: 67af 523f 2cc3 053f 8c06 2e3d ded8 8dbe
00000020: 1c50 97bf e6df 933f 8f16 b6bf b0cc 17bf
00000030: 748c 08c0 c767 9ebe 5377 f1be 6881 f63d
00000040: a9c6 a83e dda1 70bf cdfd e1be 235b 41bf
00000050: 6bda d23e db2d 2f3f b25b 99bf 6a5b 2c3f
00000060: fe96 0ebf a50a 7a3f dc6b 263f b16e db3d
00000070: 349e b33d 4259 acbe de89 7cbe cbcf 5dbf
00000080: e4d7 6d3e 53c1 003f ca7a 533e 230e 10be
00000090: b91c 5e3f 9e33 dbbf fcde 253f 49e7 0740
000000a0: 7712 0ebe a217 71be 3cd0 513f 62b6 ba3e
000000b0: 578f b6bf 4694 3fbc 8169 a33e 2c73 1e3f
000000c0: bca7 a33f b618 8abe 9622 0abf b16c 873f
000000d0: 219b 563e d41e 053f d4f0 f6be 3ba1 9f3f
000000e0: 2257 a93f 0f71 b83e 270b bcbe 40d5 98be
000000f0: 5944 203e aef1 dabe d047 ecbf b9e8 55bd
00000100: 7a8f 483f d7dc 213f dd0d efbe d461 2bbf
00000110: bd58 04bf 9741 013d 5dee 34bd 12f5 0f3f
00000120: 9cd4 0d3f 5f08 093f 848f db3e 5a28 c63b
00000130: d949 353f 3f41 98be 1d73 a7bd 1933 2cbe
00000140: a7d5 d33f 6ae7 04be 503b cc3f eb7d 9e3f
00000150: 8fa0 353d fc1e 353e ac8e b2be 7f9d d23e
00000160: cabf 213f 4c2a 9a3f 6b77 fd3c 72ce efbd
00000170: 3da9 203d 34af e83e b4e2 5dbf 12ce 8ebf
00000180: 91cb 223f 5d2e 6bbe 254a cebf a287 dfbe
00000190: 59bf b03f 7120 ccbc e105 c7bc 93ef 0d3f
000001a0: 03ac 2b3f 1e70 74bd e0f8 5a3f 80fa 2abe
000001b0: 2378 0ebd 887d 6c3f 6ec6 143f d8a0 34be
000001c0: c6f2 89bf 779f 95bf e809 0240 cda0 debe
000001d0: b19f 313f ee25 37bf 3f33 70bf 4e61 71be
000001e0: 2cd6 ecbd e3f5 833f 5d1c 0f40 8ffa 5fbd
000001f0: 9541 cfbf bda3 dc3f 0229 1b3f 60f5 42bf
00000200: 634f a2be 00f2 3b3f ec41 853f d330 9e3e
00000210: 631c 153f 3079 05bf 8039 7c3f d1cf cc3e
00000220: 1883 71be aba4 80bf d94d 6b3d 6322 8a3e
00000230: 75a8 48bf fe3d 5abf 0f95 0fbf 2c46 8fbf
00000240: 0561 103f efd9 31bf fbdc 10bf ceb6 9cbf
00000250: 9203 8d3f 0b43 033f 14fa 943e dcbe 703f
00000260: 43de 70be f40c 6b3e 248d 52bf a264 ec3e
00000270: 200a 873e 83fc 4dbf aa12 2c3f 2876 243e
00000280: bffc 1f3f ab50 b73e aaad 723b 840d 273f
00000290: 21b9 10bf 3bd0 db3c dccc f33e 7049 1ebd
000002a0: 7cfd 64bf 64d5 583c 3250 ab3f 1328 4abf
000002b0: b317 bebe 3b65 16bf 4bdf 7bbe fbcf 01bf
000002c0: 466b bebf 1279 033f 4008 263f efab 833d
000002d0: 164f 003e 41fa a4bd a69c a5be c53e 8e3e
000002e0: 6587 bbbf a2bc e93c fbda d63d ae95 9c3e
000002f0: a470 323f d520 503e 6660 babe 0626 223c
00000300: d277 253f c6c3 4dbe d7a3 90bf f68f 4b3e
00000310: 4891 003e b6e8 e83e af3b 87bf 65c2 2dbf
00000320: b3a8 d33d c448 683c d0ef e83e c75e fabe
00000330: 038d fcbc 0c1c 9d3f d864 993f 7cbf 9f3d
00000340: b33c 833e e8d6 f1bf 3162 2c3f b873 3fbf
00000350: 7faa 2bbf 6ffa dbbe 6eff 78bf 8006 e9bf
00000360: f86d 5c3f 3d56 afbf b142 633c 20ed 25bd
00000370: d89a dfbf 4947 86bf 42c8 163f 9d1b 35be
00000380: 30eb 72bf 73ae 11bd 2931 4c3f 4171 9d3f
00000390: d572 62bf 1c1f 7b3e 7db4 853e ce6c c13d
000003a0: 195f fbbf 17be d8be f121 823c d057 8ebf
000003b0: 77c1 ae3e bc48 db3e d9bf 653f a431 51bf
000003c0: 073a e3bc a78c 7f3f 4748 a63e deaa 553e
000003d0: 2f23 84bf 4f37 dabe 2d1a 6d3f 6fe3 be3f
000003e0: 7ec2 49bf 9298 93bf aab9 2ebe 2ff1 0a3f
000003f0: 6f9c 9abf 1993 f9be 61f2 22bf 6bda 0b3f
0.15854311 -0.13912134 1.619254 0.22820649 0.8229889 0.52250934 0.042486712 -0.2770452
-1.1821322 1.1552703 -1.4225634 -0.59296703 -2.1335726 -0.3093855 -0.4716135 0.12036401
0.32964066 -0.93996984 -0.44138947 -0.7552969 0.41182265 0.68429345 -1.1981108 0.67326987
-0.55699146 0.9767249 0.6500833 0.10714472 0.08770409 -0.33661848 -0.24661967 -0.8664519
0.23226887 0.5029499 0.20652309 -0.14067893 0.8676258 -1.7125127 0.6479337 2.1234915
-0.13874231 -0.23544171 0.81958365 0.36467272 -1.4262494 -0.011693066 0.3191643 0.6189449
1.2785563 -0.26971978 -0.53959024 1.0580045 0.20957614 0.52000165 -0.48230612 1.2471079
1.3229716 0.36023757 -0.3672726 -0.29850197 0.15651073 -0.42762512 -1.8459415 -0.052223895
0.7834393 0.632276 -0.46690264 -0.6694615 -0.51697904 0.031556692 -0.044172633 0.5623332
0.5540254 0.535284 0.4288293 0.0060472907 0.7081581 -0.2973728 -0.08176253 -0.16816367
1.6549577 -0.12978902 1.5955601 1.2382177 0.044342574 0.17687601 -0.34874475 0.41135785
0.6318327 1.2044158 0.030940732 -0.11709298 0.0392239 0.4544617 -0.86674047 -1.1156638
0.6359187 -0.22966905 -1.6116377 -0.43658167 1.3808395 -0.024917813 -0.024294795 0.55443686
0.67059344 -0.059677236 0.85536003 -0.1669712 -0.03478254 0.92379045 0.5811528 -0.17639482
-1.0777214 -1.168929 2.0318546 -0.43482056 0.69384295 -0.7154225 -0.93828195 -0.23572275
-0.115642875 1.0309414 2.2361062 -0.05468231 -1.6191889 1.7237469 0.6060945 -0.7615566
-0.31701192 0.7341614 1.0410743 0.30896625 0.5824644 -0.5213804 0.9852524 0.400023
-0.23585165 -1.0050253 0.05744729 0.2697936 -0.78382045 -0.8525084 -0.5608682 -1.119329
0.5639804 -0.69473165 -0.5658719 -1.2243288 1.1016715 0.51274174 0.29097044 0.9404123
-0.23522286 0.2295416 -0.82246614 0.46170527 0.26374912 -0.8046343 0.6721598 0.16060698
0.62495035 0.35803732 0.0037029781 0.65255 -0.56532484 0.02683269 0.47617233 -0.038644254
-0.89449286 0.01323447 1.3383849 -0.789674 -0.37127456 -0.58748215 -0.24596898 -0.5070798
-1.4876487 0.51356614 0.6485634 0.06429278 0.12530169 -0.08055545 -0.32346076 0.27782264
-1.4650694 0.02853233 0.10490986 0.30582947 0.69703126 0.20325024 -0.3640167 0.009896761
0.64635956 -0.20094213 -1.13 0.19879135 0.1255542 0.45490044 -1.0565089 -0.6787475
0.10334911 0.014177505 0.45495462 -0.48900434 -0.030828958 1.2274184 1.19839 0.078001946
0.25632247 -1.8893709 0.6733733 -0.7478595 -0.6705703 -0.42964503 -0.97264755 -1.8205109
0.861053 -1.3698193 0.013870881 -0.040509343 -1.746913 -1.0490505 0.5889932 -0.17686315
-0.9489012 -0.03556676 0.7976251 1.2300187 -0.8845647 0.24523586 0.26114264 0.09444581
-1.9638397 -0.42332527 0.015885325 -1.1120548 0.34131977 0.4282893 0.8974586 -0.8171637
-0.02773763 0.99823993 0.32477018 0.20865962 -1.0323237 -0.42620322 0.92618066 1.4913157
-0.78812397 -1.1530936 -0.17063013 0.54274267 -1.207899 -0.4874504 -0.6365109 0.54630154

layers.0.bias f4 [128]
00000000: 85c7 6c3e 5637 ab3e 0e3f dd3d 39c3 98bd
00000010: 0000 0000 5c87 a9be 204e cd39 a347 01bf
00000020: 18f8 e73d 95f3 23bf 893f b7bb 922e 143f
00000030: 8dd5 d1be 9307 513e 4b90 e03d b1a2 523f
00000040: 45b2 9b3e 90e6 8b3d 6229 113f 9c6a 69bf
00000050: 8519 7cbe ecbd 2f3f 0000 0000 bc56 123f
00000060: 975c e43e 38e0 133d cdd0 1e39 16a5 023f
00000070: a7ca 453f b7dc 213e 081a 56bf cca7 fbbe
00000080: d17b a8be 1f79 6d3e 64cd 633f 3b8c 963e
00000090: 242c 153f 0000 0000 1ee3 173e 0000 0000
000000a0: 5b7a 513f 5c05 ce3a 98f0 8cbe 68bc 623e
000000b0: 1dd2 133e 3cfb 1ebf a2b3 80be 0000 0000
000000c0: ecd1 37bf 5ff5 42b9 7928 1b3f 483f 40bf
000000d0: 377b f7be f5a1 283f 8e13 233e 1e4c 563f
000000e0: 1bd6 793e 0000 0000 0000 0000 164c ca3e
000000f0: e77a 32bf 86c8 0cbf 289c 123f 6679 68bf
00000100: 1e72 1ebf a50f 0b3f 58df a53d 940d bd3d
00000110: af63 f43d 650c 813e 6a55 4cbe 0000 0000
00000120: 1599 22bf 0000 0000 515d ddbe 833d 933e
00000130: 529f 1c3e 69fa 36be b64c 943e 8939 e53e
00000140: 2c63 563e df17 34bf 3406 843e 8253 363e
00000150: 0000 0000 b3ff cfbe e0df 86bc 27a3 1b3e
00000160: 0000 0000 0000 0000 08c7 8fbc 0000 0000
00000170: 97f0 833e 0c4a 303f 967c 7f3d 0000 0000
00000180: e8a6 4cbf 6024 2c3e 3778 903d d5b9 c93e
00000190: 54d7 713e 9f85 39bf 8f9f 693e 0000 0000
000001a0: 4af2 f13e db3e 1a3f a181 153f 0d4d 243d
000001b0: f40c 9a3d 3e54 013f 0000 0000 86e8 393f
000001c0: 1e65 993e 8f48 c53e a38d cf3d c06f babe
000001d0: 0000 0000 9e4c 5cbf c3ae 463d 0000 0000
000001e0: 0160 39bf c316 883e eedd 12bf 8bd6 593e
000001f0: fc1c 873e f7ac 3b3b 8535 eb3d fe67 2d3e
0.23122986 0.33440655 0.10803042 -0.07459111 0.0 -0.33111084 0.00039158855 -0.50499934
0.11326617 -0.6404355 -0.005592291 0.5788356 -0.4098324 0.20413046 0.10965022 0.822795
0.30409446 0.06831086 0.5670377 -0.911783 -0.2461911 0.6864917 0.0 0.57163596
0.4460189 0.036102504 0.00015145839 0.5103315 0.7726235 0.15806852 -0.8363347 -0.49151456
-0.32906964 0.23190735 0.88985276 0.29403862 0.5827048 0.0 0.14832732 0.0
0.81827325 0.001571815 -0.27527308 0.22142184 0.1443562 -0.62102103 -0.2513705 0.0
-0.7180469 -0.0001859269 0.6060863 -0.7509656 -0.48336193 0.65872127 0.15925428 0.83709896
0.24398081 0.0 0.0 0.39511174 -0.69718784 -0.54993474 0.57269526 -0.9081024
-0.6189288 0.54320747 0.0809924 0.092311054 0.11933076 0.2520477 -0.19954458 0.0
-0.63514835 0.0 -0.43235257 0.28757867 0.15295151 -0.17868961 0.28964776 0.44770458
0.20936269 -0.70348924 0.25785983 0.17805293 0.0 -0.4062477 -0.016464174 0.15198956
0.0 0.0 -0.01755096 0.0 0.25769493 0.68862987 0.062374674 0.0
-0.7994218 0.16810751 0.07054179 0.3939959 0.23617297 -0.72469515 0.22814773 0.0
0.47255164 0.6025216 0.58400923 0.040112544 0.07522002 0.5051917 0.0 0.7262043
0.2995996 0.3853192 0.10134437 -0.36413383 0.0 -0.8605441 0.04850651 0.0
-0.72412115 0.26579866 -0.5736989 0.21273248 0.263893 0.002863703 0.114848174 0.16934201

action_parameters_output_layer.weight f4 [27, 128]
00000000: a1db 8c3a 59e9 74ba b33f b43c 2673 c039
00000010: 4bb7 20b9 2b9b 1cbb cbb2 bdbc d76e 5a3a
00000020: 475e 443c b606 afba 21cb 63bc 29c2 47b9
00000030: 0ce1 563a 8a8d 4538 9b35 03ba e5b2 32bc
00000040: d917 49b7 1954 3338 689e 773b 515c 8538
00000050: 7e05 233b 97d7 1f3d 3368 38b9 46f9 033b
00000060: b98d 12ba e676 13bc 7b80 1ebc 3b72 943c
00000070: aeff cfba 2a0e 26ba 36d0 c53b ed0e a639
00000080: bcf4 a8b9 cd10 86bc d1a9 13bc 5264 96bd
00000090: 8f26 f53c a4d0 d0b8 d42b 0e39 f360 af38
000000a0: f59d 6dbc 246b 56bc 5377 9239 9b9b 3bba
000000b0: 39c8 113a 2448 02b9 24ef eabb 0d21 19b9
000000c0: 10b7 4c39 1a84 11ba 8a7f a7ba 5b55 983a
000000d0: a534 953a 4bd1 81ba 96a5 6fbc 3166 5dbb
000000e0: 7473 1ab9 5790 01b9 cf9d 59b7 d3fa e9b9
000000f0: f5ed 98b9 f60f d63a cbca 6eb9 5869 a739
00000100: 32d6 fcb8 d6ce 22b7 6d0e e3bc 1094 7ebd
00000110: 96c3 b63c 2028 02bc 5a12 cb39 3f82 74b8
00000120: 7913 fe39 d1aa 2eb8 f7bf 9bb9 297d e9bc
00000130: ed56 dd3b 8a29 8f3c 82e0 113d 722f 88ba
00000140: 7b29 0dbd 007b cf3a 62e6 45ba 1b88 803b
00000150: 1bfd c037 bbdc 7a3a 30d1 a53c 7271 6fba
00000160: 99e1 b037 ada2 1538 df21 b039 c67f d8b7
00000170: 6d02 90ba 3d7c 4f3b 6c4d 1dba 2a46 35b8
00000180: 609e cfb8 a045 78bb 1796 3b3b 9541 feb9
00000190: 538c 883d cf9b 563b 01ae 073a 019e a838
000001a0: a82a 95b9 edfb 5aba fbe0 8f3d 0fbb 4c39
000001b0: f6c3 853c f217 dc3b 40ce 6339 49b2 59bd
000001c0: 85c2 c93b 4451 a4bc 7a07 edbb a9da 863a
000001d0: 4d05 b837 4f49 203a c72f 2abb bb06 1638
000001e0: c884 be3a b4d5 f0b8 1999 233a d152 9d39
000001f0: 06fb acbb 26c8 deba 9c9d 4ebb ca24 39bc
00000200: 1fd3 f6ba 5d0b 85b9 05a9 943b fc2a 463a
00000210: 07be 2ab7 de24 6539 1813 b9bd b6e1 3cba
00000220: 1c9e 6bbc d3cc 89bb 49da acbd 19c8 603a
00000230: 6ffd 8fb9 1947 b639 bce0 633a 7fd3 313d
00000240: 2d47 e439 741a 54b9 eb03 f03c 3cb1 c7ba
00000250: 1c6f d138 7d0b f03c 064f a1b8 0fa1 c93b
00000260: 371e f738 f167 2dbc 8feb 08bc c8c1 73bc
00000270: 6bcd 913c ddc9 81ba 3ec3 6dbd fc76 fa39
00000280: 1c6b 4a3a 9cac 03bc 136f ca3d 3216 053c
00000290: 4c21 8c3c 6a50 7938 1a55 9339 254d 32b9
000002a0: fc82 61ba 3987 9a3b d803 df38 94af 0cb9
000002b0: d937 bbb8 59bf 85b6 984f 8ebb 3c9b 1938
000002c0: 3f34 6cb9 4318 8ebc 9aba 963a a373 2abb
000002d0: b2cd e6ba 5e6b 8b3a 626b b63c f337 883c
000002e0: 8bcf 54bc b377 bf37 cace 2638 92f1 a539
000002f0: a387 2dbb 3e8e 87ba ae5b 623a 2c71 84bb
00000300: 8882 e4b8 55ec 903a 6294 c0bb 1fd5 3aba
00000310: d011 8fbc 5645 813c 6e6d 223a 7fb4 09b8
00000320: d52e 3c36 e1f5 4838 5dff cb39 f9d5 9cbc
00000330: a97c eabb 71e6 853c d973 053d 1b20 883a
00000340: 07c8 97bc e8e4 d1ba 3400 1d39 928e d2bc
00000350: 45ef d538 e02c 623a c057 0cbd 57ce 56bd
00000360: 85c7 4db8 6812 eeb7 7e4b 2b3a 37ec fc37
00000370: 62ae 49ba 7975 b13c f9c5 9eb9 745f 5338
00000380: 0347 92ba 7e4d 0abd a221 2fbc 3c92 c03a
00000390: 97b5 21bc 8bfe 2fbb 29a8 91ba 69f3 dc37
000003a0: 6de5 3739 37e2 da3a 374c fe3b 0f56 8fb9
000003b0: 2e7f 00be f532 b63c 1e83 dc37 8a3d bc3d
000003c0: 5036 9c3b 4eb5 ac3a cd96 033d 8d47 c0ba
000003d0: f72c 6738 21ad 61bb ef72 85bc 7343 cfb7
000003e0: bad6 26bc 69a4 253a ee99 80ba 5a37 fdba
000003f0: 627f d9b9 26e0 1dbd 12c3 81bd 7be9 053c
0.0010746607 -0.0009342633 0.02200303 0.00036706886 -0.00015327071 -0.0023896198 -0.023156544 0.00083325565
0.011985368 -0.001335344 -0.01390341 -0.00019050449 0.0008196987 4.710028e-05 -0.0005005241 -0.01090691
-1.1986086e-05 4.2755248e-05 0.0037783626 6.3591295e-05 0.00248751 0.039023962 -0.00017586425 0.0020137592
-0.00055905763 -0.009000516 -0.009674187 0.018120876 -0.0015869045 -0.0006334508 0.0060367836 0.00031673108
-0.00032225798 -0.016365433 -0.009012655 -0.07343353 0.029925613 -9.957075e-05 0.00013558503 8.3627085e-05
-0.014502992 -0.013087068 0.00027936194 -0.0007156671 0.00055611465 -0.0001242464 -0.007169621 -0.0001460353
0.00019523152 -0.00055509957 -0.0012779098 0.0011622118 0.0011383487 -0.0009904293 -0.014626881 -0.0033782835
-0.00014729594 -0.0001235617 -1.2970951e-05 -0.00044628102 -0.0002916899 0.0016331661 -0.00022772995 0.0003193121
-0.000120561934 -9.70411e-06 -0.02771684 -0.062152922 0.02231006 -0.007944137 0.0003873285 -5.8295434e-05
0.00048461164 -4.1643918e-05 -0.0002970693 -0.028502064 0.006754747 0.017475862 0.035614498 -0.0010390116
-0.034463387 0.0015829504 -0.00075492833 0.003922475 2.3006045e-05 0.00095696346 0.02024135 -0.0009134031
2.1085887e-05 3.5675872e-05 0.00033594572 -2.5808706e-05 -0.0010987051 0.0031659745 -0.00060006115 -4.321911e-05
-9.900029e-05 -0.0037883297 0.0028623396 -0.00048495518 0.0666739 0.0032746678 0.000517577 8.040295e-05
-0.00028451276 -0.000835358 0.070253335 0.00019524641 0.016328793 0.0067167217 0.00021725241 -0.05314854
0.0061572217 -0.020058282 -0.0072335573 0.0010288554 2.1936978e-05 0.00061144395 -0.002596842 3.5769055e-05
0.0014535422 -0.00011483897 0.000624077 0.00030007077 -0.0052789478 -0.0016996905 -0.0031527048 -0.011300275
-0.001883123 -0.00025376203 0.0045367503 0.0007559506 -1.0177034e-05 0.00021852876 -0.09036845 -0.00072052644
-0.014380958 -0.004205325 -0.08440072 0.0008574739 -0.00027463908 0.00034766717 0.0008692851 0.04341459
0.0004354058 -0.0002022775 0.029298743 -0.0015235315 9.986592e-05 0.029302353 -7.6917975e-05 0.006153233
0.00011783506 -0.010583864 -0.008356943 -0.014877744 0.017798146 -0.0009902079 -0.058047526 0.00047772366
0.0007721649 -0.008036759 0.09884467 0.008122968 0.017105721 5.9441118e-05 0.0002810143 -0.00017004141
-0.0008602587 0.004715827 0.000106341846 -0.00013416848 -8.927257e-05 -3.9859847e-06 -0.0043429844 3.6622616e-05
-0.00022526177 -0.017345553 0.0011499703 -0.0026008866 -0.0017608909 0.0010636856 0.022268001 0.016628241
-0.012988935 2.2824714e-05 3.977007e-05 0.00031651236 -0.002647855 -0.0010342074 0.0008634877 -0.0040418115
-0.000108962005 0.001105676 -0.0058770636 -0.00071270944 -0.017464548 0.015780132 0.0006196116 -3.2831445e-05
2.8041443e-06 4.791271e-05 0.00038909438 -0.019144999 -0.007155974 0.016345235 0.032581184 0.0010385545
-0.018527998 -0.0016013654 0.00014972762 -0.025702748 0.00010201199 0.0008627903 -0.034263372 -0.052442875
-4.9061626e-05 -2.8380382e-05 0.00065343815 3.0150737e-05 -0.00076935266 0.02166246 -0.0003028361 5.0395218e-05
-0.0011160079 -0.03376531 -0.010689171 0.0014692019 -0.009869955 -0.00268546 -0.0011112738 2.633939e-05
0.00017537708 0.0016699497 0.0077605504 -0.00027339204 -0.12548515 0.022241095 2.62871e-05 0.09191425
0.0047672167 0.0013176592 0.032126237 -0.0014669761 5.511657e-05 -0.0034435468 -0.016290156 -2.4707731e-05
-0.010183031 0.00063187495 -0.00098115 -0.0019318864 -0.00041484373 -0.038543843 -0.06336035 0.008173342

action_parameters_output_layer.bias f4 [27]
00000000: 302a 813c 3472 993e 7d1f 083e ac0d 96bc
00000010: 84d3 053e d1db cf3e 28dc 633e 0197 f53d
00000020: 2983 473c d847 ad3d 328c c83d 79c9 febc
00000030: c811 c13d 4eb6 363c 97b0 da3e 19dc 1f3c
00000040: cef4 023e 8440 193e 8ec0 b93d b30c f53e
00000050: 2dab dd3c e379 533d 231b bc3e 96d8 883d
00000060: d182 383c 0cde 163e 0ca7 373e
0.015767187 0.29969943 0.13293262 -0.018317066 0.13068968 0.40597394 0.22251952 0.11991692
0.012177267 0.08460969 0.09792365 -0.031101929 0.0942722 0.011151863 0.42712852 0.009757065
0.12788698 0.14966017 0.0906993 0.4786125 0.027059162 0.051629912 0.36739454 0.066819355
0.011261658 0.14733142 0.17934817

action_parameters_passthrough_layer.weight f4 [27, 3]
00000000: 0000 0000 0000 0000 0000 0000 0000 0000
00000010: 0000 0000 0000 0000 0000 0000 0000 0000
00000020: 0000 0000 0000 0000 0000 0000 0000 0000
00000030: 0000 0000 0000 0000 0000 0000 0000 0000
00000040: 0000 0000 0000 0000 0000 0000 0000 0000
00000050: 0000 0000 0000 0000 0000 0000 0000 0000
00000060: 0000 0000 0000 0000 0000 0000 0000 0000
00000070: 0000 0000 0000 0000 0000 0000 0000 0000
00000080: 0000 0000 0000 0000 0000 0000 0000 0000
00000090: 0000 0000 0000 0000 0000 0000 0000 0000
000000a0: 0000 0000 0000 0000 0000 0000 0000 0000
000000b0: 0000 0000 0000 0000 0000 0000 0000 0000
000000c0: 0000 0000 0000 0000 0000 0000 0000 0000
000000d0: 0000 0000 0000 0000 0000 0000 0000 0000
000000e0: 0000 0000 0000 0000 0000 0000 0000 0000
000000f0: 0000 0000 0000 0000 0000 0000 0000 0000
00000100: 0000 0000 0000 0000 0000 0000 0000 0000
00000110: 0000 0000 0000 0000 0000 0000 0000 0000
00000120: 0000 0000 0000 0000 0000 0000 0000 0000
00000130: 0000 0000 0000 0000 0000 0000 0000 0000
00000140: 0000 0000
0.0 0.0 0.0 0.0 0.0 0.0 0.0 0.0
0.0 0.0 0.0 0.0 0.0 0.0 0.0 0.0
0.0 0.0 0.0 0.0 0.0 0.0 0.0 0.0
0.0 0.0 0.0 0.0 0.0 0.0 0.0 0.0
0.0 0.0 0.0 0.0 0.0 0.0 0.0 0.0
0.0 0.0 0.0 0.0 0.0 0.0 0.0 0.0
0.0 0.0 0.0 0.0 0.0 0.0 0.0 0.0
0.0 0.0 0.0 0.0 0.0 0.0 0.0 0.0
0.0 0.0 0.0 0.0 0.0 0.0 0.0 0.0
0.0 0.0 0.0 0.0 0.0 0.0 0.0 0.0
0.0

action_parameters_passthrough_layer.bias f4 [27]
00000000: 0000 0000 0000 0000 0000 0000 0000 0000
00000010: 0000 0000 0000 0000 0000 0000 0000 0000
00000020: 0000 0000 0000 0000 0000 0000 0000 0000
00000030: 0000 0000 0000 0000 0000 0000 0000 0000
00000040: 0000 0000 0000 0000 0000 0000 0000 0000
00000050: 0000 0000 0000 0000 0000 0000 0000 0000
00000060: 0000 0000 0000 0000 0000 0000
0.0 0.0 0.0 0.0 0.0 0.0 0.0 0.0
0.0 0.0 0.0 0.0 0.0 0.0 0.0 0.0
0.0 0.0 0.0 0.0 0.0 0.0 0.0 0.0
0.0 0.0 0.0
