RL4E2E/results/pptod/2.1k1/episode_1500/actor_param.pt (torch, 18853 bytes, 6 tensors)

layers.0.weight f4 [128, 3]
000000 50 b8 4b 3e 04 df a2 bd 02 07 d4 3f 8a bb 94 3e
       0.19894528 -0.07952693 1.6564639 0.2904933
000010 7c 12 5c 3f bd c4 0f 3f 75 9e fc 3c 41 3f ac be
       0.85965705 0.56159574 0.030837277 -0.3364201
000020 67 36 92 bf 47 97 ae 3f f5 91 9a bf 84 6f b6 be
       -1.1422852 1.3639916 -1.2075793 -0.35631955
000030 74 8c 08 c0 c8 67 9e be 53 77 f1 be a0 df 20 3e
       -2.1335726 -0.30938554 -0.4716135 0.15710306
000040 e1 48 b4 3e a5 9e 6a bf b0 78 aa be 4d fa 4c bf
       0.35211852 -0.9164832 -0.33295202 -0.8006943
000050 77 92 e2 3e c3 ea 5c 3f 11 11 87 bf 91 a3 54 3f
       0.4425237 0.8629572 -1.0552083 0.8306208
000060 ef 46 60 bf 77 b6 57 3f 27 cf 09 3f d6 cc 34 3e
       -0.87608236 0.84262794 0.53831714 0.17656264
000070 3b 8b d6 3d b4 ad 77 be 96 dc 83 be 11 cd 44 bf
       0.10475775 -0.24187356 -0.2575423 -0.76875407
000080 64 a0 42 3e 46 0d 1f 3f ec 2b aa 3e e9 7a c4 3b
       0.19006497 0.6212963 0.33236635 0.0059960973
000090 9c c1 81 3f 33 94 c9 bf 0a 5b 4c 3f 55 f7 11 40
       1.013721 -1.5748352 0.79826415 2.280721
0000a0 8f 38 a8 3c 26 92 21 bd 05 10 81 3f 11 a1 0c 3f
       0.020534782 -0.03944602 1.0083014 0.5493327
0000b0 f1 94 9c bf 3c ee 19 be 4a d6 2d 3e 2b 5c 20 3f
       -1.2232953 -0.15032285 0.16976276 0.6264064
0000c0 73 f4 ae 3f 95 64 20 be ae 2a c8 be ee 77 a2 3f
       1.366835 -0.15663369 -0.39095062 1.269285
0000d0 09 33 cb 3e c4 5b 3a 3f 2f d7 d2 be 2e 2d af 3f
       0.39687374 0.72796273 -0.41179797 1.3685663
0000e0 df 3d a6 3f fe c5 05 3f fe 46 91 be db fd f3 bd
       1.2987632 0.5225524 -0.28374475 -0.119136535
0000f0 e8 34 40 3e 88 d0 cb be cf 9e df bf c7 3b ba be
       0.18770182 -0.39807534 -1.747034 -0.36373731
000100 3d a8 14 3f 12 15 11 3f db 0d ef be d4 61 2b bf
       0.5806921 0.56672776 -0.46690258 -0.6694615
000110 bc 58 04 bf d8 3c 45 3d b5 21 05 bb f1 0d 12 3f
       -0.516979 0.04815373 -0.002031428 0.5705252
000120 5d 2f 30 3f 34 cf 29 3f 0a 00 13 3f 3a 8c 11 3c
       0.6882227 0.6633179 0.57421935 0.00888353
000130 bb 3d 34 3f 18 bc 79 be 0e 1d 98 be 5c 2e 0a bf
       0.70406693 -0.24388158 -0.29709667 -0.5397699
000140 ed ba c0 3f 7a 9f ad be 74 e2 c9 3f da 71 8d 3f
       1.5057045 -0.33910733 1.5772233 1.105037
000150 92 6b 98 3d 3f 7f 83 3e c6 9d 9b be 15 e7 06 3f
       0.074423924 0.2568302 -0.3039381 0.52696353
000160 06 62 3a 3f 77 63 a6 3f 3f 56 04 3d 52 b2 19 be
       0.7280582 1.2999104 0.032308813 -0.1500943
000170 39 6e 25 3d 13 41 13 3f ea f3 43 bf 0f 9c 74 bf
       0.04038832 0.5752117 -0.7654406 -0.95550627
000180 fd fa 46 3f f1 e5 f0 bd aa 43 ba bf 5f a8 30 bf
       0.7772673 -0.11762608 -1.45519 -0.69006914
000190 92 45 a7 3f e2 61 db bd 17 0a 83 bd cf a8 13 3f
       1.3068106 -0.10712029 -0.06398409 0.57679456
0001a0 e5 70 14 3f 8c 32 42 bd 7a ce 58 3f a8 8c 1a 3d
       0.57984763 -0.047411487 0.8469006 0.037731797
0001b0 36 d0 b7 be 53 18 41 3f 3e 3a 01 3f d8 a0 34 be
       -0.3590104 0.7542774 0.50479496 -0.17639482
0001c0 c7 f2 89 bf 77 9f 95 bf e9 41 0d 40 b7 e7 6f be
       -1.0777215 -1.168929 2.2071478 -0.23428236
0001d0 c8 76 61 3f ef 25 37 bf 3c 33 70 bf 5a 61 71 be
       0.8807187 -0.7154226 -0.9382818 -0.23572293
0001e0 01 b4 4d be 97 04 8b 3f 17 4b 0d 40 1b 09 12 be
       -0.20088197 1.0860776 2.2077081 -0.14261286
0001f0 5c e6 be bf 7f 4a da 3f 6f 2e 52 3f 30 2c 0f bf
       -1.491405 1.7053984 0.821021 -0.559268
000200 ac 6b c5 bd 82 87 5a 3f fc 57 8f 3f f5 bf db 3e
       -0.096396774 0.8536302 1.1198726 0.4291989
000210 6e ee 37 3f 3d b2 b9 be 11 bc 8f 3f 93 d0 ff 3e
       0.7184819 -0.36268798 1.1229268 0.49963817
000220 38 29 4f be 18 10 63 bf 5e 7a 74 3d 35 5c 95 3e
       -0.20230567 -0.8869643 0.05968701 0.2917191
000230 c0 18 48 bf fe 3d 5a bf 19 95 0f bf 2c 46 8f bf
       -0.78162766 -0.8525084 -0.5608688 -1.119329
000240 1d 52 72 3f 4e 6d bf be 91 01 31 be 86 1e a7 bf
       0.94656545 -0.3738808 -0.17285754 -1.305619
000250 75 d4 8b 3f e3 b2 df 3e 4a a3 c3 3e 0c 75 84 3f
       1.0924212 0.43691167 0.38210517 1.034822
000260 d5 f7 0d be 08 98 ae 3e 44 fc 4d bf 8c f8 0b 3f
       -0.13864072 0.34100366 -0.8046305 0.5467613
000270 ae 1e bd 3e 6f f5 40 bf 4e 76 3f 3f 57 4d 57 3e
       0.3693747 -0.753745 0.74789894 0.21025597
000280 13 7a 30 3f 3c 58 cc 3e 9b 82 22 3d d6 73 26 3f
       0.6893627 0.39911067 0.039675336 0.650205
000290 80 f4 fd be a9 3f 2c 3d c0 36 03 3f 71 67 b2 bc
       -0.496006 0.0420529 0.51255417 -0.02177784
0002a0 9d 81 a0 bf a6 c9 b9 bd 73 96 91 3f 13 28 4a bf
       -1.2539555 -0.090716645 1.1374038 -0.789674
0002b0 ae 17 be be 3c 65 16 bf 4b df 7b be fb cf 01 bf
       -0.3712744 -0.5874822 -0.24596898 -0.5070798
0002c0 46 6b be bf 13 ec 24 3f c5 ba 44 3f 27 0d 4b 3e
       -1.4876487 0.6442272 0.7684749 0.19829236
0002d0 f1 72 60 3e 2e db 20 bd 1d b9 42 be 47 7f b4 3e
       0.21918847 -0.039271526 -0.19015928 0.35253355
0002e0 4b b8 b4 bf 07 cc ce 3d 4e ed 0f 3e 6d 45 bc 3e
       -1.4118742 0.10097509 0.14055368 0.36771718
0002f0 bd 9b 38 3f 0c 85 b4 3e 35 05 a6 be f4 4d 01 3e
       0.7211264 0.35257757 -0.32425848 0.12627393
000300 e9 1a 52 3f ff 07 c6 bd dd c1 78 bf df 32 78 3e
       0.8207231 -0.09669494 -0.9717081 0.24238156
000310 a0 b1 37 3e bc d2 fc 3e ef 4f 80 bf cb 05 19 bf
       0.17938852 0.49379528 -1.0024394 -0.59774464
000320 2b 34 17 3e 11 7c a6 3b b6 33 d7 3e 43 8c 02 bf
       0.14765994 0.005080708 0.4203164 -0.5099527
000330 e3 ee 64 bd 79 fa 93 3f d4 c8 8c 3f 96 bc b0 3d
       -0.055891883 1.1560813 1.0998788 0.0862972
000340 41 c9 ad 3e b7 80 ef bf 89 94 5a 3f e0 4b 11 bf
       0.33942607 -1.8711156 0.85382897 -0.567564
000350 a0 83 e7 be 6f fa db be 70 ff 78 bf 80 06 e9 bf
       -0.4521761 -0.42964503 -0.97264767 -1.8205109
000360 ee fc 8a 3f 20 ce 98 bf ed ce 78 3e 20 ed 25 bd
       1.0858438 -1.1937904 0.24297686 -0.040509343
000370 d8 9a df bf 49 47 86 bf d2 f8 42 3f 89 d9 47 bd
       -1.746913 -1.0490505 0.7616092 -0.048791442
000380 1d e1 43 bf 6a a9 24 be c4 3a 43 3f 01 56 95 3f
       -0.7651537 -0.16080251 0.76261544 1.1666871
000390 fd f8 8c bf 3a a7 48 3e 60 b1 25 3e d5 5e e9 3d
       -1.1013485 0.19595042 0.16180944 0.11395041
0003a0 c0 17 f1 bf df 5c c3 be 35 a2 bf 3c 28 72 9b bf
       -1.8835373 -0.38156793 0.023392776 -1.2144213
0003b0 f8 9c b4 3e 21 d2 10 3f b2 51 83 3f db 25 2b bf
       0.35276008 0.5657063 1.0259306 -0.6685464
0003c0 6c 30 67 bc e3 0d 6f 3f 9a b7 5a 3e f4 67 88 3e
       -0.014110666 0.93380564 0.21359101 0.2664181
0003d0 a8 ba 7c bf b0 9f bb be 60 68 89 3f b6 81 ce 3f
       -0.98722315 -0.3664527 1.0734978 1.6133335
0003e0 d3 dc 23 bf f9 8f 91 bf 30 ac b7 be 13 44 09 3f
       -0.64008826 -1.1372062 -0.35873556 0.536195
0003f0 6f 9c 9a bf 19 93 f9 be 61 f2 22 bf bc 33 25 3f
       -1.207899 -0.4874504 -0.6365109 0.64532065

layers.0.bias f4 [128]
000000 89 54 5d 3e 3c bf 0c 3f aa 04 d1 bd 55 da 6a be
       0.21614279 0.549793 -0.10205968 -0.2293485
000010 00 00 00 00 54 60 77 be 88 ad b4 3d 84 a2 e4 bd
       0.0 -0.2415784 0.08822161 -0.1116381
000020 f8 eb 9d bd b9 3f d5 be a8 dc 96 3d c5 64 e4 3e
       -0.07711023 -0.4165018 0.073663056 0.4460813
000030 7b ca 2b be ad cb 8e 3b 21 be 6f bc 48 31 9b 3e
       -0.16776459 0.004357776 -0.014632733 0.30311036
000040 72 b4 1e 3d 19 01 a8 3e 66 9c bb 3e e9 4f 05 bf
       0.038746305 0.32813337 0.3664276 -0.5207506
000050 68 12 86 be 11 62 da bd 00 00 00 00 7b 97 01 3f
       -0.26185918 -0.10663236 0.0 0.50621766
000060 4b a4 e2 3e a2 84 4c 3e 02 e9 9d 3c e5 e8 bd 3e
       0.4426597 0.1997247 0.019276146 0.37091747
000070 59 36 aa 3e 79 04 aa 3e df c1 23 bf b3 4d 0a bf
       0.3324459 0.33206537 -0.639677 -0.5402481
000080 4b 3d 82 be de 56 8c 3d 19 ae 36 3f 2f 17 91 3e
       -0.25437388 0.06852506 0.713594 0.28338
000090 f5 95 91 bd 00 00 00 00 d6 2f 86 3d 00 00 00 00
       -0.0710868 0.0 0.06552093 0.0
0000a0 db 32 9a 3e 31 08 9e bd f5 7a e7 bd 30 b6 e8 3e
       0.30116925 -0.07716406 -0.11302749 0.45451498
0000b0 c5 a7 f6 3d 14 ea ee be ff df 7a be 00 00 00 00
       0.12043718 -0.46662962 -0.2449951 0.0
0000c0 18 88 e0 bd 38 95 12 3e fa d3 cd 3e d9 5d a7 bd
       -0.10963458 0.14314735 0.40200788 -0.08172197
0000d0 bc e7 e0 3b bf 24 19 3f 0f 7a 8f 3e c2 3b 19 3f
       0.0068635624 0.59821695 0.2802281 0.5985681
0000e0 a1 48 00 3e 00 00 00 00 00 00 00 00 d2 96 f7 3e
       0.12527706 0.0 0.0 0.48357254
0000f0 44 6d 06 bf c6 39 af be e4 69 06 3f cc 7e b9 be
       -0.52510476 -0.34223765 0.52505326 -0.3622955
000100 37 a7 74 be 3c 55 03 3f 34 e1 bc 3d 96 32 1d 3e
       -0.23891912 0.5130193 0.092226416 0.15351328
000110 7e 59 42 3f 3b eb 1d be 63 17 88 be 00 00 00 00
       0.75917804 -0.15421765 -0.26580343 0.0
000120 db 94 98 be 00 00 00 00 88 40 91 be 3c d5 9e 3e
       -0.29801068 0.0 -0.28369546 0.3102206
000130 7f e8 86 bd 6d da 8d be 2f 31 81 be 5a a9 6d 3e
       -0.06587314 -0.27705708 -0.25232837 0.23209134
000140 c4 18 2d 3f b3 23 0e bf b5 6b 3a 3e b8 c0 b8 3d
       0.67615914 -0.5552322 0.1820515 0.09021133
000150 00 00 00 00 c1 df 03 bf 67 6b 7f 3d be 12 59 3e
       0.0 -0.51513296 0.062358286 0.21198556
000160 00 00 00 00 00 00 00 00 14 61 d4 bd 00 00 00 00
       0.0 0.0 -0.10370079 0.0
000170 85 eb 04 3f 00 5e 1f 3f 3f 86 9e 3e 00 00 00 00
       0.51921874 0.6225281 0.30961797 0.0
000180 98 19 21 bf f9 d1 ce 3d af d7 f9 3d 9a 99 52 3d
       -0.6292968 0.10098643 0.121993415 0.051416017
000190 39 74 0e bd 0d b6 27 bf ec 69 3a 3e 00 00 00 00
       -0.034778807 -0.6551216 0.18204468 0.0
0001a0 96 eb e8 3e 0d c8 a0 3e 1e a2 de 3e 43 0e 34 3e
       0.45492238 0.31402627 0.4348306 0.17583565
0001b0 19 8a d8 bc dc d1 01 3f 00 00 00 00 d2 31 21 3f
       -0.026433038 0.50710845 0.0 0.62966645
0001c0 83 23 37 3e 92 7f d2 3e 86 d1 40 bd e6 73 ae 3d
       0.1788464 0.41112953 -0.047074817 0.085181996
0001d0 00 00 00 00 cb 8f 30 bf 97 fd f2 3e 00 00 00 00
       0.0 -0.6896941 0.474591 0.0
0001e0 df 36 b7 3d ad b3 de 3d fe 3e f0 3c 72 d6 8a 3e
       0.08946013 0.10874114 0.029326912 0.27116734
0001f0 5d 61 4e 3e 84 10 55 3e e2 05 bd 3d eb 08 f7 3d
       0.20154329 0.20807081 0.09229638 0.12062248

action_parameters_output_layer.weight f4 [27, 128]
000000 7f 0f 6b 39 28 82 e1 b8 71 37 91 39 80 88 08 37
       0.00022417119 -0.000107530796 0.00027697862 8.138013e-06
000010 4b b7 20 b9 58 fc 3a ba 03 15 1a bc f4 f7 93 39
       -0.00015327071 -0.0007132939 -0.009404424 0.00028222764
000020 33 6a a4 bb 67 af 96 b9 82 b3 9b bc a7 03 52 b8
       -0.0050175427 -0.00028740914 -0.019006494 -5.0071303e-05
000030 3d cb 48 39 34 34 85 38 a6 50 5f b9 9a 98 1c b9
       0.00019149198 6.351658e-05 -0.00021296981 -0.00014934168
000040 09 ba 0f b8 e4 b6 03 39 29 c1 62 3b 41 df dd b8
       -3.4267116e-05 0.00012561266 0.0034599996 -0.000105796855
000050 a9 4d 1e 3a e9 96 8b bb 34 68 38 b9 4c 10 b0 39
       0.0006038794 -0.0042599333 -0.00017586426 0.00033581478
000060 b3 84 a9 b9 00 bb 67 3c 0f 26 6c 3b 01 5d 51 ba
       -0.0003233306 0.014143705 0.0036033427 -0.0007986576
000070 d8 f3 08 b8 3c 35 bf b9 bf b3 12 3b 29 88 af b8
       -3.2652024e-05 -0.00036470022 0.002238497 -8.370012e-05
000080 73 eb ce b8 02 b4 1c 3a ea 1b 4a 3b 8a b4 5b 3c
       -9.866701e-05 0.0005977751 0.0030839392 0.013409743
000090 d0 6f 35 bc a4 d0 d0 b8 d4 9a 94 38 ea 60 af 38
       -0.011074021 -9.957075e-05 7.086029e-05 8.362702e-05
0000a0 37 e6 bd ba 14 6f 11 3a 8d ad 67 b8 e0 4a 91 b9
       -0.0014488165 0.0005547863 -5.5236324e-05 -0.0002771234
0000b0 d6 17 39 39 96 2f 65 38 17 af 05 3a 10 21 19 b9
       0.00017651854 5.4642172e-05 0.0005099638 -0.00014603534
0000c0 be cc 28 b6 5a 29 8f bb f8 bc b5 b9 f4 f3 7d 39
       -2.5153126e-06 -0.004368943 -0.00034663803 0.0002421884
0000d0 38 e3 3c 39 30 1b 4d b9 68 6b 46 3b 59 f0 e4 b9
       0.00018013723 -0.00019560452 0.0030276421 -0.00043666622
0000e0 8d c1 f4 3b 57 90 01 b9 cf 9d 59 b7 47 95 86 b8
       0.007469362 -0.0001235617 -1.2970951e-05 -6.417423e-05
0000f0 12 6c fc b8 a7 97 f3 39 5d 20 29 b7 36 c6 72 b8
       -0.00012036426 0.00046461562 -1.008072e-05 -5.7881894e-05
000100 5a db 62 b6 77 64 c4 b7 87 7e 6d 3c b7 d7 e7 bc
       -3.3804304e-06 -2.3411803e-05 0.0144954985 -0.028301103
000110 36 9d 2b ba e8 10 97 ba 77 50 f2 38 3f 82 74 b8
       -0.00065465586 -0.0011525424 0.00011554447 -5.8295434e-05
000120 03 71 04 38 cd aa 2e b8 ec aa 64 b9 76 82 e2 ba
       3.1576503e-05 -4.1643903e-05 -0.00021807448 -0.0017281312
000130 a1 ff 08 bc dd 20 12 ba 5b 2d e4 bb 32 7e 86 b9
       -0.008361728 -0.0005574355 -0.0069634146 -0.00025652495
000140 31 56 f9 bc c4 0c a7 39 04 d7 40 b9 9b f7 07 3b
       -0.030436607 0.00031862233 -0.00018390646 0.002074695
000150 1c fd c0 37 d6 bb 68 39 58 97 21 3b b5 f8 ca 3b
       2.3006047e-05 0.00022195218 0.0024656858 0.006194199
000160 99 e1 b0 37 af a2 15 38 3c 4c 97 38 bb 7f d8 b7
       2.1085887e-05 3.567588e-05 7.214441e-05 -2.5808686e-05
000170 93 4a 1c b9 e9 76 48 3a d9 38 4b b8 2a 46 35 b8
       -0.000149051 0.00076471135 -4.8451915e-05 -4.321911e-05
000180 5d e1 e8 b8 d2 c2 b7 3b e9 fa b4 3b db dc 21 b8
       -0.00011104599 0.005607941 0.005523075 -3.859108e-05
000190 3c 68 42 bb 45 21 05 3a a4 2e 19 38 01 9e a8 38
       -0.002966418 0.0005078505 3.652148e-05 8.040295e-05
0001a0 06 70 ac b7 95 f6 90 b9 c4 b0 5f 3c 78 16 0a 39
       -2.0556163e-05 -0.00027649538 0.013652984 0.00013169076
0001b0 15 d2 36 bc ac 83 9a 3a 40 ce 63 39 f8 bc 35 3c
       -0.011158486 0.0011788509 0.00021725241 0.011092417
0001c0 0a 19 39 3c 92 b1 b0 3b 6f a9 58 3b 7a 87 55 39
       0.011297474 0.005392262 0.0033059975 0.00020363732
0001d0 4d 05 b8 37 64 50 30 38 05 7b c9 bb bb 06 16 38
       2.1936978e-05 4.203654e-05 -0.0061486983 3.5769055e-05
0001e0 91 a7 03 3a a2 d2 20 37 ea 66 3c 39 ac 11 47 38
       0.0005022223 9.585785e-06 0.00017967416 4.7461755e-05
0001f0 d2 f9 ad ba ca d6 71 3c 15 30 0a 3b bc a0 1b bb
       -0.0013273305 0.014760682 0.0021085788 -0.0023746928
000200 87 2f 47 3b 45 72 27 3a 60 60 93 bc c8 e2 ca 38
       0.0030393319 0.0006387572 -0.017990291 9.674352e-05
000210 07 be 2a b7 ee 84 60 bb 76 6b d6 bc 3f 08 f6 39
       -1.0177034e-05 -0.003425892 -0.026174288 0.0004692692
000220 ff 3e d0 3c b8 f0 81 ba 3c 87 35 bc 74 97 d7 b7
       0.025420664 -0.0009913659 -0.011079606 -2.5700523e-05
000230 a5 94 05 3a 4b 05 06 38 b8 ec 3c ba 20 0d dc 3c
       0.0005095697 3.195302e-05 -0.00072069047 0.026861727
000240 4f 13 6f b9 ac 28 f4 38 0f 74 37 bc 62 29 ab b9
       -0.00022800009 0.000116424024 -0.011197104 -0.00032646494
000250 f7 38 2c bb 53 23 9a 3c 07 4f a1 b8 30 af a3 3b
       -0.002627907 0.018815672 -7.691798e-05 0.004995249
000260 42 cb 95 39 c9 2d 99 bc a8 3a b2 bb 1f 15 03 bd
       0.00028570934 -0.01869859 -0.0054391213 -0.032002565
000270 f7 a0 ed ba c5 f4 32 3a ee 8b 0b bc 6a bc 2b ba
       -0.0018129636 0.00068266346 -0.008517249 -0.0006551208
000280 f2 73 87 ba a4 e3 0c 3c 49 6f 20 bc 42 59 01 3d
       -0.0010334237 0.008599196 -0.009792157 0.031579264
000290 d7 ce 7b 3c 6a 50 79 38 de 0b b1 39 25 4d 32 b9
       0.015369139 5.9441118e-05 0.00033768913 -0.00017004141
0002a0 85 5b de bb 12 fe 65 3a cb 4a 7c b8 e7 79 91 38
       -0.0067858123 0.0008773516 -6.015114e-05 6.936845e-05
0002b0 f3 a4 4a 3a 83 6c 53 ba 5e 23 b9 bb 3c 9b 19 38
       0.0007730268 -0.0008065181 -0.005649968 3.6622616e-05
0002c0 93 67 55 b9 40 83 b6 3c b7 1c fa b9 fe 8a 96 3a
       -0.00020351847 0.022279382 -0.0004770511 0.0011485515
0002d0 98 15 a2 3a e0 ff 2c 3a a1 73 7f 3c 9e 17 22 3a
       0.0012366055 0.00065994076 0.015591533 0.0006183329
0002e0 21 37 56 bc b3 77 bf 37 cd ce 26 38 ce 90 c9 38
       -0.013074667 2.2824714e-05 3.9770082e-05 9.611399e-05
0002f0 33 a1 e9 b9 4d 71 5e 39 b8 11 fc 3a 02 44 48 b8
       -0.00044561326 0.00021213778 0.0019231355 -4.7747053e-05
000300 1e 58 4b ba 4f 45 70 3a e6 c1 32 bc 0c d2 dd 3b
       -0.0007756966 0.0009165601 -0.010910487 0.0067694243
000310 9c b6 16 bc bb e0 31 bc 11 dc a0 b8 7f b4 09 b8
       -0.009198811 -0.010856803 -7.670385e-05 -3.2831445e-05
000320 34 98 d4 39 ea f5 48 38 5d 8d d7 b9 e6 d7 9a bc
       0.0004054919 4.791274e-05 -0.0004111332 -0.018901777
000330 f0 5f 29 bd a4 93 3b bb e0 bc ec bb 05 7d 52 ba
       -0.04135126 -0.0028621936 -0.007224664 -0.00080294936
000340 50 20 5c 3c 4b 78 65 ba 62 e1 19 ba 3e 9d ca bc
       0.013435438 -0.0008753582 -0.00058700715 -0.024733182
000350 45 ef d5 38 5b cb 99 b8 90 a1 b8 bc d7 1d b6 3c
       0.00010201199 -7.3334864e-05 -0.022537977 0.022231026
000360 85 c7 4d b8 66 12 ee b7 0e d6 07 39 37 ec fc 37
       -4.9061626e-05 -2.8380378e-05 0.00012954345 3.0150737e-05
000370 62 d2 2d 39 32 d8 1b 3c 1a 99 b3 b9 76 5f 53 38
       0.0001657694 0.009511994 -0.0003425561 5.0395225e-05
000380 45 5a 3d ba e0 74 41 3c f9 5d 98 bc ac e8 48 ba
       -0.0007223229 0.01180765 -0.018599497 -0.00076640653
000390 48 61 3f 3c 21 2f cb bb 0f 96 f0 3a 69 f3 dc 37
       0.0116809085 -0.0062006866 0.0018355268 2.633939e-05
0003a0 1c 40 1b 3a 84 bb 22 ba d5 16 40 3c 3f bc 30 3a
       0.0005922334 -0.00062077516 0.011724194 0.0006741918
0003b0 32 4f 58 bd ba 2c f4 3b 1e 83 dc 37 b3 70 b9 3c
       -0.0528099 0.007451621 2.62871e-05 0.022636747
0003c0 83 e0 a8 3b 8c 24 a7 3c 20 0d 3b bc 01 ff 8e 3a
       0.005153717 0.02040317 -0.011416703 0.0010909737
0003d0 f9 2c 67 38 45 6a 4f ba 07 90 a5 bc 74 43 cf b7
       5.5116576e-05 -0.0007912259 -0.02021028 -2.4707733e-05
0003e0 e2 b8 2e 3b d1 e9 f1 b9 50 a2 01 3a 47 88 1f 3b
       0.0026660492 -0.0004614131 0.0004945146 0.0024342702
0003f0 a7 ce 5e bb c1 33 2a bc a8 f3 72 3b c4 a1 a9 3c
       -0.0033997686 -0.010388316 0.00370715 0.020707019

action_parameters_output_layer.bias f4 [27]
000000 24 43 0c bd 2e 89 d5 3d f9 9d b0 3d af cc c4 bc
       -0.034243718 0.104265556 0.08623881 -0.024023382
000010 93 89 b6 bc 0b 91 c6 bc 05 57 54 bd 68 51 01 bd
       -0.022282397 -0.024239084 -0.0518408 -0.031571776
000020 e9 d0 8c 3e 1e 44 0d bd 8b 11 ba bd 9d 62 07 bd
       0.27503136 -0.03448879 -0.09085377 -0.03305303
000030 6e ec 2a 3e 86 19 d1 bd 20 a9 16 bd 18 c7 a5 3d
       0.16691753 -0.10209946 -0.036782384 0.08094615
000040 13 2d 05 bd a6 39 32 3e c2 e2 4c 3e f7 08 2c 3e
       -0.03251369 0.17404804 0.20008376 0.16800295
000050 e2 6d b5 3d 42 33 8e 3d cb dd af 3d bf 62 8a 3e
       0.08858849 0.069433704 0.085872255 0.27028462
000060 0f 52 18 bd 4b d4 6f bd d4 a8 2f bd
       -0.037187632 -0.058552068 -0.042885616

action_parameters_passthrough_layer.weight f4 [27, 3]
000000 00 00 00 00 00 00 00 00 00 00 00 00 00 00 00 00
       0.0 0.0 0.0 0.0
000010 00 00 00 00 00 00 00 00 00 00 00 00 00 00 00 00
       0.0 0.0 0.0 0.0
000020 00 00 00 00 00 00 00 00 00 00 00 00 00 00 00 00
       0.0 0.0 0.0 0.0
000030 00 00 00 00 00 00 00 00 00 00 00 00 00 00 00 00
       0.0 0.0 0.0 0.0
000040 00 00 00 00 00 00 00 00 00 00 00 00 00 00 00 00
       0.0 0.0 0.0 0.0
000050 00 00 00 00 00 00 00 00 00 00 00 00 00 00 00 00
       0.0 0.0 0.0 0.0
000060 00 00 00 00 00 00 00 00 00 00 00 00 00 00 00 00
       0.0 0.0 0.0 0.0
000070 00 00 00 00 00 00 00 00 00 00 00 00 00 00 00 00
       0.0 0.0 0.0 0.0
000080 00 00 00 00 00 00 00 00 00 00 00 00 00 00 00 00
       0.0 0.0 0.0 0.0
000090 00 00 00 00 00 00 00 00 00 00 00 00 00 00 00 00
       0.0 0.0 0.0 0.0
0000a0 00 00 00 00 00 00 00 00 00 00 00 00 00 00 00 00
       0.0 0.0 0.0 0.0
0000b0 00 00 00 00 00 00 00 00 00 00 00 00 00 00 00 00
       0.0 0.0 0.0 0.0
0000c0 00 00 00 00 00 00 00 00 00 00 00 00 00 00 00 00
       0.0 0.0 0.0 0.0
0000d0 00 00 00 00 00 00 00 00 00 00 00 00 00 00 00 00
       0.0 0.0 0.0 0.0
0000e0 00 00 00 00 00 00 00 00 00 00 00 00 00 00 00 00
       0.0 0.0 0.0 0.0
0000f0 00 00 00 00 00 00 00 00 00 00 00 00 00 00 00 00
       0.0 0.0 0.0 0.0
000100 00 00 00 00 00 00 00 00 00 00 00 00 00 00 00 00
       0.0 0.0 0.0 0.0
000110 00 00 00 00 00 00 00 00 00 00 00 00 00 00 00 00
       0.0 0.0 0.0 0.0
000120 00 00 00 00 00 00 00 00 00 00 00 00 00 00 00 00
       0.0 0.0 0.0 0.0
000130 00 00 00 00 00 00 00 00 00 00 00 00 00 00 00 00
       0.0 0.0 0.0 0.0
000140 00 00 00 00
       0.0

action_parameters_passthrough_layer.bias f4 [27]
000000 00 00 00 00 00 00 00 00 00 00 00 00 00 00 00 00
       0.0 0.0 0.0 0.0
000010 00 00 00 00 00 00 00 00 00 00 00 00 00 00 00 00
       0.0 0.0 0.0 0.0
000020 00 00 00 00 00 00 00 00 00 00 00 00 00 00 00 00
       0.0 0.0 0.0 0.0
000030 00 00 00 00 00 00 00 00 00 00 00 00 00 00 00 00
       0.0 0.0 0.0 0.0
000040 00 00 00 00 00 00 00 00 00 00 00 00 00 00 00 00
       0.0 0.0 0.0 0.0
000050 00 00 00 00 00 00 00 00 00 00 00 00 00 00 00 00
       0.0 0.0 0.0 0.0
000060 00 00 00 00 00 00 00 00 00 00 00 00
       0.0 0.0 0.0
