RL4E2E/results/pptod/2.1k1/episode_1500/actor.pt (torch, 20755 bytes, 4 tensors)

layers.0.weight f4 [128, 30]
0.04612602 0.3876646 0.041167025 -0.39683014 0.033797897 -0.5195245 -0.2331537 0.22050187
-0.07783212 -0.35636717 -0.006235139 0.4755871 0.13251077 0.03232227 -0.33647433 -0.39368212
-0.059621483 0.30445573 -0.023753228 -0.4145305 -0.021667901 0.15049854 0.00036084518 0.14439759
-0.27150583 -0.5165602 -0.398627 -0.12996352 -0.20415595 -0.28059825 -0.262445 -0.43734396
-0.18399273 0.20226043 -0.21421243 -0.12623517 -0.1418376 0.02375033 -0.033957727 0.035470746
-0.14459395 -0.23907171 0.03335137 0.4123731 0.21099477 0.017204517 -0.2079005 -0.12395954
0.010419074 -0.42050678 0.38222018 0.01656742 0.20555897 0.041015092 0.04940207 -0.2192602
0.14416705 -0.2895141 -0.04766929 -0.09000719 -0.18559961 0.95225114 0.58249915 -0.3850143
0.62398356 -0.75168186 -0.09324207 -0.002452208 -0.5083503 0.52277386 0.17780212 1.305094
0.69586587 0.16049463 -0.54756165 1.1157718 -0.38760537 0.41313902 -0.13033585 1.1506032
-0.19272184 0.35220116 -0.31766075 0.47871962 -0.073170334 -0.86662537 -0.07354049 0.39721388
-0.6285596 -0.85525525 0.09300456 -0.8653877 0.06456129 -0.14568488 -0.07913836 -0.421599
0.296068 0.7436456 0.14733678 -0.14868817 -0.19271567 -0.044369966 0.11968608 0.00022727961
0.02781731 0.33543977 -0.82485425 -0.23116425 -0.3974699 -0.37152246 0.6578531 0.17604446
-0.4085018 0.39034855 -0.29695302 -0.33410105 -0.057089914 -0.41624013 0.1452517 0.19506596
0.40411174 -0.21491824 0.009755411 0.040540688 0.36682886 -0.37245595 -0.3526074 0.39220476
0.07924939 -0.2949259 -0.08045139 0.050335582 -0.103506394 -0.7371447 0.0050343852 0.15906759
-0.26665917 0.13839103 -0.18806432 0.16389589 -0.047428437 -0.198119 -0.07476343 -0.30228144
-0.16749655 -0.2596102 -0.35468903 0.0063042324 -0.21234939 -0.065101765 -0.28405637 -0.08247851
-0.27009752 -0.0077169756 0.3436825 -0.18825813 -0.017866679 -0.3932053 0.22476885 -0.14803098
0.013467286 0.5260619 -0.032904703 -0.17037077 0.33597207 0.09062594 -0.0831776 -0.3965555
-0.35951832 -0.12845278 -0.08912557 0.19085166 0.28528383 0.18390277 -0.11141569 0.27063656
-0.39101452 -0.4774202 0.3149446 -0.13841537 -0.0048429864 0.9015773 -1.5693766 0.08459386
0.03474944 0.4884809 0.20821357 -0.6714706 0.51543146 0.34831434 -0.3804637 0.18669774
0.7400076 0.088817775 0.7459179 0.42998618 -0.11542933 0.7891919 -0.027870342 0.2935156
0.41079497 0.10569606 0.5039462 0.28696495 0.62045586 0.5721323 0.047211446 0.89194477
1.0220338 0.57240033 0.036067273 -0.13021521 0.006077992 -0.35304183 -0.27276048 -0.086273395
-0.01755472 0.00067447155 -0.49145192 0.29728463 -0.27802104 0.17330174 -0.16145779 -0.5510031
-0.14351913 0.09318129 -0.5739931 0.036927555 -0.16577463 0.10352745 -0.4184289 -0.51800084
-0.18236457 -0.2801949 -0.23158497 -0.4409193 -0.04892443 -0.11437545 -0.22700861 -0.14854921
-0.03141295 -0.1984002 -0.07545208 -0.10967536 -0.20972703 -0.121452734 0.332668 -0.39137924
0.19237065 -0.016007371 0.10730694 0.13755663 0.07734604 0.12436489 -0.19520706 -0.07003375
00000000: a3ee 3c3d f97b c63e c19e 283d 522d cbbe
00000010: aa6f 0a3d 8fff 04bf d8bf 6ebe 3ecb 613e
00000020: 7266 9fbd c275 b6be 2350 ccbb 2780 f33e
00000030: e7b0 073e 5b64 043d 5d46 acbe b490 c9be
00000040: a835 74bd 9fe1 9b3e 2196 c2bc 573d d4be
00000050: e280 b1bc 4a1c 1a3e d22f bd39 f6dc 133e
00000060: d002 8bbe 4a3d 04bf d718 ccbe 2815 05be
00000070: 420e 51be 93aa 8fbe 315f 86be 8ceb dfbe
00000080: 9768 3cbe 5c1d 4f3e 815a 5bbe cb43 01be
00000090: e03d 11be 0d90 c23c 4217 0bbd c649 113d
000000a0: 7010 14be 37cf 74be 729b 083d 9122 d33e
000000b0: 030f 583e 7df0 8c3c dee3 54be 80de fdbd
000000c0: c4b4 2a3c aa4c d7be 5db2 c33e 66b8 873c
000000d0: 0d7e 523e 71ff 273d d359 4a3d bf85 60be
000000e0: 87a0 133e 313b 94be e040 43bd b155 b8bd
000000f0: d30d 3ebe bbc6 733f aa1e 153f 9820 c5be
00000100: 63bd 1f3f 396e 40bf b3f5 bebd 39b5 20bb
00000110: 3f23 02bf 82d4 053f c211 363e 520d a73f
00000120: 4424 323f b458 243e 002d 0cbf 9cd1 8e3f
00000130: 3674 c6be f586 d33e c376 05be f746 933f
00000140: e058 45be b653 b43e 6ea4 a2be bd1a f53e
00000150: 54da 95bd 29db 5dbf 659c 96bd 9e5f cb3e
00000160: 48e9 20bf 02f2 5abf 2d79 be3d 0c8a 5dbf
00000170: b638 843d 6b2e 15be 4b13 a2bd d3db d7be
00000180: 3a96 973e 8f5f 3e3f 74df 163e b641 18be
00000190: 4257 45be 48bd 35bd fa1d f53d e851 6e39
000001a0: 21e1 e33c c3be ab3e a629 53bf 52b6 6cbe
000001b0: 2d81 cbbe 3138 bebe 1069 283f 0045 343e
000001c0: 2627 d1be c4db c73e 3a0a 98be 4b0f abbe
000001d0: 1dd7 69bd 6d1d d5be ddbc 143e 5fbf 473e
000001e0: bce7 ce3e 8713 5cbe 29d5 1f3c fe0d 263d
000001f0: fed0 bb3e 8cb2 bebe f588 b4be 10cf c83e
00000200: 814d a23d 8700 97be b3c3 a4bd af2c 4e3d
00000210: 29fb d3bd 84b5 3cbf 7cf7 a43b 9de2 223e
00000220: 8d87 88be 61b6 0d3e ef93 40be 53d4 273e
00000230: 5244 42bd b5df 4abe 921d 99bd a2c4 9abe
00000240: 3784 2bbe a1eb 84be cd99 b5be bc93 ce3b
00000250: 1e72 59be 1354 85bd d66f 91be 7eea a8bd
00000260: 394a 8abe afde fcbb 27f7 af3e bdc6 40be
00000270: 245d 92bc 3552 c9be ce29 663e 6f95 17be
00000280: e4a5 5c3c feab 063f 15c7 06bd ad75 2ebe
00000290: 8804 ac3e 189a b93d 0459 aabd 5309 cbbe
000002a0: c912 b8be 2089 03be 7887 b6bd 9e6e 433e
000002b0: b910 923e 0251 3c3e e92d e4bd e090 8a3e
000002c0: 0e33 c8be 6c70 f4be 6b40 a13e c2bc 0dbe
000002d0: eab1 9ebb c5cd 663f 55e1 c8bf 8c3f ad3d
000002e0: 6e55 0e3d 2b1a fa3e f035 553e 7fe5 2bbf
000002f0: 51f3 033f 4256 b23e 23cc c2be b12d 3f3e
00000300: 2371 3d3f 18e6 b53d 7af4 3e3f 2627 dc3e
00000310: 3666 ecbd 7b08 4a3f 5850 e4bc ad47 963e
00000320: b853 d23e 2d77 d83d 9e02 013f 12ed 923e
00000330: 32d6 1e3f 4377 123f ca60 413d 7e56 643f
00000340: 01d2 823f d488 123f 47bb 133d 2357 05be
00000350: e429 c73b e6c1 b4be 43a7 8bbe 1bb0 b0bd
00000360: ebce 8fbc 05cf 303a 969f fbbe b135 983e
00000370: c658 8ebe 0376 313e 3155 25be 8a0e 0dbf
00000380: aef6 12be d5d5 be3d 36f1 12bf 5941 173d
00000390: d3c0 29be 3306 d43d 503c d6be b49b 04bf
000003a0: c7bd 3abe b575 8fbe 9c24 6dbe 2dc0 e1be
000003b0: fc64 48bd ad3d eabd f274 68be 491d 18be
000003c0: deaa 00bd 6c29 4bbe 9f86 9abd 7a9d e0bd
000003d0: afc2 56be 36bc f8bd 7653 aa3e dc62 c8be
000003e0: d0fc 443e e421 83bc bec3 db3d a5db 0c3e
000003f0: 9a67 9e3d 05b3 fe3d 5ce4 47be db6d 8fbd

layers.0.bias f4 [128]
2.0739892 0.0 0.8977718 2.1794267 1.6747215 0.0 2.3222816 2.6941612
0.0 -2.7421968 1.9419051 0.25394523 1.988334 0.8071968 -0.043200575 1.6604967
-2.3806844 1.8713092 0.0 2.0528562 2.3564136 -2.5889926 2.3383245 2.274585
1.8574675 2.1284256 1.9637611 1.0144258 -2.19567 -2.2472484 2.4413223 1.8878485
0.0 0.0 -0.028622132 1.5137659 -2.5235145 1.8283372 0.0 1.8316975
-2.7875001 1.7586645 2.0056155 -2.6778214 0.0 -2.1193755 0.87210566 0.0
2.0884004 1.7775277 1.8238066 0.0 0.6950245 0.46852136 1.9627049 1.9570355
-0.067347705 -0.06643682 2.022798 -2.3047442 0.7477082 1.891728 0.10925144 -2.6752675
2.0484793 2.2427354 1.7781246 1.9726613 2.05173 0.283044 2.3779778 2.0050414
2.21238 2.1325128 -2.0424216 2.4009047 0.32139114 2.189379 2.3705494 2.024664
2.1611223 -3.4725683 2.1262093 -0.02721571 -2.102659 2.6303096 0.0 0.0
0.0 1.7900025 -2.6473508 1.7422379 -2.2827125 2.6358566 -2.3259668 2.1170194
1.7387685 -2.6383379 1.8949561 1.930372 0.0 1.8324804 2.1560688 -2.2748451
-0.022080071 1.0644691 -1.90963 2.3177936 1.8617344 -3.289721 1.9515102 2.0478132
-3.0130901 -2.5973136 1.75599 -3.0291076 0.0 2.210808 2.5546324 -0.040463395
2.2943435 1.9088092 1.8469232 1.9944724 0.0 2.215297 0.55816317 2.3459353
00000000: 3dbc 0440 0000 0000 5fd4 653f ba7b 0b40
00000010: 465d d63f 0000 0000 43a0 1440 236d 2c40
00000020: 0000 0000 2780 2fc0 5990 f83f 1c05 823e
00000030: ba81 fe3f 73a4 4e3f 16f3 30bd 288b d43f
00000040: 225d 18c0 0f87 ef3f 0000 0000 ff61 0340
00000050: 7bcf 1640 0eb2 25c0 1ca7 1540 cd92 1140
00000060: 7fc1 ed3f 2038 0840 865c fb3f b4d8 813f
00000070: db85 0cc0 ebd2 0fc0 a03e 1c40 05a5 f13f
00000080: 0000 0000 0000 0000 f678 eabc 15c3 c13f
00000090: 4381 21c0 f406 ea3f 0000 0000 1075 ea3f
000000a0: 6766 32c0 eb1b e13f 015c 0040 6d61 2bc0
000000b0: 0000 0000 d9a3 07c0 5142 5f3f 0000 0000
000000c0: 5aa8 0540 0786 e33f 7f72 e93f 0000 0000
000000d0: 20ed 313f 08e2 ef3e ea39 fb3f 2480 fa3f
000000e0: 98ed 89bd 0710 88bd 8675 0140 ee80 13c0
000000f0: ce69 3f3f 2524 f23f 38bf df3d 9537 2bc0
00000100: 491a 0340 fa88 0f40 9699 e33f 2a80 fc3f
00000110: 8b4f 0340 25eb 903e ca30 1840 9952 0040
00000120: a297 0d40 177b 0840 09b7 02c0 6ca8 1940
00000130: 618d a43e c91e 0c40 15b7 1740 1894 0140
00000140: d44f 0a40 8f3e 5ec0 d013 0840 7bf3 debc
00000150: f791 06c0 fe56 2840 0000 0000 0000 0000
00000160: 0000 0000 cd1e e53f 326e 29c0 a701 df3f
00000170: f617 12c0 e0b1 2840 a4dc 14c0 3f7d 0740
00000180: f78f de3f 87da 28c0 ec8d f23f 6e16 f73f
00000190: 0000 0000 b88e ea3f 08fd 0940 1097 11c0
000001a0: 44e1 b4bc 8640 883f c16e f4bf bb56 1440
000001b0: 504d ee3f ca8a 52c0 16cb f93f 5f0f 0340
000001c0: 78d6 40c0 633a 26c0 48c4 e03f e6dc 41c0
000001d0: 0000 0000 e17d 0d40 197f 2340 f2bc 25bd
000001e0: 86d6 1240 dc53 f43f fb67 ec3f df4a ff3f
000001f0: 0000 0000 6dc7 0d40 c8e3 0e3f ce23 1640

layers.1.weight f4 [6, 128]
-0.30683267 -0.005184233 -0.7947966 -1.1801587 -0.15441373 -0.05035052 -1.6675801 -1.2473878
-0.07363038 0.60196286 -0.09701556 1.3051671 -0.3449142 -0.29001844 -0.013226867 -0.14180933
0.20143585 -0.4785065 0.017324738 -0.66316193 -1.2916925 0.2069505 -0.8491771 -1.0279466
-0.19180936 -0.54586214 -0.3264838 -0.50751966 0.25721154 0.085689165 -0.65600544 -0.6638869
0.03647419 -0.070882246 -0.041779608 -0.40214595 0.60553217 -0.16264406 -0.013284184 -0.14916167
0.3292088 -0.13489923 -0.13545527 0.48042476 -0.036765676 0.25920913 -0.5864714 -0.030315131
-0.18272363 -0.11995815 -0.782718 -0.0670162 -0.88945144 1.4215157 -0.7591953 -0.53094435
0.025197128 0.012767089 -0.29260722 0.56057024 -0.74312496 -0.6404974 1.3375696 0.33251008
-0.46596545 -0.86159176 -0.116531394 -0.36375532 -0.6507827 0.7242218 -0.9407761 -0.85874516
-0.66184664 -0.37156734 0.1287931 -0.71490306 1.3689196 -0.6190724 -1.3402729 -0.3876674
-0.23465912 1.2605969 -0.6400891 0.053384837 0.18814306 -1.2441235 -0.03605591 0.06059847
0.0128624365 -0.5678319 0.50245434 -0.2545186 0.34622985 -0.10037548 0.23450363 -0.3620908
-0.17267029 0.511832 -0.9202549 -0.6750599 -0.020708568 -0.15469056 -0.25596753 0.1538169
0.023538634 -0.23803315 1.1849682 -0.10578332 -0.045925602 0.7483891 -0.87690324 -0.36045793
0.50511086 0.49772602 -0.19711612 0.6613462 0.046040468 -0.9118021 -1.6195173 0.043480176
-0.85677797 -0.46083578 -0.2029212 -0.6009028 0.004157141 -0.74119544 -0.28574386 -0.95562935
-0.06878598 -0.048149012 -0.41353014 0.22709341 0.0030432693 0.07111714 -0.5711954 -0.89946914
-0.002744466 0.074488625 0.012408692 -0.81660056 -0.31640056 -0.6860691 0.040092565 0.031195603
-0.051862717 -0.39552835 0.0558405 -0.13195573 -0.6268827 0.009144972 -0.41261837 0.29668406
-0.08919676 -0.23634948 -0.023551006 -0.3155338 0.06484179 -0.08902786 -0.52184135 -0.44999564
-0.043640584 0.020875521 -0.020180553 -0.20487493 0.021956492 -0.008747938 -0.032525975 0.024566963
0.11269348 0.030953277 -0.019028097 -0.0058954693 0.011954598 -0.028305007 -0.21568742 0.01237715
-0.1333197 -0.0650749 -0.62856925 -0.07821996 -0.48568878 -1.1832684 -0.4911685 -0.3631319
-0.066337615 -0.011975914 -0.0711196 0.07020844 -0.38423756 -0.14905578 -0.53249186 0.06926272
-0.5519608 -0.72010636 -0.023099316 0.0017374171 -0.3077116 -0.2789609 -0.47846845 -0.6584917
-0.5530214 -0.5968271 -0.027987063 -0.36706957 -0.9519329 -0.529591 -0.75017834 -0.16007733
-0.031044234 -0.048220217 -0.07908452 0.0065835044 0.086096406 -0.80411667 0.027550943 0.06568865
0.050501443 -0.31843445 0.0295494 0.08029242 -0.09064643 -0.04345805 0.008000295 -0.68732613
0.063189186 -0.01002959 -0.9850065 -0.024092931 -0.024368085 -0.02703298 -0.022557314 0.077691026
0.0011937171 -0.5342052 -0.020259934 -0.075082496 -0.085464455 0.08375858 -0.75438106 -0.10309138
-0.011017197 -0.009492514 0.0032614337 0.0015003275 0.08564096 -0.63350046 -0.03734073 0.0007520914
-0.911712 -0.4007621 -0.0988687 -0.45969632 0.01398097 -0.63799816 -0.7039645 -0.38820717
00000000: 2c19 9dbe 80e0 a9bb ca77 4bbf 710f 97bf
00000010: a21e 1ebe 593c 4ebd 4473 d5bf 67aa 9fbf
00000020: 86cb 96bd 3d1a 1a3f 18b0 c6bd b70f a73f
00000030: 9898 b0be 4c7d 94be 80b5 58bc 7736 11be
00000040: 3345 4e3e cefe f4be 9cec 8d3c fbc4 29bf
00000050: 2e56 a5bf d5ea 533e ac63 59bf c193 83bf
00000060: ac69 44be 9fbd 0bbf e228 a7be cfec 01bf
00000070: 3bb1 833e cd7d af3d f9ef 27bf 7ef4 29bf
00000080: f665 153d b62a 91bd 1821 2bbd 13e6 cdbe
00000090: 2804 1b3f 2a8c 26be e8a5 59bc d6bd 18be
000000a0: 0e8e a83e 0623 0abe c9b4 0abe 3cfa f53e
000000b0: 9b97 16bd 0fb7 843e fd22 16bf 7057 f8bc
000000c0: e71b 3bbe 9eac f5bd 3560 48bf ca3f 89bd
000000d0: 17b3 63bf 3af4 b53f a05a 42bf f8eb 07bf
000000e0: 356a ce3c 0d2d 513c 9dd0 95be 8881 0f3f
000000f0: 703d 3ebf a3f7 23bf 7b35 ab3f c33e aa3e
00000100: 0693 eebe 4791 5cbf 03a8 eebd 233e babe
00000110: b299 26bf 9a66 393f b4d6 70bf b9d6 5bbf
00000120: c86e 29bf 133e bebe 57e2 033e e303 37bf
00000130: c238 af3f 877b 1ebf 108e abbf 577c c6be
00000140: 7b4a 70be 3d5b a13f e1dc 23bf 0faa 5a3d
00000150: 93a8 403e 703f 9fbf 5daf 13bd 1a36 783d
00000160: f8bc 523c 6e5d 11bf d9a0 003f 4350 82be
00000170: 0a45 b13e a991 cdbd b821 703e f763 b9be
00000180: 7bd0 30be 6c07 033f d395 6bbf bad0 2cbf
00000190: 04a5 a9bc 3467 1ebe 2d0e 83be 2d82 1d3e
000001a0: 18d4 c03c f6be 73be 0aad 973f eda4 d8bd
000001b0: 7c1c 3cbd 6e96 3f3f bb7c 60bf f18d b8be
000001c0: f24e 013f f2d5 fe3e cfd8 49be fc4d 293f
000001d0: ee94 3c3d dd6b 69bf 584c cfbf 4518 323d
000001e0: cd55 5bbf abf2 ebbe 93ca 4fbe c4d4 19bf
000001f0: a038 883b fcbe 3dbf 054d 92be 20a4 74bf
00000200: aadf 8cbd e637 45bd 39ba d3be 2d8b 683e
00000210: 9671 473b dda5 913d dd39 12bf 9c43 66bf
00000220: 80dc 33bb 7e8d 983d d44d 4b3c bc0c 51bf
00000230: 41ff a1be 39a2 2fbf 1a38 243d ec8d ff3c
00000240: 006e 54bd b182 cabe 02b9 643d 671f 07be
00000250: 627b 20bf cbd4 153c b742 d3be f9e6 973e
00000260: caac b6bd 9905 72be 0aee c0bc a58d a1be
00000270: c6cb 843d 3d54 b6bd 6597 05bf d465 e6be
00000280: 78c0 32bd 2403 ab3c b051 a5bc bcca 51be
00000290: 1ade b33c 8353 0fbc f539 05bd a840 c93c
000002a0: d7cb e63d ba91 fd3c d0e0 9bbc c82e c1bb
000002b0: 38dd 433c e7df e7bc 2add 5cbe 88c9 4a3c
000002c0: f684 08be fd45 85bd eae9 20bf c931 a0bd
000002d0: 33ac f8be 5775 97bf 707a fbbe 6dec b9be
000002e0: 04dc 87bd a036 44bc 27a7 91bd 71c9 8f3d
000002f0: c9ba c4be 14a2 18be 6351 08bf 9dd9 8d3d
00000300: 4e4d 0dbf e458 38bf c73a bdbc 0bba e33a
00000310: 608c 9dbe f7d3 8ebe d1f9 f4be e992 28bf
00000320: cf92 0dbf a9c9 18bf 2045 e5bc 8bf0 bbbe
00000330: e0b1 73bf 4793 07bf b00b 40bf 50eb 23be
00000340: 7a50 febc 9082 45bd 11f7 a1bd 70ba d73b
00000350: 5053 b03d 97da 4dbf 84b2 e13c c587 863d
00000360: 9ada 4e3d d709 a3be 9511 f23c 5a70 a43d
00000370: d6a4 b9bd 1101 32bd ab13 033c 9bf4 2fbf
00000380: 5569 813d 2653 24bc 6329 7cbf 8a5e c5bc
00000390: 949f c7bc 4574 ddbc 1eca b8bc 791c 9f3d
000003a0: 8076 9c3a acc1 08bf 29f8 a5bc dac4 99bd
000003b0: fd07 afbd 9e89 ab3d 1e1f 41bf 9321 d3bd
000003c0: 7981 34bc 7d86 1bbc c7bd 553b a3a6 c43a
000003d0: 8764 af3d 162d 22bf 98f2 18bd 0028 453a
000003e0: f565 69bf b130 cdbe ac7b cabd 515d ebbe
000003f0: 7010 653c d953 23bf 0437 34bf 17c3 c6be

layers.1.bias f4 [6]
-1.5980548 -0.4139468 0.0 0.0 0.0 0.0
00000000: 0f8d ccbf d6f0 d3be 0000 0000 0000 0000
00000010: 0000 0000 0000 0000
