RL4E2E/results/pptod/2.0k1/episode_2000/actor.pt (torch, 20755 bytes, 4 tensors)

layers.0.weight f4 [128, 30]
00000000: 977f 813d d09e 823e 6690 85bd 8e07 06bf
00000010: 7163 f6bd 24e7 eabe b0e8 5dbe d335 373e
00000020: 5e01 c2bd 2d74 e4be 22e9 573d e98b b53e
00000030: d77b 14be e366 3f3d a6fd 98be 8984 0bbf
00000040: ccdb 90bb 7de3 9f3e 28e4 ebbc e55e e0be
00000050: 2cac 01be ff7c 1d3e 3b3e be3d cb4c 173e
00000060: cd0c c7be e17b 06bf 2cde e7be d632 9fbd
00000070: aaa8 84be ab2d b7be 315f 86be 89eb dfbe
00000080: 9868 3cbe 631d 4f3e 815a 5bbe ca43 01be
00000090: e03d 11be 0d90 c23c 4217 0bbd c449 113d
000000a0: 7010 14be 30cf 74be 729b 083d 9122 d33e
000000b0: 030f 583e 7df0 8c3c dee3 54be 80de fdbd
000000c0: c4b4 2a3c aa4c d7be 5db2 c33e 66b8 873c
000000d0: 0d7e 523e 69ff 273d d559 4a3d bf85 60be
000000e0: 87a0 133e 313b 94be e140 43bd b155 b8bd
000000f0: d886 b6be 767b 293f 5229 113f 6451 b7be
00000100: b92a fd3d 9258 3ebf 0115 0abf 3b01 87bd
00000110: 2b96 41be 9ebe 253e d4a9 a13e 0928 ffbd
00000120: 79ea 8abd 0afd 1a3d 9233 1e3d b154 f63e
00000130: 4ddf c3be 9c02 743e 05b5 d7be 8d77 cc3e
00000140: fcac 8b3e 99d0 133f e53a edbc 506c e23e
00000150: af8d 59be e1ac 85be cdcf 21bd f264 f93d
00000160: 619d 29be a533 5dbe 9f8c c73c 5515 26bf
00000170: 64b5 f1bc 5300 4d3e 07ba a63e 65bc 54bd
00000180: 1eb6 cd3d 1c5b 653f 6f2b 643e dd63 e03d
00000190: f570 b63e 3640 da3e f3c0 523e 13ee 673e
000001a0: 24af df3e 3e9a c23e 9c74 52be faf0 053d
000001b0: 3ece 883e 2ec3 67be eecc 433f 1513 b23e
000001c0: fab7 2d3e 88b6 5a3f 13fa 0bbe a25b ed3e
000001d0: 5112 a53d ef90 a43b c384 5e3f b994 3d3e
000001e0: 4a0d d33e 1f4e 9ebe 5963 ebbd d078 cbbd
000001f0: d392 703e 93a0 9dbe fc02 9dbe a235 b43e
00000200: 6c3b ca3d c7f6 cabe 81f6 57bd 203c 4ebc
00000210: e6b4 c0be 7140 43bf 7999 fe3c 1d35 a0bc
00000220: c05b 5bbe 5150 183e 0e19 0dbe 9b92 093e
00000230: 4342 bfbd 658b 4cbe 2a2e 8a3d 9b30 8fbe
00000240: e5be a3be 758c 69be 67d8 cebe c250 cf3c
00000250: b222 40be ce07 b3bd b3f7 a0be 989f e9bd
00000260: 16d2 99be 43dc 35bc 9e7d a03e 70a0 30be
00000270: c919 07bd b48a d8be 2b19 473e b143 17be
00000280: 35b1 86bc a147 fe3e ed37 5abc ed8a 49be
00000290: 55a7 a83e fa09 d63d 373f 65bd ce9e bbbe
000002a0: 5223 c3be f229 22be a825 99bd 2602 5d3e
000002b0: c659 823e 72b1 2b3e dec4 dbbd 2de7 763e
000002c0: afdf c3be 7415 e8be 4790 913e dde8 2cbe
000002d0: 21d0 5d3b 3c42 203f e96c bfbf 5a74 243e
000002e0: 3bf3 553e 04ab d7be e845 f33e ace7 4bbf
000002f0: 0986 823e d00d eb3e 4021 70bf 047e e6be
00000300: a651 1e3f 0243 88be 612f 173e 7585 28be
00000310: c6b2 7d3f 835e 173e 94e7 2f3f 033c 583f
00000320: 0cb1 9e3e 51fa 083f 3805 963e bbde 893d
00000330: 90be 883d 7ee7 b23d 7000 c83e b867 363c
00000340: 5bef 033f 2125 843f aee2 12be dfa4 d63d
00000350: 26d2 833f 0b9f 93b9 34cd 66bd 8f39 823e
00000360: 2919 3d3d f7f2 b4bd 4a01 03bf acb4 903e
00000370: 5b15 42bf 0934 b03d da79 89be 7d6b dabd
00000380: a837 bf3d d20c 0fbf f45e 2fbe 33e8 143f
00000390: a872 2fbf 54d2 7d3c ba92 66be 424e 68bf
000003a0: 5809 ec3e dc3e 253f f69b 8abe 44ed 7abe
000003b0: 9f7d 9dbd 5c3b 21be b2e7 e8bc 1a55 bd3d
000003c0: b1b8 80bd 6c29 4bbe 7e45 dbbd 4a27 fbbd
000003d0: 5c01 76be eb1c 1bbe 926f a03e e449 d4be
000003e0: 25d7 253e 12ac 10bd 5d57 9c3d 738d 073e
000003f0: e875 423d 0221 183e 10c5 58be 1372 cebd
0.06323164 0.2551179 -0.065216824 -0.5235528 -0.12030686 -0.4587947 -0.21670794 0.17891626
-0.09472917 -0.44619885 0.052712567 0.35458305 -0.14500366 0.04672898 -0.29881018 -0.5449911
-0.004420733 0.31228247 -0.028795317 -0.438224 -0.12663335 0.15379713 0.09289213 0.14775388
-0.38876954 -0.52532774 -0.4528669 -0.07773368 -0.2590993 -0.3577703 -0.262445 -0.43734387
-0.18399274 0.20226054 -0.21421243 -0.12623516 -0.1418376 0.02375033 -0.033957727 0.03547074
-0.14459395 -0.23907161 0.03335137 0.4123731 0.21099477 0.017204517 -0.2079005 -0.12395954
0.010419074 -0.42050678 0.38222018 0.01656742 0.20555897 0.041015062 0.049402077 -0.2192602
0.14416705 -0.2895141 -0.047669295 -0.09000719 -0.35649753 0.6620401 0.56703675 -0.35804284
0.12361664 -0.743539 -0.539383 -0.065920316 -0.18904941 0.16185996 0.3157488 -0.12458808
-0.06783003 0.037838973 0.0386234 0.4811149 -0.38256302 0.2382912 -0.42130294 0.3993496
0.27280414 0.5774017 -0.028958747 0.4422326 -0.21245454 -0.2610846 -0.039504815 0.12177457
-0.16563942 -0.21601732 0.024359046 -0.648763 -0.02950544 0.20019655 0.32563803 -0.05193748
0.10044502 0.89592147 0.22282194 0.109565474 0.35633054 0.42627114 0.20581417 0.22649412
0.4368831 0.38008302 -0.20552295 0.032700516 0.2671985 -0.22633049 0.7648457 0.34780183
0.16964713 0.8543477 -0.13669614 0.46358973 0.08060134 0.0050221602 0.8692133 0.18513764
0.41221076 -0.30918977 -0.114935584 -0.099351525 0.23493509 -0.3078657 -0.3066634 0.3519717
0.09874615 -0.396414 -0.05272532 -0.012587577 -0.37638015 -0.76270205 0.03107904 -0.019556576
-0.21421719 0.14874388 -0.13779089 0.13434832 -0.0933881 -0.1997505 0.06747086 -0.2796677
-0.31981578 -0.22807486 -0.40399477 0.025307063 -0.18763235 -0.08741723 -0.3143898 -0.11407393
-0.30043095 -0.011099878 0.31345838 -0.17248702 -0.032983575 -0.42293322 0.19443195 -0.14771916
-0.01644192 0.49664024 -0.013318998 -0.19681902 0.32940164 0.10451122 -0.05596849 -0.36644596
-0.38112885 -0.15836313 -0.074778855 0.21582851 0.25459117 0.16766909 -0.10730909 0.24111624
-0.38256595 -0.45328867 0.28430387 -0.16885705 0.0033845978 0.62601066 -1.4955112 0.1606001
0.20893566 -0.42122662 0.47514272 -0.7965038 0.25492886 0.45908976 -0.93800735 -0.45018017
0.61843336 -0.26613623 0.14764167 -0.1645716 0.9910091 0.14782147 0.68712735 0.8446657
0.3099445 0.5350695 0.29300857 0.067319356 0.06676972 0.0873556 0.39062834 0.011133127
0.515371 1.0323831 -0.14344284 0.104806654 1.0298507 -0.0002815652 -0.05634804 0.2543454
0.046166573 -0.08835404 -0.5117384 0.28262842 -0.75813836 0.08603675 -0.26850778 -0.10665033
0.093367875 -0.5587894 -0.17126065 0.5816681 -0.68534327 0.015492041 -0.22516909 -0.9074441
0.4610088 0.6454904 -0.27072114 -0.24504572 -0.07689976 -0.157453 -0.028430793 0.092447475
-0.06285227 -0.1984002 -0.10706614 -0.12263353 -0.24023956 -0.1514775 0.3133512 -0.41462624
0.16195352 -0.03532035 0.07633851 0.13237552 0.047475725 0.14856341 -0.21168923 -0.10080352

layers.0.bias f4 [128]
00000000: e620 1a40 0000 0000 5101 0c3f d530 0840
00000010: d05f fa3f be7d f8bc f936 3340 051f 613f
00000020: 7416 fabc 77b8 3bc0 1c7b 1140 85aa 893e
00000030: eb27 1440 2b1e 0040 509a 853e 2875 f73f
00000040: 1934 25c0 86b0 0640 0000 0000 d9c1 1240
00000050: 56b4 3d40 0eb3 30c0 5297 1940 d29a 383e
00000060: 1dd4 0e40 c484 fd3f e15b 0e40 7577 2c40
00000070: 8f12 29c0 cc76 1ac0 1d17 d73e 7e4d 0b40
00000080: 0000 0000 0000 0000 0000 0000 58b4 2540
00000090: 746c 3ac0 a7a1 1e40 0000 0000 f057 0540
000000a0: 85dd 4ec0 657b 0040 cb12 1840 c2e8 43c0
000000b0: 0000 0000 78d4 23c0 f764 f63e 0000 0000
000000c0: 2e75 2940 e8b8 0240 5d73 e43f 0000 0000
000000d0: 389e 0a3f 78b7 03bd 7f95 0f3f 81de f93f
000000e0: aff7 a73e 2327 1340 8c7a 1740 61fd 34c0
000000f0: 9e80 023f b4f6 2640 6568 90bd 62c0 36c0
00000100: 9b71 fc3f ff84 2440 5565 0540 7f7b 1a40
00000110: 7ba4 1040 dd2e 0c3f b000 2140 52cd fc3f
00000120: 5b50 3040 b3b9 933f b7fb 1ac0 631c 043f
00000130: 786e 64bd dfb1 d03f bd18 3040 3736 1340
00000140: 4d4d 1f40 8de9 3ac0 eb3d 1f40 b1c8 0dbd
00000150: 2e9b 29c0 5ecd 2b40 0000 0000 0000 0000
00000160: 0000 0000 56e1 0640 551f 2fc0 2c6d 0940
00000170: 4498 28c0 dc22 38c0 2531 2ac0 824c fe3f
00000180: 7d66 0840 d48e 44c0 1c35 e53e 8b15 763f
00000190: 29bb 743e af6c 0b40 39e1 2140 3bb3 1fc0
000001a0: dcef 063e 94d1 5e3f c036 0a40 5abe 2840
000001b0: 11bf 1940 78ef 43c0 f68d 913f 43c9 1b40
000001c0: 50b0 3ec0 04ec 34c0 0c4d 0440 7475 2bc0
000001d0: 0000 0000 58e0 1e40 4661 373f 946b 8fbc
000001e0: 61ea 3140 e706 0140 2871 0e40 4945 0c40
000001f0: 0000 0000 ebe2 4b3e 0993 133f 4d8c 3a40
2.408258 0.0 0.5468951 2.1279805 1.956049 -0.030333396 2.8002303 0.8793796
-0.030528285 -2.9331338 2.273139 0.2688791 2.3149364 2.0018413 0.26094294 1.9332628
-2.5813048 2.1045241 0.0 2.2930815 2.9641318 -2.7609286 2.3998609 0.1802781
2.2316964 1.9806142 2.2243578 2.694791 -2.6417577 -2.4135008 0.42009822 2.1766047
0.0 0.0 0.0 2.5891323 -2.9128695 2.4786165 0.0 2.0834923
-3.2322705 2.0075314 2.376147 -3.0610814 0.0 -2.559843 0.48123905 0.0
2.647777 2.0425358 1.7847706 0.0 0.5414767 -0.03215739 0.5608749 1.9521028
0.32806155 2.2992637 2.3668547 -2.827965 0.50977504 2.6088076 -0.07051162 -2.855492
1.972217 2.5706174 2.0843098 2.4137876 2.260039 0.5475901 2.515667 1.9750159
2.7549045 1.1541046 -2.4216135 0.51605815 -0.055769414 1.6304282 2.75151 2.300184
2.489093 -2.9205048 2.4881542 -0.034615222 -2.6500964 2.6844096 0.0 0.0
0.0 2.1075034 -2.7362874 2.1472883 -2.6342936 -2.8771276 -2.6592495 1.9867098
2.1312554 -3.0712175 0.44767082 0.9612662 0.23899521 2.1785085 2.5293715 -2.4953144
0.13177437 0.8703854 2.1595917 2.6366181 2.4022868 -3.061491 1.1371448 2.434159
-2.9795113 -2.8269053 2.0672026 -2.6790438 0.0 2.4824429 0.716328 -0.017507352
2.7799304 2.0160463 2.2256565 2.1917288 0.0 0.19910781 0.5764623 2.9148133

layers.1.weight f4 [6, 128]
00000000: 0aad adbe 7be0 a9bb 8a16 f6be 26d5 6fbf
00000010: 97a4 32be 50f6 99bc 7380 b8bf de0c e5bf
00000020: 8db9 30bd ba7b ae3e 376e febd 11c1 bd3f
00000030: a045 91be 1bbc 0ebf 34a8 893f f111 29be
00000040: b2c7 2f3e 915d 0fbf 9bec 8d3c 826b 33bf
00000050: 14ed f1bf fb6b 2e3e 8b93 65bf 9275 eebf
00000060: 31f2 5fbe c3c6 0dbf 7611 adbe af9e 74bf
00000070: 1f5e 5c3e 716d 813d a437 cbbe fe01 3cbf
00000080: f565 153d b52a 91bd 99fd 90bd d418 1bbf
00000090: d878 9e3e 06f4 6fbe e4a5 59bc 0b2d 24be
000000a0: 34ab c33e 2b62 19be e580 20be ffa0 dc3e
000000b0: 9b97 16bd f92f 893e 1b9e 28bf 7057 f8bc
000000c0: 33d2 55be 17c3 05be 9b76 71bf ca3f 89bd
000000d0: f800 07bf 4ed6 193d 329a 1abf bd66 1bbf
000000e0: 4950 9a3f 8056 9dbf 3d9e a4be 74c8 003f
000000f0: c30e c9be e35a 0cbf a113 eabb b32e a63e
00000100: db0f b0be 2b33 9bbf 75db 0cbe 197f c6be
00000110: 569c 28bf 4396 bdbe 66bb 3ebf 39dd 5bbf
00000120: d092 6abf 15b7 1bbe 5f91 c03d 653d fdbe
00000130: 8938 963c 0ff9 edbe 933c 9abf a4c8 bcbe
00000140: d2b5 7abe 050a 173f 0e64 2fbf 664c 4b3d
00000150: 30fb 173e 0814 5ac0 5daf 13bd 1836 783d
00000160: fabc 523c 114d 0fbf 77e0 eb3e ec36 85be
00000170: e337 9a3e 0d7c 003e cc3d 3e3e 8f99 1ebf
00000180: d4d6 4dbe 862f 153f 329d 28bf 224e 08bf
00000190: 7041 eabf da7f 3bbe 8492 93be e5cb 073e
000001a0: dbae eebe a3bd 2abe 23cc f7bf 5390 0ebe
000001b0: a41c 8fbd 25b4 073f 8670 dabe d324 dabe
000001c0: 1d8f d43e 8a80 093f 8517 4fbe 168e de3e
000001d0: ee94 3c3d faad 45bf de0d 81bf 0456 533d
000001e0: b2df 41bf 02b8 01bf 1b4e 5ebe 80a3 2fbf
000001f0: a638 883b ed6d dcbf 1c13 3cbf 70cb 9abf
00000200: ee4d abbd e637 45bd 27b2 9ebd daf8 0cbe
00000210: a176 0ebc dda5 913d 6a06 70bf 20aa a53d
00000220: 7fdc 33bb 6579 b63d a49c ebbb f4c6 883c
00000230: 2100 b4be 8934 f8be 1838 243d ffd2 a73c
00000240: 11b4 5cbd 9e9d 0fbf 01b9 643d a120 e3be
00000250: f771 9abf 89ad aa3c dba4 d6be d58b 923d
00000260: 8da8 e6bd ff31 14bf 85dc 94bd b07b adbf
00000270: 4872 f53d ee32 b6bd 53a9 4f3d 8255 b6be
00000280: 78c0 32bd 2503 ab3c b051 a5bc 1ca2 35bf
00000290: 3b79 d23c 48f5 8ebd f539 05bd 43f7 9aba
000002a0: e537 473e 96f7 873c 12c2 0dbd 700c f83d
000002b0: 35dd 433c 2465 38bc 65e6 e13c 86c9 4a3c
000002c0: 53c2 37be 9da8 e0bd 02b3 1bbf c931 a0bd
000002d0: ebb3 0cbd 8ddf 08bd bd23 4b3d 74ff 2abe
000002e0: 9635 61bd 6448 82bd ac60 e1bd 02c0 563e
000002f0: cce2 ae3c 6fab 6bbe 5002 a0bd 82ed f73d
00000300: 65cc 47bf 4c88 7dbf f28b 0fbd 04c6 bebd
00000310: b592 f7be 8953 c43c 76dc 1abf ca62 23bf
00000320: b7ea aebf 2104 5fbf 01c5 b8bc 1c58 553d
00000330: 92b5 893d 04c9 27bf d853 37bf a7b8 57be
00000340: 0f8b cbbd e204 693d 067c e2be 74ba d73b
00000350: ef14 c43d e7db 88bf 83b2 e13c c687 863d
00000360: 9bda 4e3d bc99 febe a270 b43d 58a5 153c
00000370: c79a 0fbd c801 d93c 86a9 253d d156 24bf
00000380: 2915 c03c 1384 e03d edab b03d db6d 2ebf
00000390: 949f c7bc c074 55bd eb6e cbbd 7a33 c83d
000003a0: 6b76 9c3a 3466 75bf cc36 44bf 5711 cbbd
000003b0: 0b1e c2bd 77a4 ce3d 4946 37bf 09b2 70be
000003c0: 481b 333e a443 a83d c85d 09bd fc83 793c
000003d0: 8764 af3d 2b0f c7be 73d0 a13d de27 453a
000003e0: a748 89bf 77eb 3ebf 264a 14be 48be 27bf
000003f0: 7410 653c 37a8 a2bc 9520 22bd ef98 4ebf
-0.3392108 -0.005184231 -0.4806407 -0.93684614 -0.17445599 -0.018794209 -1.44142 -1.7894552
-0.043145705 0.3407877 -0.124233656 1.4824544 -0.28373432 -0.55755776 1.0754457 -0.1651075
0.17166021 -0.56002146 0.017324736 -0.7008592 -1.8900476 0.17033379 -0.8967826 -1.862963
-0.21869732 -0.5538141 -0.33802384 -0.9555463 0.2152028 0.063197024 -0.39690888 -0.7344054
0.036474187 -0.07088224 -0.0707962 -0.6058476 0.3095157 -0.23432931 -0.01328418 -0.16032808
0.38216555 -0.14978854 -0.1567417 0.4309158 -0.036765676 0.26794413 -0.6586625 -0.030315131
-0.20880966 -0.13062702 -0.943216 -0.0670162 -0.52735853 0.037557893 -0.60391533 -0.6070364
1.2055751 -1.2292023 -0.32151976 0.5030587 -0.39269075 -0.5482618 -0.007143453 0.32457504
-0.34387097 -1.212499 -0.13755591 -0.38768843 -0.6586355 -0.37028703 -0.745047 -0.85884434
-0.9163027 -0.15206559 0.09402727 -0.49460903 0.018337505 -0.4647908 -1.2049736 -0.36871827
-0.24483421 0.58999664 -0.68512046 0.049633406 0.14841914 -3.4074726 -0.03605591 0.060598463
0.012862438 -0.5597697 0.4606969 -0.26018465 0.30120763 0.12547322 0.18578261 -0.6195306
-0.20101482 0.5827564 -0.6586486 -0.5324422 -1.830122 -0.1831049 -0.2882272 0.13261373
-0.4661778 -0.16673903 -1.9359173 -0.13922243 -0.06987885 0.53009254 -0.42663974 -0.4260622
0.41515437 0.5371176 -0.20223816 0.43467778 0.046040468 -0.7721859 -1.0082357 0.051595703
-0.75731957 -0.506714 -0.21709482 -0.68608856 0.0041571436 -1.7221047 -0.7346666 -1.2093334
-0.08364473 -0.048149012 -0.077488236 -0.13766804 -0.0086952755 0.07111714 -0.9375979 0.080890894
-0.0027444658 0.08909873 -0.007190304 0.01669643 -0.35156348 -0.4847758 0.040092558 0.020486353
-0.053882662 -0.5609988 0.055840496 -0.4436083 -1.2066029 0.020834701 -0.4192265 0.07155577
-0.11262617 -0.5788879 -0.07268623 -1.3553371 0.11984688 -0.08896433 0.05069859 -0.35612112
-0.043640584 0.020875523 -0.020180553 -0.70950484 0.025692573 -0.069803774 -0.032525975 -0.0011822957
0.19454916 0.01659755 -0.034608908 0.12111747 0.011954595 -0.011254583 0.027575681 0.0123771485
-0.17945223 -0.109696604 -0.6082002 -0.07821996 -0.03435127 -0.03341632 0.04959463 -0.1669901
-0.054982744 -0.06361464 -0.11004767 0.20971683 0.02134838 -0.23014615 -0.07812941 0.12105848
-0.78046256 -0.990361 -0.03504557 -0.09315112 -0.48354116 0.023965614 -0.60492647 -0.63822615
-1.3665379 -0.87115675 -0.022554876 0.05208598 0.06724085 -0.655411 -0.7161231 -0.21066533
-0.09938633 0.056889422 -0.44235247 0.0065835062 0.09574305 -1.0692109 0.027550941 0.065688655
0.050501447 -0.49726665 0.088105455 0.009133659 -0.035059717 0.026490107 0.040444873 -0.6419497
0.02344759 0.10962691 0.08626542 -0.68136376 -0.024368085 -0.052113295 -0.09933265 0.097754434
0.0011937147 -0.95859075 -0.76646113 -0.09915417 -0.094783865 0.10089963 -0.7159162 -0.23505415
0.17490876 0.082160264 -0.033536702 0.015229221 0.08564096 -0.3887876 0.07901087 0.0007520894
-1.0725297 -0.7457804 -0.1448141 -0.6552472 0.0139809735 -0.019855602 -0.039581854 -0.8070211

layers.1.bias f4 [6]
00000000: 8801 ebbf 8cba 55bf 0000 0000 0000 0000
00000010: 0000 0000 0000 0000
-1.8359842 -0.8348777 0.0 0.0 0.0 0.0
