RL4E2E/results/pptod/2.0k1/episode_2000/actor_param.pt (torch, 18917 bytes, 6 tensors)

layers.0.weight f4 [128, 3]
0	0x3e2e145a	0.16999951
1	0xbdf8f8a3	-0.12156799
2	0x3fd113b7	1.6334141
3	0x3e860d68	0.26182103
4	0x3f59890d	0.8497475
5	0x3f0dfcf1	0.5546408
6	0x3d2552ff	0.040362354
7	0xbe884146	-0.266123
8	0xbf9591b0	-1.1685085
9	0x3f96da99	1.1785461
10	0xbfb17c1b	-1.3865999
11	0xbf1070f0	-0.5642233
12	0xc0088c74	-2.1335726
13	0xbe9e67c7	-0.3093855
14	0xbef17753	-0.4716135
15	0x3e02a7eb	0.12759368
16	0x3ea56b1e	0.32308286
17	0xbf6e01a1	-0.92971236
18	0xbee91982	-0.45527273
19	0xbf33d794	-0.7025082
20	0x3ed1bb3f	0.4096317
21	0x3f362dfa	0.71163905
22	0xbf95a508	-1.1690989
23	0x3f32ed9b	0.6989381
24	0xbf2ae72c	-0.6675899
25	0x3f71aaa1	0.94400984
26	0x3f202966	0.6256317
27	0x3de6b892	0.11265673
28	0x3d9407b3	0.07228031
29	0xbeac482d	-0.33648816
30	0xbe7e54a3	-0.24836974
31	0xbf4fcdc0	-0.81173325
32	0x3e633f89	0.22192205
33	0x3f0a59eb	0.54043454
34	0x3e88f156	0.26746625
35	0xbdc3f385	-0.09567932
36	0x3f632c5f	0.8873958
37	0xbfd79b2f	-1.6844233
38	0x3f2b8761	0.67003447
39	0x400c883e	2.1958156
40	0xbd811717	-0.06303232
41	0xbe26989f	-0.16269158
42	0x3f5bc701	0.8585053
43	0x3ed32059	0.41235617
44	0xbfb17fea	-1.3867161
45	0xbc38e3d7	-0.01128479
46	0x3eadb768	0.3392899
47	0x3f2114a7	0.6292214
48	0x3faaccb5	1.3343722
49	0xbe498cc4	-0.19682604
50	0xbef3f3f5	-0.47647062
51	0x3f9798c7	1.1843499
52	0x3ea8b46c	0.3295015
53	0x3f23ac2c	0.6393459
54	0xbefbbeb6	-0.49168938
55	0x3fa6f367	1.304303
56	0x3fa4d4a7	1.2877396
57	0x3ec39d1c	0.38205802
58	0xbec07937	-0.3759248
59	0xbe950353	-0.291041
60	0x3e2aae7b	0.16668122
61	0xbeca1722	-0.39470774
62	0xbfeaeee3	-1.8354152
63	0xbd9d1595	-0.07670132
64	0x3f43baa7	0.76456684
65	0x3f26fbd9	0.6522804
66	0xbeef0ddd	-0.46690264
67	0xbf2b61d4	-0.6694615
68	0xbf0458bd	-0.51697904
69	0x3d0c5a86	0.034266017
70	0xbca3d95c	-0.020001106
71	0x3f12f67a	0.57407343
72	0x3f1fbb7f	0.6239547
73	0x3f1cb621	0.61215407
74	0x3f010f03	0.5041353
75	0x3b91d2cc	0.004450178
76	0x3f317188	0.6931386
77	0xbe98f552	-0.29874665
78	0xbd8f8dac	-0.07009444
79	0xbe63041f	-0.22169541
80	0x3fd5b6b0	1.6696377
81	0xbe7cbba1	-0.2468095
82	0x3fc1f32e	1.5152338
83	0x3f9a62e7	1.2061433
84	0x3d361483	0.044453155
85	0x3e54a84e	0.20767328
86	0xbeb04372	-0.34426457
87	0x3ee70dc2	0.45127684
88	0x3f27c157	0.6552939
89	0x3f9e91ad	1.2388207
90	0x3cf07b6c	0.029355727
91	0xbe1bc43f	-0.1521158
92	0x3cae6636	0.021288972
93	0x3f01da4d	0.50723726
94	0xbf4f3107	-0.80934185
95	0xbf886457	-1.0655621
96	0x3f2f2332	0.6841308
97	0xbe38816b	-0.18018119
98	0xbfc7fe58	-1.5624495
99	0xbf277cf0	-0.65425014
100	0x3fa3f0bb	1.280784
101	0xbdc2059e	-0.09473728
102	0xbd04fe5f	-0.03246915
103	0x3f134610	0.5752878
104	0x3f2cae90	0.6745386
105	0xbd9e7a48	-0.07738167
106	0x3f5a0efb	0.8517911
107	0xbd1d2f53	-0.03837521
108	0xbd2d5516	-0.042317472
109	0x3f6db1a7	0.928492
110	0x3f14376b	0.5789706
111	0xbe34a0d8	-0.17639482
112	0xbf89f2c6	-1.0777214
113	0xbf959f77	-1.168929
114	0x40053d53	2.081868
115	0xbec11854	-0.37713873
116	0x3f3eff61	0.7460843
117	0xbf3725ee	-0.7154225
118	0xbf70333f	-0.93828195
119	0xbe71614e	-0.23572275
120	0xbe08d966	-0.13364181
121	0x3f828b97	1.019885
122	0x400eee4d	2.2332947
123	0xbdea32c3	-0.11435463
124	0xbfd30e67	-1.648877
125	0x3fd9dc60	1.7020378
126	0x3f246974	0.6422341
127	0xbf380be2	-0.7189313
128	0xbe8e2895	-0.27765337
129	0x3f44de5d	0.769018
130	0x3f88a87a	1.0676415
131	0x3eace1a6	0.33765906
132	0x3f1bcb0e	0.6085671
133	0xbef782d5	-0.48342004
134	0x3f81e685	1.0148474
135	0x3edcde66	0.43138427
136	0xbe679f54	-0.22619373
137	0xbf7bb563	-0.9832365
138	0x3d6ba2cf	0.057528313
139	0x3e8640ba	0.26221257
140	0xbf498c15	-0.78729373
141	0xbf5a3dfe	-0.8525084
142	0xbf0f950f	-0.5608682
143	0xbf8f462c	-1.119329
144	0x3f2c2244	0.67239785
145	0xbf1a0c3d	-0.60174924
146	0xbef0a488	-0.47000527
147	0xbf9c7fd3	-1.2226509
148	0x3f8f0c75	1.1175677
149	0x3f048368	0.5176301
150	0x3e9efa24	0.31050217
151	0x3f78e79f	0.97228426
152	0xbe59b808	-0.21261609
153	0x3e794fa7	0.24346791
154	0xbf57ad49	-0.8424879
155	0x3eef10d7	0.46692535
156	0x3e8eee2a	0.2791608
157	0xbf4c5545	-0.7981761
158	0x3f2f1a26	0.68399274
159	0x3e3c1af5	0.18369658
160	0x3f2c073b	0.6719853
161	0x3ec71867	0.38885805
162	0x3c270355	0.0101936655
163	0x3f287950	0.6581011
164	0xbf058edd	-0.5217112
165	0x3ceeacdf	0.029135166
166	0x3f014be9	0.50506455
167	0xbcd47316	-0.025933784
168	0xbf7f1071	-0.9963446
169	0x3c92e24f	0.017930178
170	0x3fa5dd77	1.2958211
171	0xbf4a2813	-0.789674
172	0xbebe17b3	-0.37127456
173	0xbf16653b	-0.58748215
174	0xbe7bdf4b	-0.24596898
175	0xbf01cffb	-0.5070798
176	0xbfbe6b46	-1.4876487
177	0x3f143fdb	0.57909936
178	0x3f392f27	0.72337574
179	0x3e071cd8	0.13194597
180	0x3e0a3ace	0.13498995
181	0xbdbfd4f2	-0.09366788
182	0xbea62f02	-0.3245774
183	0x3e943ba6	0.28951758
184	0xbfb8cb27	-1.4436997
185	0x3d32b006	0.0436249
186	0x3df4b08b	0.119477354
187	0x3eaf6554	0.34256995
188	0x3f38a0dd	0.7212046
189	0x3e58e8ad	0.21182509
190	0xbec28bfd	-0.37997428
191	0x3bd7de7c	0.0065878015
192	0x3f30337f	0.68828577
193	0xbe39dfc5	-0.18151768
194	0xbf8c8ec9	-1.0981075
195	0x3e5a2531	0.2130325
196	0x3e24faad	0.1611125
197	0x3ef497a7	0.47771952
198	0xbf836ffc	-1.026855
199	0xbf2dc265	-0.6787475
200	0x3dbf64bb	0.09345385
201	0x3ca8b992	0.0205963
202	0x3edf1529	0.4357083
203	0xbef9321b	-0.4867104
204	0xbcec3af9	-0.028836714
205	0x3f9c1f86	1.219712
206	0x3f98bf25	1.1933333
207	0x3da9e92f	0.08296429
208	0x3e9224ab	0.285436
209	0xbff005f7	-1.875182
210	0x3f34ca5a	0.70621264
211	0xbf349d1f	-0.7055225
212	0xbf22622b	-0.6343104
213	0xbedbfa6f	-0.42964503
214	0xbf78ff6e	-0.97264755
215	0xbfe90680	-1.8205109
216	0x3f660904	0.89857507
217	0xbfaa8ee5	-1.3324858
218	0x3d592f45	0.053023595
219	0xbd25ed20	-0.040509343
220	0xbfdf9ad8	-1.746913
221	0xbf864749	-1.0490505
222	0x3f23946f	0.63898367
223	0xbe138da6	-0.14409503
224	0xbf67cf32	-0.9055053
225	0xbd491972	-0.049096532
226	0x3f447ddf	0.76754564
227	0x3f9d6082	1.2295077
228	0xbf4d08da	-0.8009163
229	0x3e9201a8	0.2851689
230	0x3e91dc2f	0.284883
231	0x3dbf6318	0.093450725
232	0xbff96b81	-1.9485933
233	0xbed6d8a8	-0.4196217
234	0x3cb63216	0.02224068
235	0xbf88cd9b	-1.0687746
236	0x3eb1e7a5	0.34747043
237	0x3ee60071	0.44922212
238	0x3f6d57ed	0.9271229
239	0xbf4b5aa1	-0.79435164
240	0xbd0101c4	-0.031495824
241	0x3f7e1334	0.9924805
242	0x3ea74f63	0.32677755
243	0x3e66f59a	0.22554627
244	0xbf81e5ac	-1.0148215
245	0xbed54e7d	-0.41661444
246	0x3f72d350	0.9485369
247	0x3fc0d874	1.5066056
248	0xbf452c3e	-0.77020633
249	0xbf8fecd7	-1.1244153
250	0xbe311267	-0.17292176
251	0x3f0bd179	0.54616505
252	0xbf9a9c6f	-1.207899
253	0xbef99319	-0.4874504
254	0xbf22f261	-0.6365109
255	0x3f11a114	0.5688641

layers.0.bias f4 [128]
0	0x3e622f0c	0.2208826
1	0x3eba009d	0.36328593
2	0x3d8718a8	0.065965
3	0xbe013655	-0.12618382
4	0x00000000	0.0
5	0xbe828aab	-0.2549642
6	0x3d0a24e9	0.033726607
7	0xbef12828	-0.4710095
8	0x3d5ace0d	0.05341916
9	0xbf0714ed	-0.52766305
10	0x3d088268	0.03332749
11	0x3eeb7633	0.45988616
12	0xbed9fe82	-0.42576987
13	0x3e36fbc1	0.17869474
14	0x3db4aa31	0.08821524
15	0x3f30e287	0.69095653
16	0x3e722aa3	0.23649077
17	0x3e00b272	0.12568071
18	0x3ef34a10	0.47517443
19	0xbf43e39f	-0.765192
20	0xbe67c14c	-0.2263233
21	0x3f0a29b3	0.5396988
22	0x00000000	0.0
23	0x3ef40522	0.47660166
24	0x3eccb010	0.39978075
25	0x3d18bfed	0.03729241
26	0xbc0cdd6f	-0.008597716
27	0x3edee3d1	0.43533185
28	0x3f271628	0.6526818
29	0x3e8086e0	0.251029
30	0xbf3dc319	-0.7412582
31	0xbf002832	-0.50061333
32	0xbe9e16c1	-0.30876735
33	0x3df9b7ce	0.12193261
34	0x3f411a40	0.7543068
35	0x3ea36bf1	0.3191829
36	0x3f0511ca	0.5198027
37	0x00000000	0.0
38	0x3df24005	0.11828617
39	0x00000000	0.0
40	0x3f2865b3	0.6578018
41	0x3cac12d5	0.021005074
42	0xbe8dbe62	-0.27684313
43	0x3e923447	0.2855551
44	0x3dee0493	0.11621966
45	0xbf04f67b	-0.519386
46	0xbe50017a	-0.20313063
47	0x00000000	0.0
48	0xbf0593a5	-0.5217841
49	0xbb97f219	-0.0046370146
50	0x3f0c1d36	0.5473207
51	0xbf21880e	-0.6309823
52	0xbed4ee73	-0.41588172
53	0x3f0bdb24	0.5463126
54	0x3e14a6db	0.14516775
55	0x3f35edb1	0.71065813
56	0x3e4e0f12	0.20122936
57	0x00000000	0.0
58	0x00000000	0.0
59	0x3ebb2dd1	0.36558393
60	0xbf0fb748	-0.5613904
61	0xbf091de8	-0.5356126
62	0x3ef35d43	0.4753209
63	0xbf46d223	-0.77664393
64	0xbf050954	-0.5196736
65	0x3ee60646	0.4492666
66	0x3d6f7d44	0.058469072
67	0x3d8717c8	0.06596333
68	0x3e4a0abc	0.19730657
69	0x3e2f1298	0.17096937
70	0xbe7ce659	-0.24697246
71	0x00000000	0.0
72	0xbf1b347d	-0.60626966
73	0x00000000	0.0
74	0xbeb8979f	-0.36053178
75	0x3ea1ccf1	0.3160167
76	0x3e2cd9fe	0.16880032
77	0xbe8048b7	-0.25055477
78	0x3e56280f	0.20913719
79	0x3ed173ae	0.4090857
80	0x3e671457	0.22566353
81	0xbf1e5b7e	-0.61858356
82	0x3e965c91	0.29367498
83	0x3e296f6f	0.16546415
84	0x00000000	0.0
85	0xbee2c6ec	-0.4429239
86	0xbd076e07	-0.033063915
87	0x3da0bbf0	0.07848346
88	0x00000000	0.0
89	0x00000000	0.0
90	0xbd9a5c57	-0.07537144
91	0x00000000	0.0
92	0x3ea20a82	0.31648642
93	0x3f15b223	0.5847494
94	0x3e09cc6e	0.1345689
95	0x00000000	0.0
96	0xbf2b8cd0	-0.6701174
97	0x3e26b426	0.16279659
98	0x3d972593	0.073802136
99	0x3e9f324a	0.31093055
100	0x3e35f0d0	0.17767644
101	0xbf1fada3	-0.62374324
102	0x3e6347fc	0.22195429
103	0x00000000	0.0
104	0x3ed667c3	0.4187604
105	0x3ef42fb1	0.47692636
106	0x3ef60d46	0.48057002
107	0x3dc79e3a	0.09746976
108	0x3d3a0d3e	0.045422785
109	0x3ed44a8d	0.41463128
110	0x00000000	0.0
111	0x3f25fce1	0.6483899
112	0x3e14b2d1	0.14521338
113	0x3ed6e569	0.419719
114	0x3d689b67	0.05678883
115	0xbe9ba9fd	-0.30403128
116	0x00000000	0.0
117	0xbf3cb129	-0.73707825
118	0x3db3e53d	0.08783958
119	0x00000000	0.0
120	0xbf16f155	-0.58961993
121	0x3e472244	0.19446665
122	0xbeda82a9	-0.4267781
123	0x3e75dd6a	0.24010244
124	0x3e9a3145	0.30115715
125	0x3d23955e	0.03993737
126	0x3da5f569	0.08103449
127	0x3df67388	0.120337546

action_parameters_output_layer.weight f4 [27, 128]
0	0x3a8ac488	0.0010587135
1	0xb9dc515c	-0.00042022287
2	0x3ce5d10e	0.028053787
3	0x391fe9d4	0.0001525053
4	0xb920b74b	-0.00015327071
5	0xbb18b651	-0.0023302028
6	0x3a00dee9	0.00049160287
7	0x3a23376e	0.0006226216
8	0x3c188ae8	0.009310462
9	0xba3b6848	-0.0007149023
10	0x3cf669e2	0.030079786
11	0xb929a262	-0.00016177588
12	0x3a0cfcbd	0.0005378237
13	0x38798d34	5.9497732e-05
14	0xb9d5354a	-0.0004066623
15	0xbc25a02a	-0.010108987
16	0xb8306c0e	-4.2062304e-05
17	0x38fb1dee	0.000119741875
18	0x3bba378a	0.0056828903
19	0x3897c33c	7.236606e-05
20	0xbaa8b0c9	-0.0012870069
21	0x3cba7ed1	0.022765549
22	0xb9386833	-0.00017586425
23	0x3ab2cd17	0.0013641444
24	0xb9d2ee6e	-0.00040231965
25	0x3c31c857	0.010850987
26	0xbb08ae51	-0.0020855854
27	0x3b7fe6ab	0.00390474
28	0xbb0ca88b	-0.0021462764
29	0xb9b3db15	-0.0003430477
30	0x3c011fba	0.007881099
31	0x38818d5f	6.177532e-05
32	0xb9a1f295	-0.0003088905
33	0xbc3700ec	-0.011169653
34	0xbc162d38	-0.009166054
35	0xbc1817b3	-0.009282994
36	0x3cc765f2	0.024340604
37	0xb8d0d0a4	-9.957075e-05
38	0x3908fea4	0.00013064832
39	0x38af60f3	8.3627085e-05
40	0xbc3cca8a	-0.011522898
41	0xbc744da0	-0.014911085
42	0x38da22a7	0.000104015046
43	0xb9ec6b72	-0.0004509348
44	0x39ec9629	0.00045125306
45	0xb8ae3b6e	-8.308036e-05
46	0xbbea67d2	-0.0071534896
47	0xb919210d	-0.0001460353
48	0x38cf4377	9.8830955e-05
49	0xbc4d992e	-0.012548728
50	0xba5acf52	-0.0008346933
51	0x3a66f03f	0.0008809603
52	0x3a59e13f	0.00083114573
53	0xba17ccc6	-0.00057907065
54	0xbc45f02c	-0.012081187
55	0xbb2c8f31	-0.0026330466
56	0x3c2ed565	0.010670994
57	0xb9019057	-0.0001235617
58	0xb7599dcf	-1.2970951e-05
59	0xb9819612	-0.00024716608
60	0xb6c94d0a	-5.9992353e-06
61	0x3a8701a5	0.0010300173
62	0x37acb265	2.058707e-05
63	0x39ad69ba	0.00033075904
64	0xb8bf2e26	-9.1161855e-05
65	0x3697fcba	4.529572e-06
66	0xbcf6db56	-0.030133884
67	0xbd66e3de	-0.056369655
68	0x3cea8ace	0.02863064
69	0xbbb93323	-0.005651848
70	0x39635cda	0.00021682997
71	0xb874823f	-5.8295434e-05
72	0x398fa676	0.00027399109
73	0xb82eaad1	-4.1643918e-05
74	0xb993349a	-0.00028077216
75	0xbcc98378	-0.024598822
76	0xbbd76ca4	-0.0065742303
77	0x3c61dbcd	0.013785315
78	0x3cfa83f3	0.030580496
79	0xba3736b9	-0.00069890503
80	0xbd5cef44	-0.05393912
81	0x3a76ecd0	0.0009419443
82	0xb9ec3b7f	-0.00045057756
83	0x3bc6f218	0.0060713403
84	0x37c0fd1b	2.3006045e-05
85	0x3a078402	0.0005169512
86	0x3cbd2c61	0.02309245
87	0xbb855507	-0.004068974
88	0x37b0e199	2.1085887e-05
89	0x3815a2ad	3.5675872e-05
90	0x39389d84	0.00017606287
91	0xb7d87fc6	-2.5808706e-05
92	0xba050bf9	-0.00050753314
93	0x3aeaafc6	0.0017905168
94	0xb998ad7f	-0.00029120964
95	0xb835462a	-4.321911e-05
96	0xb88459a7	-6.3109495e-05
97	0x3aca1893	0.0015418701
98	0xba895928	-0.0010478841
99	0xb9b7bfb2	-0.00035047304
100	0x3d73ca9b	0.05951939
101	0x3ab7a021	0.0014009514
102	0x3a0a927a	0.0005286109
103	0x38a89e01	8.040295e-05
104	0xb8c06220	-9.173551e-05
105	0xba2cd442	-0.0006592908
106	0x3d6c61a5	0.05771031
107	0x397fdbdc	0.00024400599
108	0x3c73b9c2	0.014875831
109	0x3b79095b	0.003799996
110	0x3963ce40	0.00021725241
111	0xbd5d1901	-0.053978924
112	0xbc275a85	-0.010214453
113	0xbc7ca2ad	-0.015419644
114	0x3be0227a	0.0068400474
115	0x3a481f14	0.00076340255
116	0x37b8054d	2.1936978e-05
117	0x39f6ed6b	0.00047097667
118	0xb7aec534	-2.0834246e-05
119	0x381606bb	3.5769055e-05
120	0x3ae1f420	0.0017238893
121	0xb8cfccf6	-9.908706e-05
122	0x39fafe47	0.00047873167
123	0x3a0d5ab1	0.0005392237
124	0xbb5cdd51	-0.003370125
125	0xba88496a	-0.0010397856
126	0xba5beb5b	-0.0008389258
127	0xbc43bee5	-0.011947368
128	0xb9b9d41c	-0.00035443984
129	0xb94eb80c	-0.00019714254
130	0xbca6e8b2	-0.02037463
131	0x3a2d9f3f	0.0006623156
132	0xb72abe07	-1.0177034e-05
133	0xba835bbe	-0.0010021848
134	0xbd2d0aed	-0.042246748
135	0xb927ceb2	-0.00016003361
136	0xbd1cfc97	-0.038326826
137	0xbb621a1c	-0.0034500426
138	0xbd12fb22	-0.03588403
139	0x3a0c2491	0.0005346025
140	0x394a80bf	0.00019312183
141	0x39a6fd51	0.00031850723
142	0x39bee6ec	0.00036411674
143	0x3d24dcaa	0.040249504
144	0x399ebcc1	0.0003027674
145	0xb8d3ebc0	-0.00010105176
146	0x3cc6a9c3	0.02425087
147	0xba904a8d	-0.0011008546
148	0x3a886e7f	0.0010408907
149	0x3d1a4eb7	0.037672725
150	0xb8a14f06	-7.6917975e-05
151	0x3bc87985	0.006118002
152	0x38c0b5aa	9.189111e-05
153	0xbcea6e45	-0.028617034
154	0xbca8f174	-0.020622946
155	0xbcc14a51	-0.023595007
156	0x3c4d2194	0.012520213
157	0xba08e7bf	-0.0005222521
158	0xbd4a226a	-0.049349226
159	0x3912c2ea	0.00013996256
160	0x395ea029	0.00021231234
161	0x3b8fa198	0.004383277
162	0x3dc7b0ac	0.09750494
163	0xbd943fd1	-0.072387345
164	0x3d048f44	0.03236319
165	0x3879506a	5.9441118e-05
166	0x39bcd982	0.0003602021
167	0xb9324d25	-0.00017004141
168	0x3c21ccbb	0.009875472
169	0x3a620fa7	0.0008623548
170	0x38f26d59	0.00011559827
171	0xb914e635	-0.00014200139
172	0x39851e17	0.00025390155
173	0xb9942cee	-0.00028262235
174	0xbbb833f0	-0.005621426
175	0x38199b3c	3.6622616e-05
176	0xb91f3f52	-0.0001518701
177	0xbce73804	-0.028224953
178	0x39e46017	0.0004355914
179	0xba8860e4	-0.0010404852
180	0xba0ae0e0	-0.0005297791
181	0x3a1c5446	0.00059634855
182	0xbc436b55	-0.011927445
183	0x3c36b34a	0.011151144
184	0xbd284a16	-0.04108628
185	0x37bf77b3	2.2824714e-05
186	0x3826ceca	3.977007e-05
187	0x391dcaeb	0.0001504828
188	0xbaf75650	-0.0018870328
189	0xb82295e9	-3.8763425e-05
190	0x3a80fb4d	0.0009840518
191	0xbb396cbc	-0.002829357
192	0xb9b2fe8b	-0.00034140455
193	0x3a82f8b4	0.0009992332
194	0x3c272677	0.010202042
195	0xbc26a52a	-0.010171214
196	0xbc35ee4c	-0.011104178
197	0x3b6d56e8	0.003621513
198	0x39e0d213	0.00042881127
199	0xb809b47f	-3.2831445e-05
200	0x398ea44e	0.00027206767
201	0x3848f5e1	4.791271e-05
202	0x3916da77	0.00014386499
203	0xbbc7745d	-0.0060868696
204	0xba9332d3	-0.0011230357
205	0x3c28795e	0.010282842
206	0x3ce8f1f4	0.028435685
207	0x39d530ae	0.00040662795
208	0xbc1310bf	-0.008976161
209	0xba4f8db6	-0.000791754
210	0xb8f4cdde	-0.000116731724
211	0xbc843ab8	-0.01614128
212	0x38d5ef45	0.00010201199
213	0x3a37cd3e	0.00070114795
214	0xbd539f24	-0.05166544
215	0x3c0765a1	0.008263976
216	0xb84dc785	-4.9061626e-05
217	0xb7ee1268	-2.8380382e-05
218	0x3a1e1265	0.00060299627
219	0x37fcec37	3.0150737e-05
220	0xba362191	-0.0006947751
221	0x3c9c56b5	0.019084314
222	0xb9c97aeb	-0.00038429289
223	0x38535f74	5.0395218e-05
224	0xba85def0	-0.0010213535
225	0x3cc3a896	0.023884099
226	0xbd2c821d	-0.042116273
227	0x3a2a0090	0.0006485069
228	0xbcd83e37	-0.026396854
229	0xbb0fc9a2	-0.002194025
230	0xb93632ee	-0.00017375845
231	0x37dcf369	2.633939e-05
232	0x39550dc0	0.00020318385
233	0x3a5ec643	0.0008498171
234	0xbc900fb0	-0.017585605
235	0x3807528e	3.2263393e-05
236	0xbc42d57e	-0.011891721
237	0x3c8f7193	0.017510211
238	0x37dc831e	2.62871e-05
239	0x3da6435e	0.08118318
240	0xbb78d78a	-0.0037970268
241	0x395a46e1	0.00020816505
242	0x3cf2b5b7	0.029627664
243	0xb9d16380	-0.0003993772
244	0x38672cf7	5.511657e-05
245	0xbb2adc89	-0.002607139
246	0xbcb5a3ad	-0.022172773
247	0xb7cf4373	-2.4707731e-05
248	0xbbb25e1e	-0.0054433485
249	0x398f655a	0.00027350598
250	0xb9691515	-0.00022228465
251	0xba265e8a	-0.0006346485
252	0xba9db869	-0.0012033108
253	0xbd9e8333	-0.07739868
254	0xbb073f76	-0.002063719
255	0x3d52978c	0.051414058

action_parameters_output_layer.bias f4 [27]
0	0x3b816805	0.0039491677
1	0x3e8638cc	0.26215208
2	0x3e3554a4	0.17708069
3	0xbc52b526	-0.012860572
4	0x3da6ec7c	0.081505746
5	0x3e9a3c8c	0.3012432
6	0x3e06fe14	0.1318286
7	0x3de288e7	0.11061268
8	0xbb90fcfd	-0.00442469
9	0x3b0aec35	0.002119792
10	0x3d31dbd0	0.04342252
11	0xbd2c12c3	-0.04201008
12	0x3dd4c956	0.10389964
13	0x3c2b0279	0.010437601
14	0x3ecd7901	0.4013138
15	0x3cf5ed92	0.030020509
16	0x3de3fae0	0.11131835
17	0x3e08ffc9	0.13378824
18	0x3d03d51f	0.03218567
19	0x3edc1919	0.42987898
20	0x3ca242b5	0.019807199
21	0x3c90fb8e	0.017698076
22	0x3ea6fbaf	0.32613894
23	0x3d026ba1	0.031840924
24	0xbc657e28	-0.014007129
25	0x3e1bd92b	0.15219562
26	0x3de220d5	0.110414185

action_parameters_passthrough_layer.weight f4 [27, 3]
0	0x00000000	0.0
1	0x00000000	0.0
2	0x00000000	0.0
3	0x00000000	0.0
4	0x00000000	0.0
5	0x00000000	0.0
6	0x00000000	0.0
7	0x00000000	0.0
8	0x00000000	0.0
9	0x00000000	0.0
10	0x00000000	0.0
11	0x00000000	0.0
12	0x00000000	0.0
13	0x00000000	0.0
14	0x00000000	0.0
15	0x00000000	0.0
16	0x00000000	0.0
17	0x00000000	0.0
18	0x00000000	0.0
19	0x00000000	0.0
20	0x00000000	0.0
21	0x00000000	0.0
22	0x00000000	0.0
23	0x00000000	0.0
24	0x00000000	0.0
25	0x00000000	0.0
26	0x00000000	0.0
27	0x00000000	0.0
28	0x00000000	0.0
29	0x00000000	0.0
30	0x00000000	0.0
31	0x00000000	0.0
32	0x00000000	0.0
33	0x00000000	0.0
34	0x00000000	0.0
35	0x00000000	0.0
36	0x00000000	0.0
37	0x00000000	0.0
38	0x00000000	0.0
39	0x00000000	0.0
40	0x00000000	0.0
41	0x00000000	0.0
42	0x00000000	0.0
43	0x00000000	0.0
44	0x00000000	0.0
45	0x00000000	0.0
46	0x00000000	0.0
47	0x00000000	0.0
48	0x00000000	0.0
49	0x00000000	0.0
50	0x00000000	0.0
51	0x00000000	0.0
52	0x00000000	0.0
53	0x00000000	0.0
54	0x00000000	0.0
55	0x00000000	0.0
56	0x00000000	0.0
57	0x00000000	0.0
58	0x00000000	0.0
59	0x00000000	0.0
60	0x00000000	0.0
61	0x00000000	0.0
62	0x00000000	0.0
63	0x00000000	0.0
64	0x00000000	0.0
65	0x00000000	0.0
66	0x00000000	0.0
67	0x00000000	0.0
68	0x00000000	0.0
69	0x00000000	0.0
70	0x00000000	0.0
71	0x00000000	0.0
72	0x00000000	0.0
73	0x00000000	0.0
74	0x00000000	0.0
75	0x00000000	0.0
76	0x00000000	0.0
77	0x00000000	0.0
78	0x00000000	0.0
79	0x00000000	0.0
80	0x00000000	0.0

action_parameters_passthrough_layer.bias f4 [27]
0	0x00000000	0.0
1	0x00000000	0.0
2	0x00000000	0.0
3	0x00000000	0.0
4	0x00000000	0.0
5	0x00000000	0.0
6	0x00000000	0.0
7	0x00000000	0.0
8	0x00000000	0.0
9	0x00000000	0.0
10	0x00000000	0.0
11	0x00000000	0.0
12	0x00000000	0.0
13	0x00000000	0.0
14	0x00000000	0.0
15	0x00000000	0.0
16	0x00000000	0.0
17	0x00000000	0.0
18	0x00000000	0.0
19	0x00000000	0.0
20	0x00000000	0.0
21	0x00000000	0.0
22	0x00000000	0.0
23	0x00000000	0.0
24	0x00000000	0.0
25	0x00000000	0.0
26	0x00000000	0.0
