RL4E2E/results/pptod/2.0/actor.pt (torch, 48403 bytes, 4 tensors)

layers.0.weight f4 [128, 84]
-0.3938517 0.028901746 0.031629644 -0.2960636 -0.028939782 -0.050001677 0.17489296 0.02749828
-0.11830865 -0.05536963 0.09856338 -0.19403791 0.15229423 -0.41392514 -0.044349354 0.14818585
-0.13741675 0.051396776 0.090519875 0.19046634 -0.33056653 0.27782464 0.08018492 -0.10919658
-0.14757353 -0.10141995 0.0060021486 0.115766026 0.15335697 -0.28327364 0.007469762 0.25899664
0.036150582 0.045833983 0.29469806 0.17152454 -0.07607507 0.22168328 -0.13483773 -0.09180394
-0.11310547 -0.047870874 -0.05559268 -0.21490422 0.076908186 -0.10672565 -0.30954868 -0.16760767
0.16961779 0.099086665 0.20489143 0.016504785 -0.15745625 -0.031072078 -0.12338879 0.15370484
0.16440819 -0.020902073 0.019920062 0.17901315 -0.05052049 0.10231669 0.017552925 0.26427802
0.3104613 0.04878162 0.18517506 0.40435678 -0.0015602629 0.13924748 0.06714097 -0.016787032
-0.04115619 0.14857216 0.18015176 -0.023303913 -0.21917468 0.1260764 -0.1149721 -0.038581815
0.19018064 -0.14311391 -0.013117918 0.40610042 0.32037967 0.03525171 -0.267307 0.091852196
-0.024960274 0.07532899 0.05240862 -0.03358235 0.06366836 0.10217119 -0.1641147 -0.02087915
0.0019782272 0.19449645 -0.12868632 -0.020997059 -0.1682947 -0.10139034 -0.12334633 -0.08473555
0.06574744 0.040846784 -0.20516224 -0.10427755 0.15596464 -0.1464141 0.006501858 -0.019006277
-0.006532287 -0.21870424 0.06550441 0.093443766 0.14050151 -0.13691513 0.1744778 -0.15356629
-0.253694 -0.115574114 -0.26974112 -0.3033493 0.18153219 0.01714668 -0.17704582 0.032367576
-0.16242336 -0.0949742 -0.11044828 0.09999404 0.1680599 0.117656715 0.20626825 0.02792297
0.19524617 0.13736701 -0.009059867 0.089685895 -0.011170274 0.29737583 -0.27349317 -0.039689943
0.059820093 -0.047154807 -0.023757163 0.060792483 -0.07923948 -0.22987674 -0.26778904 -0.0039381795
0.11315353 0.15555173 -0.24061942 0.030294338 -0.04198633 -0.017689979 -0.19028671 0.034533076
0.20767647 0.1174854 -0.06345716 -0.11146334 -0.08021147 0.18543288 0.024808882 -0.028200222
-0.050485335 -0.0038007319 0.15447392 0.029741008 -0.31957784 0.22186114 0.101314634 0.16427
-0.16733117 -0.19215646 0.05751252 -0.302595 -0.14661664 0.097212374 0.068073384 0.11599602
0.023241231 -0.16372482 -0.028540796 0.038273465 -0.035025816 0.16816835 -0.17486623 0.16908528
0.0265278 0.0892679 0.1157071 0.19801362 -0.11780083 0.18969336 0.17813666 -0.08558299
-0.1967606 -0.10432406 -0.11295485 0.028386021 -0.13829964 0.25571308 -0.104128025 0.041223884
-0.16962877 0.013034381 -0.08019775 0.071518674 -0.017378014 0.07231035 -0.10490199 0.2218461
-0.04612122 0.36740896 -0.12021114 -0.094169885 -0.11376182 0.14330825 -0.09645592 0.04511773
-0.004821006 -0.1734538 -0.40761465 0.08777469 0.033325 0.016132941 0.22977167 0.015181223
0.17023365 0.07632815 0.07424884 0.0035074262 0.35619703 -0.0049083806 -0.12643607 0.016476842
0.23227419 -0.096304834 0.107184745 0.2362229 -0.19564953 -0.23857419 0.18689553 0.026500916
-0.08663621 0.116113886 -0.14641039 -0.03193717 0.18499033 -0.033754215 -0.0023830424 0.09074404
00000000: eea6 c9be 5bc3 ec3c 168e 013d a695 97be
00000010: 1f13 edbc 8fce 4cbd 2417 333e 1344 e13c
00000020: ce4b f2bd 44cb 62bd 99db c93d e0b1 46be
00000030: 05f3 1b3e ffed d3be aba7 35bd 08be 173e
00000040: fab6 0cbe 6d85 523d 7c62 b93d 9c09 433e
00000050: 0440 a9be 083f 8e3e fe37 a43d 75a2 dfbd
00000060: 841d 17be 43b5 cfbd acad c43b bd16 ed3d
00000070: 9c09 1d3e 3e09 91be e8c4 f43b 359b 843e
00000080: a212 143d 6abc 3b3d aae2 963e 21a4 2f3e
00000090: 3fcd 9bbd f100 633e e712 0abe b403 bcbd
000000a0: d7a3 e7bd 4014 44bd 26b5 63bd da0f 5cbe
000000b0: 0a82 9d3d fa92 dabd 2a7d 9ebe 58a1 2bbe
000000c0: 49b0 2d3e f3ed ca3d 0fcf 513e 0b35 873c
000000d0: 363c 21be df8a febc 43b3 fcbd cd64 1d3e
000000e0: 9f5a 283e d33a abbc 662f a33c 394f 373e
000000f0: 93ee 4ebd 6a8b d13d 27cb 8f3c 734f 873e
00000100: c9f4 9e3e 3ccf 473d 889e 3d3e da07 cf3e
00000110: bc81 ccba e496 0e3e 3481 893d f584 89bc
00000120: 6593 28bd 4d23 183e b479 383e d9e7 bebc
00000130: 546f 60be 2c1a 013e 7e76 ebbd f707 1ebd
00000140: b7be 423e 748c 12be 89ec 56bc 65ec cf3e
00000150: ce08 a43e 1964 103d 77dc 88be 011d bc3d
00000160: 7d79 ccbc 1646 9a3d 6caa 563d a58d 09bd
00000170: 8f64 823d 213f d13d af0d 28be c00a abbc
00000180: 25a5 013b 142a 473e 59c6 03be 0602 acbc
00000190: 7255 2cbe bda5 cfbd 009d fcbd d589 adbd
000001a0: 98a6 863d f54e 273d 0d16 52be 788f d5bd
000001b0: 32b5 1f3e 94ed 15be 8a0d d53b 0db3 9bbc
000001c0: cc0c d6bb 01f4 5fbe 2d27 863d 725f bf3d
000001d0: a1df 0f3e 7b33 0cbe 4faa 323e 7b40 1dbe
000001e0: 2ee4 81be 1fb2 ecbd 821b 8abe 9950 9bbe
000001f0: 93e3 393e 3277 8c3c 804b 35be dd93 043d
00000200: 4f52 26be d581 c2bd b532 e2bd adc9 cc3d
00000210: e517 2c3e 01f6 f03d fc37 533e b6be e43c
00000220: 9dee 473e f0a9 0c3e d66f 14bc 3dad b73d
00000230: 8603 37bc a541 983e 4c07 8cbe ec91 22bd
00000240: ea05 753d 6625 41bd 629e c2bc 8a01 793d
00000250: 4f48 a2bd cf64 6bbe a51b 89be d80b 81bb
00000260: 0abd e73d f448 1f3e f064 76be d52b f83c
00000270: dcf9 2bbd 93ea 90bc 85da 42be 8e72 0d3d
00000280: 24a9 543e 2f9c f03d d4f5 81bd e446 e4bd
00000290: e945 a4bd 1ee2 3d3e ff3b cb3c 2704 e7bc
000002a0: b6c9 4ebd b315 79bb 692e 1e3e 6aa3 f33c
000002b0: b59f a3be 912f 633e 0c7e cf3d 6536 283e
000002c0: dd58 2bbe aac4 44be 4092 6b3d bbed 9abe
000002d0: ac22 16be 4817 c73d 0f6a 8b3d 528f ed3d
000002e0: 6564 be3c 7ba7 27be 63ce e9bc a3c4 1c3d
000002f0: 3b77 0fbd 5334 2c3e 2210 33be b124 2d3e
00000300: d450 d93c 17d2 b63d d8f7 ec3d 15c4 4a3e
00000310: 9041 f1bd fa3e 423e 7569 363e 2246 afbd
00000320: 9c7b 49be daa7 d5bd df54 e7bd cd89 e83c
00000330: 6c9e 0dbe d3ec 823e 1341 d5bd 60da 283d
00000340: 2ab3 2dbe 288e 553c b83e a4bd 6278 923d
00000350: 565c 8ebc 7317 943d dbd6 d6bd a02b 633e
00000360: 9be9 3cbd 071d bc3e 4231 f6bd 24dc c0bd
00000370: f5fb e8bd 66bf 123e ae8a c5bd 5ecd 383d
00000380: 88f9 9dbb df9d 31be deb2 d0be 37c3 b33d
00000390: cc7f 083d 3b29 843c 4449 6b3e aaba 783c
000003a0: bb51 2e3e ef51 9c3d c70f 983d d9dc 653b
000003b0: 755f b63e 7bd6 a0bb 7578 01be 71fa 863c
000003c0: 49d9 6d3e 783b c5bd ad83 db3d 6ae4 713e
000003d0: 5a58 48be cb4c 74be 8b61 3f3e 7318 d93c
000003e0: 536e b1bd 1ecd ed3d 9bec 15be 8dd0 02bd
000003f0: 1b6e 3d3e dc41 0abd d12c 1cbb 03d8 b93d

layers.0.bias f4 [128]
0.0 0.0 0.0 0.0 0.0 0.0 0.0 0.0
0.0 0.0 0.0 0.0 0.0 0.0 0.0 0.0
0.0 0.0 0.0 0.0 0.0 0.0 0.0 0.0
0.0 0.0 0.0 0.0 0.0 0.0 0.0 0.0
0.0 0.0 0.0 0.0 0.0 0.0 0.0 0.0
0.0 0.0 0.0 0.0 0.0 0.0 0.0 0.0
0.0 0.0 0.0 0.0 0.0 0.0 0.0 0.0
0.0 0.0 0.0 0.0 0.0 0.0 0.0 0.0
0.0 0.0 0.0 0.0 0.0 0.0 0.0 0.0
0.0 0.0 0.0 0.0 0.0 0.0 0.0 0.0
0.0 0.0 0.0 0.0 0.0 0.0 0.0 0.0
0.0 0.0 0.0 0.0 0.0 0.0 0.0 0.0
0.0 0.0 0.0 0.0 0.0 0.0 0.0 0.0
0.0 0.0 0.0 0.0 0.0 0.0 0.0 0.0
0.0 0.0 0.0 0.0 0.0 0.0 0.0 0.0
0.0 0.0 0.0 0.0 0.0 0.0 0.0 0.0
00000000: 0000 0000 0000 0000 0000 0000 0000 0000
00000010: 0000 0000 0000 0000 0000 0000 0000 0000
00000020: 0000 0000 0000 0000 0000 0000 0000 0000
00000030: 0000 0000 0000 0000 0000 0000 0000 0000
00000040: 0000 0000 0000 0000 0000 0000 0000 0000
00000050: 0000 0000 0000 0000 0000 0000 0000 0000
00000060: 0000 0000 0000 0000 0000 0000 0000 0000
00000070: 0000 0000 0000 0000 0000 0000 0000 0000
00000080: 0000 0000 0000 0000 0000 0000 0000 0000
00000090: 0000 0000 0000 0000 0000 0000 0000 0000
000000a0: 0000 0000 0000 0000 0000 0000 0000 0000
000000b0: 0000 0000 0000 0000 0000 0000 0000 0000
000000c0: 0000 0000 0000 0000 0000 0000 0000 0000
000000d0: 0000 0000 0000 0000 0000 0000 0000 0000
000000e0: 0000 0000 0000 0000 0000 0000 0000 0000
000000f0: 0000 0000 0000 0000 0000 0000 0000 0000
00000100: 0000 0000 0000 0000 0000 0000 0000 0000
00000110: 0000 0000 0000 0000 0000 0000 0000 0000
00000120: 0000 0000 0000 0000 0000 0000 0000 0000
00000130: 0000 0000 0000 0000 0000 0000 0000 0000
00000140: 0000 0000 0000 0000 0000 0000 0000 0000
00000150: 0000 0000 0000 0000 0000 0000 0000 0000
00000160: 0000 0000 0000 0000 0000 0000 0000 0000
00000170: 0000 0000 0000 0000 0000 0000 0000 0000
00000180: 0000 0000 0000 0000 0000 0000 0000 0000
00000190: 0000 0000 0000 0000 0000 0000 0000 0000
000001a0: 0000 0000 0000 0000 0000 0000 0000 0000
000001b0: 0000 0000 0000 0000 0000 0000 0000 0000
000001c0: 0000 0000 0000 0000 0000 0000 0000 0000
000001d0: 0000 0000 0000 0000 0000 0000 0000 0000
000001e0: 0000 0000 0000 0000 0000 0000 0000 0000
000001f0: 0000 0000 0000 0000 0000 0000 0000 0000

layers.1.weight f4 [6, 128]
-0.043674894 0.03903832 -0.0034081417 -0.010261714 0.027693398 -0.003571661 -0.011606167 0.0046559516
0.013384185 0.006948298 0.03360542 0.07023353 0.035852384 0.081271715 0.026064096 0.028405227
-0.009112264 -0.083176635 -0.059331696 -0.040564466 -0.03583015 -0.042200837 0.04206852 0.011392419
0.07085636 -0.0059137084 0.056868225 0.040232655 -0.054871645 0.00497709 0.015207731 -0.02006662
0.082191244 0.04248018 0.047629975 -0.0220569 -0.009410516 0.036280766 -0.067455724 0.008586609
-0.004114091 0.07893574 0.0033249017 -0.014310035 0.069817826 -0.048488967 -0.012648311 0.0776309
-0.083547875 -0.018893493 0.034949295 0.07946634 0.022385718 0.08464674 -0.06317325 -0.06893666
0.0059844623 -0.0057118884 0.026804984 0.016223565 -0.053555325 0.0791072 0.047708176 -0.04648011
0.050547116 -0.08679213 0.06533214 0.044294335 -0.039277818 -0.055572968 -0.027300715 0.038016036
-0.005002768 0.0063173175 0.022808272 0.00655021 -0.025951931 -0.03093821 0.04489102 0.07671673
-0.007729363 -0.06343794 0.065971226 0.05786426 0.024756731 0.04665851 -0.062559545 -0.083876714
-0.08296117 -0.039924834 -0.07762597 -0.06938607 0.027902205 0.0030256168 0.0025656472 0.024278417
-0.057702668 0.0065755825 -0.07491011 -0.017019698 0.045409467 -0.07380535 0.015789652 -0.08564162
0.03199422 0.02571196 -0.0142426 -0.08200329 -0.05539236 0.07115236 0.08437604 -0.03939625
0.04249752 0.017215576 -0.006981309 -0.06107721 -0.0735018 -0.03338431 0.027108863 -0.0046444773
0.08488118 -0.016455172 0.07746919 -0.02055624 -0.065275826 -0.065324284 -0.0030795017 -0.04974188
0.038033158 -0.067893974 0.032215785 -0.049756315 -0.065648764 0.07152352 0.016216632 0.051433254
-0.025678504 -0.08012717 0.035004653 -0.07466583 -0.08256792 0.087433405 -0.084549926 0.041605122
-0.047509234 0.07290175 -0.08123764 -0.04612512 0.001136005 -0.047401033 -0.08495889 0.0012575039
-0.0853864 0.029267224 0.06950287 0.029629497 -0.07650197 0.023401078 -0.036431577 -0.015086844
0.037182223 -0.03385785 -0.08368657 0.06771778 0.035083383 0.015439254 0.028444476 0.08189276
-0.044050146 0.032466065 -0.019261815 -0.078743674 0.041761614 0.049001537 -0.08460588 0.03755219
-0.012221627 0.040148728 -0.013658993 0.03657356 -0.035897292 -0.040716298 0.04347849 0.08413597
-0.037811108 0.056757916 -0.06053716 0.018119583 0.05379904 -0.0720782 0.012110696 -0.061878096
0.052082576 -0.020619018 -0.015698235 -0.03371201 0.027907861 0.057243627 0.042431675 -0.047038842
0.046757333 0.059060387 -0.07047771 -0.033467654 0.036819823 0.033997923 -0.013924571 -0.038876273
0.012150441 -0.003390282 0.05728298 -0.07963018 -0.021774104 -0.01915942 0.03763934 -0.030177996
0.06752964 0.031793844 -0.040927086 -0.05609757 0.0150307035 -0.080505714 0.060847107 0.0117589915
0.027297324 -0.030497596 -0.04368038 0.042055305 0.055087786 0.0668577 -0.07160252 0.054355398
-0.016789397 0.051899143 -0.04911626 0.020365946 0.014972657 0.008212313 0.027970387 0.061856948
0.06876308 0.056000665 0.07929061 -0.041981686 -0.05695627 -0.081175074 -0.044303272 0.027358236
0.08569814 -0.025676375 0.04009181 -0.07088274 0.039881762 -0.005974853 0.068582565 -0.07466701
00000000: 72e4 32bd a5e6 1f3d 215b 5fbb c020 28bc
00000010: 44dd e23c 8712 6abb cb27 3ebc f490 983b
00000020: 5749 5b3c 8cae e33b d6a5 093d 99d6 8f3d
00000030: f3d9 123d c971 a63d 5f84 d53c 14b2 e83c
00000040: 9b4b 15bc 8358 aabd cb05 73bd ed26 26bd
00000050: a3c2 12bd c9da 2cbd 0a50 2c3d 45a7 3a3c
00000060: 241d 913d c8c7 c1bb a8ee 683d ffca 243d
00000070: 17c1 60bd db16 a33b d929 793c c162 a4bc
00000080: e253 a83d b2ff 2d3d a617 433d acb0 b4bc
00000090: 912e 1abc 249b 143d 3a26 8abd d9ae 0c3c
000000a0: 7fcf 86bb 10a9 a13d 98e6 593b a374 6abc
000000b0: a6fc 8e3d 5e9c 46bd dd3a 4fbc f3fc 9e3d
000000c0: 261b abbd 87c6 9abc fe26 0f3d 40bf a23d
000000d0: 4162 b73c 455b ad3d fa60 81bd aa2e 8dbd
000000e0: 4f19 c43b cb2a bbbb 2096 db3c 48e7 843c
000000f0: d45c 5bbd f502 a23d a669 433d ee61 3ebd
00000100: 7e0a 4f3d 12c0 b1bd dbcc 853d fa6d 353d
00000110: c7e1 20bd 7ba0 63bd c0a5 dfbc b4b6 1b3d
00000120: 42ee a3bb 8001 cf3b 6ad8 ba3c 25a3 d63b
00000130: 2599 d4bc 2172 fdbc a5df 373d a91d 9d3d
00000140: 9946 fdbb c0eb 81bd ec1b 873d 1303 6d3d
00000150: a1ce ca3c fe1c 3f3d 381f 80bd 8ec7 abbd
00000160: 8ce7 a9bd 3988 23bd 5dfa 9ebd 491a 8ebd
00000170: 2a93 e43c 6d49 463b 6b24 283b 88e3 c63c
00000180: a259 6cbd fc77 d73b 796a 99bd e56c 8bbc
00000190: 47ff 393d 4227 97bd 4d59 813c e064 afbd
000001a0: 5f0c 033d e3a1 d23c cb59 69bc 57f1 a7bd
000001b0: 19e3 62bd 54b8 913d 58cd ac3d f65d 21bd
000001c0: e111 2e3d ae07 8d3c 77c3 e4bb 192c 7abd
000001d0: 1d88 96bd fcbd 08bd 6813 de3c b330 98bb
000001e0: 2fd6 ad3d ffcc 86bc 2ba8 9e3d 8f65 a8bc
000001f0: 55af 85bd bdc8 85bd 77d1 49bb 24be 4bbd
00000200: a8c8 1b3d ff0b 8bbd b3f4 033d 47cd 4bbd
00000210: dc72 86bd ec7a 923d bed8 843c adab 523d
00000220: ba5b d2bc b719 a4bd 0a61 0f3d 66ea 98bd
00000230: 5f19 a9bd 4910 b33d 8328 adbd 226a 2a3d
00000240: 0b99 42bd 834d 953d eb5f a6bd b2ed 3cbd
00000250: 01e6 943a 9627 42bd edfe adbd d4d2 a43a
00000260: 11df aebd d1c1 ef3c 8557 8e3d 8fb9 f23c
00000270: 11ad 9cbd 9eb3 bf3c 4739 15bd cf2e 77bc
00000280: 634c 183d 87ae 0abd dd63 abbd 9faf 8a3d
00000290: 98b3 0f3d edf4 7c3c 6404 e93c 64b7 a73d
000002a0: ed6d 34bd 23fb 043d f4ca 9dbc 5d44 a1bd
000002b0: 3a0e 2b3d d6b5 483d d945 adbd 53d0 193d
000002c0: 383d 48bc fe72 243d f8c9 5fbc 28ce 153d
000002d0: 0a09 13bd 22c6 26bd 8016 323d 7b4f ac3d
000002e0: d2df 1abd fd7a 683d d0f5 77bd 856f 943c
000002f0: 625c 5c3d bc9d 93bd f16b 463c e373 7dbd
00000300: 8a54 553d 37e9 a8bc 9699 80bc 9b15 0abd
00000310: 079f e43c 4b78 6a3d d6cc 2d3d cdab 40bd
00000320: 9e84 3f3d 4ee9 713d 9e56 90bd 6115 09bd
00000330: 62d0 163d 6841 0b3d e223 64bc ba3c 1fbd
00000340: a512 473c 7e2f 5ebb 8fa1 6a3d 2615 a3bd
00000350: 9b5f b2bc 37f4 9cbc b52b 1a3d d837 f7bc
00000360: fb4c 8a3d 433a 023d 29a3 27bd 91c6 65bd
00000370: 5743 763c 2ee0 a4bd d13a 793d c9a8 403c
00000380: a39e df3c 18d6 f9bc 33ea 32bd 2f42 2c3d
00000390: bba3 613d b1ec 883d 58a4 92bd c4a3 5e3d
000003a0: eb89 89bc 3294 543d 222e 49bd 7cd6 a63c
000003b0: e04f 753c f08c 063c 2722 e53c b65d 7d3d
000003c0: a8d3 8c3d f460 653d 1e63 a23d fdf4 2bbd
000003d0: fa4a 69bd 1e3f a6bd 5977 35bd 611e e03c
000003e0: 8282 af3d 4357 d2bc 4f37 243d f82a 91bd
000003f0: 0f5b 233d b3c8 c3bb 0475 8c3d 04eb 98bd

layers.1.bias f4 [6]
0.0 0.0 0.0 0.0 0.0 0.0
00000000: 0000 0000 0000 0000 0000 0000 0000 0000
00000010: 0000 0000 0000 0000
