RL4E2E/results/pptod/2.0k1/episode_1500/actor.pt (torch, 20755 bytes, 4 tensors)

layers.0.weight f4 [128, 30]
000000 a0 ef 7c 3d 9f c6 ab 3e 27 3b 24 bd b2 da 03 bf
       0.06175196 0.33549973 -0.040095475 -0.5150558
000010 13 3a f8 bd d0 12 e4 be 7d c1 90 be 2a 8c 4c 3e
       -0.12120452 -0.44545603 -0.2827262 0.19975343
000020 ac 7b de bd 04 30 b3 be 7e f9 46 3d f7 0d ad 3e
       -0.10863432 -0.3499757 0.048577778 0.33799717
000030 1b 19 94 bd 0b 95 cd 3d 49 91 6f be ab c9 0e bf
       -0.07231351 0.10038193 -0.23395266 -0.5577647
000040 1b af 25 bb df 18 9a 3e 0d 6d d2 bc c9 af d9 be
       -0.0025281373 0.300971 -0.025686765 -0.42516926
000050 2e 0f a9 bd 7f f6 51 3e 4f 91 cd 3d d7 66 bc 3d
       -0.082548484 0.20504187 0.10037481 0.09199303
000060 4f 75 b4 be 4e d8 f9 be 65 22 cc be d5 63 17 be
       -0.3524575 -0.4879784 -0.3986999 -0.14784177
000070 cc 58 8e be ac 50 b2 be 31 5f 86 be 89 eb df be
       -0.27802122 -0.34827173 -0.262445 -0.43734387
000080 98 68 3c be 63 1d 4f 3e 81 5a 5b be ca 43 01 be
       -0.18399274 0.20226054 -0.21421243 -0.12623516
000090 e0 3d 11 be 0d 90 c2 3c 42 17 0b bd c4 49 11 3d
       -0.1418376 0.02375033 -0.033957727 0.03547074
0000a0 70 10 14 be 30 cf 74 be 72 9b 08 3d 91 22 d3 3e
       -0.14459395 -0.23907161 0.03335137 0.4123731
0000b0 03 0f 58 3e 7d f0 8c 3c de e3 54 be 80 de fd bd
       0.21099477 0.017204517 -0.2079005 -0.12395954
0000c0 c4 b4 2a 3c aa 4c d7 be 5d b2 c3 3e 66 b8 87 3c
       0.010419074 -0.42050678 0.38222018 0.01656742
0000d0 0d 7e 52 3e 69 ff 27 3d d5 59 4a 3d bf 85 60 be
       0.20555897 0.041015062 0.049402077 -0.2192602
0000e0 87 a0 13 3e 31 3b 94 be e1 40 43 bd b1 55 b8 bd
       0.14416705 -0.2895141 -0.047669295 -0.09000719
0000f0 5e 05 91 be 9f 02 4c 3f d9 61 f8 3e 5c 15 d7 be
       -0.28324407 0.796915 0.48512152 -0.42008483
000100 65 67 97 3d b3 fb 6d bf a7 bb ee be 84 42 67 3d
       0.07392768 -0.9296219 -0.46627542 0.05645992
000110 b0 d2 65 be 7b be 08 3e 68 b8 94 3e c6 b9 f6 bd
       -0.22443652 0.13353913 0.2904694 -0.12047152
000120 0b 56 21 bd c0 b1 11 bd 60 a1 90 be d9 e3 8a 3e
       -0.039388698 -0.035569906 -0.2824812 0.2712696
000130 9a eb e0 bd 7c 28 6a 3e db 34 db be 0f 16 c5 3e
       -0.109824374 0.22867006 -0.42813763 0.38493392
000140 5c 03 91 3e f6 86 0b 3f dd 40 8c bd 59 fa fe 3d
       0.28322875 0.5450281 -0.06848309 0.12450094
000150 ad 4a 46 bd 55 49 65 be 02 d9 bf 3e e7 f3 2a 3d
       -0.04841106 -0.22391255 0.3747025 0.04173651
000160 9b ab 36 be c5 db 30 be c6 5c 8f 3c 4b f3 1b bf
       -0.178389 -0.17271335 0.017500293 -0.6091811
000170 44 00 cc bb 55 b5 4c 3e 46 25 a0 3e 84 84 02 bd
       -0.0062256176 0.19991048 0.31278437 -0.031864658
000180 9a 0a 1a 3c a0 48 63 3f 87 eb 42 3e c1 bb 48 3e
       0.009401942 0.8878269 0.19035159 0.19602872
000190 df 6b b1 3e 50 d2 bf 3e a3 92 84 3e 0c f2 88 3e
       0.34652612 0.37465143 0.25893125 0.26747167
0001a0 13 b4 00 3f 9e b1 bc 3e c8 20 69 be bf c5 d6 3b
       0.5027477 0.3685426 -0.22766411 0.006554335
0001b0 6a 03 84 3e e2 a4 70 be df bf 48 3f 1a d4 bf 3e
       0.25783855 -0.23500398 0.7841777 0.37466508
0001c0 3e 67 22 3e 11 6e 47 3f 0b c7 de bd 8f 6b f8 3e
       0.15859696 0.77902323 -0.10877808 0.4851956
0001d0 a2 64 f8 3d 08 68 a3 bd dc d0 53 3f 72 e6 35 3e
       0.12128569 -0.07978827 0.8274057 0.17763689
0001e0 d6 c9 d4 3e 52 fb 80 be 64 b7 7a bd 6b 50 ab bd
       0.4156024 -0.25191742 -0.06121005 -0.08364948
0001f0 4f 2e 71 3e 18 01 91 be 6a b7 c4 be 94 01 c7 3e
       0.23552822 -0.28321147 -0.38421184 0.38868392
000200 72 4e b5 3d b4 b3 93 be b1 9e 8b bd 77 a4 45 bd
       0.08852853 -0.2884804 -0.06817377 -0.04825255
000210 2e 8b 9b be 3e 85 34 bf ff 69 d6 3d 91 36 15 bd
       -0.30379623 -0.7051581 0.10469436 -0.03642899
000220 08 ad 51 be d4 07 13 3e 16 01 01 be 7a bc 21 3e
       -0.20476162 0.14358455 -0.1259807 0.15794554
000230 5a 2a 33 bd b0 4f 10 be 85 1f b3 3d 7e d9 b5 be
       -0.04374156 -0.14092898 0.08746246 -0.35517496
000240 d4 02 8d be 7a fe 3b be 3d 7b af be 77 9a 52 bd
       -0.2754122 -0.18358794 -0.3427371 -0.05141684
000250 31 da 57 be db c8 9e bd b3 f7 a0 be 98 9f e9 bd
       -0.21079327 -0.07753154 -0.3143898 -0.11407393
000260 16 d2 99 be 43 dc 35 bc 9e 7d a0 3e 70 a0 30 be
       -0.30043095 -0.011099878 0.31345838 -0.17248702
000270 c9 19 07 bd b4 8a d8 be 2b 19 47 3e b1 43 17 be
       -0.032983575 -0.42293322 0.19443195 -0.14771916
000280 35 b1 86 bc a1 47 fe 3e ed 37 5a bc ed 8a 49 be
       -0.01644192 0.49664024 -0.013318998 -0.19681902
000290 55 a7 a8 3e fa 09 d6 3d 37 3f 65 bd ce 9e bb be
       0.32940164 0.10451122 -0.05596849 -0.36644596
0002a0 52 23 c3 be f2 29 22 be a8 25 99 bd 26 02 5d 3e
       -0.38112885 -0.15836313 -0.074778855 0.21582851
0002b0 c6 59 82 3e 72 b1 2b 3e de c4 db bd 2d e7 76 3e
       0.25459117 0.16766909 -0.10730909 0.24111624
0002c0 af df c3 be 74 15 e8 be 47 90 91 3e dd e8 2c be
       -0.38256595 -0.45328867 0.28430387 -0.16885705
0002d0 cb 4c b3 3c 5f b6 14 3f 7b 9e c3 bf 59 14 af 3e
       0.021887204 0.58090776 -1.5282739 0.34195212
0002e0 b9 3d 41 3e ed 6d d4 be 43 e2 60 3e d5 4f 2a bf
       0.18871202 -0.41490117 0.21961312 -0.66528064
0002f0 ce 5c 77 3e 13 cd fa 3e d8 49 34 bf 40 9e 76 be
       0.24156496 0.48984584 -0.70425177 -0.24083805
000300 d3 9d 12 3f b7 c8 77 be bc e8 04 3e ce a0 4c be
       0.5727207 -0.2419766 0.12979406 -0.19983217
000310 eb 21 6c 3f a7 9f fa 3d d6 72 27 3f 42 80 57 3f
       0.92239255 0.122374825 0.654096 0.8418008
000320 d3 e4 aa 3e 2b 1a 0d 3f 41 f1 85 3e 6c fc 09 3d
       0.33377704 0.55118054 0.26160625 0.033687994
000330 ad 8d e9 3d c0 d8 83 3d de 85 f4 3e 0c a8 62 3d
       0.11403976 0.06437826 0.47758383 0.055336043
000340 cf 7a 04 3f 50 8b 5f 3f 14 64 36 be 31 80 0e 3e
       0.5174989 0.8732195 -0.17811614 0.13916089
000350 08 e0 66 3f 74 f3 ea 3b e1 8d 34 be 09 8e a4 3d
       0.90185595 0.007170135 -0.17632248 0.080349036
000360 ad 9c 5e 3e 47 80 f0 bd 2e 89 22 bf 9f 8f 40 3e
       0.21739455 -0.11743217 -0.6349057 0.18804787
000370 52 8f 1f bf 51 74 59 be 1b af d3 be a2 84 8e be
       -0.62328064 -0.21235777 -0.41344532 -0.27835566
000380 a9 e7 8a bd 72 8d ab be 4f 84 b8 bd ec 73 fa 3e
       -0.06782467 -0.33506352 -0.09009611 0.48916566
000390 9c dd 3a bf 3f 4c c6 bd 3a e7 b2 be 7d 56 85 bf
       -0.729944 -0.096825115 -0.34942037 -1.0417019
0003a0 2a 04 b4 3e c3 4c c7 3e 39 0e 23 be d6 5c 9e be
       0.35159427 0.38925752 -0.15923394 -0.30930203
0003b0 1c 8a 1f 3e 7f 69 51 bd dc d7 d0 bd 33 6f 1b 3d
       0.15580028 -0.051126 -0.10197422 0.037947845
0003c0 b1 b8 80 bd 6c 29 4b be 7e 45 db bd 4a 27 fb bd
       -0.06285227 -0.1984002 -0.10706614 -0.12263353
0003d0 5c 01 76 be eb 1c 1b be 92 6f a0 3e e4 49 d4 be
       -0.24023956 -0.1514775 0.3133512 -0.41462624
0003e0 25 d7 25 3e 12 ac 10 bd 5d 57 9c 3d 73 8d 07 3e
       0.16195352 -0.03532035 0.07633851 0.13237552
0003f0 e8 75 42 3d 02 21 18 3e 10 c5 58 be 13 72 ce bd
       0.047475725 0.14856341 -0.21168923 -0.10080352

layers.0.bias f4 [128]
000000 02 b7 16 40 00 00 00 00 fa 44 15 3f 4a b8 03 40
       2.35492 0.0 0.58308375 2.058123
000010 54 13 f5 3f be 7d f8 bc c3 36 2f 40 34 f0 54 3f
       1.9146523 -0.030333396 2.7377174 0.8317902
000020 74 16 fa bc 78 ff 33 c0 36 95 0e 40 19 59 6c 3e
       -0.030528285 -2.8124676 2.227857 0.23080863
000030 cc 06 10 40 a5 92 00 40 2a 18 3f 3e 95 bb f1 3f
       2.2504148 2.0089505 0.18661562 1.888537
000040 e0 08 21 c0 cd 20 05 40 00 00 00 00 c7 12 11 40
       -2.5161667 2.080127 0.0 2.266771
000050 00 3c 3b 40 01 9a 26 c0 e9 0a 19 40 5b 8e bf 3c
       2.925537 -2.6031497 2.391291 0.02338331
000060 d2 69 0a 40 60 77 fb 3f 36 30 0c 40 2e 69 2b 40
       2.1627088 1.9645805 2.1904426 2.6782947
000070 d1 2f 20 c0 97 a8 19 c0 03 c4 ec 3e 11 27 0a 40
       -2.5029185 -2.400915 0.46243295 2.1586344
000080 00 00 00 00 00 00 00 00 00 00 00 00 bf 76 21 40
       0.0 0.0 0.0 2.5228727
000090 83 fc 31 c0 ec 59 19 40 00 00 00 00 d9 85 04 40
       -2.781037 2.3961134 0.0 2.0706694
0000a0 44 30 47 c0 48 64 fb 3f a6 14 14 40 9b 0f 3d c0
       -3.112321 1.9639978 2.3137603 -2.9540775
0000b0 00 00 00 00 f6 83 1e c0 62 2e 05 3f 00 00 00 00
       0.0 -2.4768043 0.520239 0.0
0000c0 17 22 25 40 e8 1e 01 40 b3 db e0 3f 00 00 00 00
       2.5802057 2.0175114 1.7567047 0.0
0000d0 c9 bf 1a 3f 78 b7 03 bd b5 38 04 3f 4f 91 03 40
       0.6044889 -0.03215739 0.5164903 2.055744
0000e0 28 8f ba 3e f5 d3 0e 40 b2 df 12 40 1b c6 32 c0
       0.36437345 2.2316868 2.2949033 -2.7933414
0000f0 4c 23 ff 3e 34 2b 23 40 65 68 90 bd ca 12 32 c0
       0.49831617 2.549512 -0.07051162 -2.7823968
000100 a8 1c f4 3f 42 82 22 40 ce 45 02 40 a8 2e 15 40
       1.9071245 2.5392003 2.0355105 2.3309727
000110 ab 35 0f 40 5d c0 1a 3f 39 d5 21 40 21 bd f3 3f
       2.2376506 0.60449773 2.528639 1.9042093
000120 57 93 2b 40 f3 f4 92 3f 5f 07 15 c0 66 e1 0d 3f
       2.680868 1.1481003 -2.328575 0.55422056
000130 78 6e 64 bd dc fc bd 3f 30 57 20 40 26 8f 0f 40
       -0.055769414 1.4842792 2.5053215 2.243112
000140 59 60 1b 40 a1 5e 37 c0 af 0a 1a 40 b1 c8 0d bd
       2.4277556 -2.8651507 2.406902 -0.034615222
000150 a9 f5 21 c0 7d 10 1a 40 00 00 00 00 00 00 00 00
       -2.530619 2.4072564 0.0 0.0
000160 00 00 00 00 fc e2 02 40 5f 68 2b c0 6c 32 03 40
       0.0 2.045104 -2.6782453 2.0499525
000170 a2 e0 21 c0 cd e5 33 c0 2e 4a 23 c0 c9 fd f9 3f
       -2.5293355 -2.810901 -2.5514026 1.9530574
000180 05 24 04 40 f4 74 3f c0 6e 63 e4 3e 6b 3e 6c 3f
       2.0646985 -2.9915133 0.4460711 0.9228274
000190 a2 22 52 3d be b5 07 40 59 44 1c 40 4b 71 1c c0
       0.05130256 2.1204677 2.4416716 -2.4444149
0001a0 22 88 6f bd 66 cb 66 3f bc 9b 08 40 5d 2c 27 40
       -0.058479436 0.9015411 2.1345053 2.6120827
0001b0 e3 e3 13 40 ac 37 40 c0 22 e5 8f 3f 43 58 11 40
       2.310784 -3.003398 1.1241801 2.271012
0001c0 d7 01 3b c0 dd cc 31 c0 78 d4 fe 3f 72 e2 27 c0
       -2.9219873 -2.7781289 1.990859 -2.6231961
0001d0 00 00 00 00 98 9a 1b 40 b1 4a 30 3f 94 6b 8f bc
       0.0 2.4313107 0.6886397 -0.017507352
0001e0 67 a0 31 40 1c bb fe 3f 8c e8 08 40 a8 52 0a 40
       2.7754152 1.9900851 2.1391935 2.161295
0001f0 00 00 00 00 68 c6 32 bc c7 40 01 3f 63 34 2e 40
       0.0 -0.010911562 0.5048947 2.7219474

layers.1.weight f4 [6, 128]
000000 dd 28 ae be 7b e0 a9 bb 85 ce c7 be a5 b0 6a bf
       -0.3401555 -0.005184231 -0.3902475 -0.9167579
000010 ec fe 2a be 50 f6 99 bc 3e c2 b5 bf fe 42 cc bf
       -0.16698807 -0.018794209 -1.4199903 -1.5957944
000020 8d b9 30 bd 1f 1e a6 3e 14 c3 f3 bd ac 1b 99 3f
       -0.043145705 0.32444856 -0.119024426 1.196157
000030 42 1c a5 be b6 d8 04 bf a1 39 35 3f e1 52 24 be
       -0.32248122 -0.51893175 0.7079106 -0.16047241
000040 a6 49 36 3e f4 36 07 bf 9b ec 8d 3c 5f bd 36 bf
       0.17801532 -0.52818227 0.017324736 -0.7138271
000050 13 33 c8 bf af 5e 2e 3e d6 56 5d bf e8 94 72 bf
       -1.5640587 0.17028306 -0.86460626 -0.9475846
000060 44 84 57 be 70 be 05 bf 9d fe a8 be ae 31 48 bf
       -0.21046549 -0.5224371 -0.33006755 -0.78200805
000070 ee 4b 53 3e 13 50 8a 3d 0b b8 5a be 29 72 31 bf
       0.20634434 0.06753554 -0.2135927 -0.6931482
000080 f5 65 15 3d b5 2a 91 bd 99 fd 90 bd 8f 38 22 bf
       0.036474187 -0.07088224 -0.0707962 -0.6336755
000090 8c 41 98 3e 69 28 53 be e4 a5 59 bc 5e 96 1a be
       0.29737508 -0.20620884 -0.01328418 -0.15096423
0000a0 32 52 b8 3e 9d 00 15 be 87 90 1b be 40 a0 d1 3e
       0.3600021 -0.14551015 -0.15191852 0.40942574
0000b0 9b 97 16 bd 72 92 8b 3e ec 04 14 bf 70 57 f8 bc
       -0.036765676 0.27260166 -0.5782001 -0.030315131
0000c0 4e e2 4a be fe ad f6 bd ce ab 64 bf ca 3f 89 bd
       -0.19812891 -0.12044905 -0.89324653 -0.0670162
0000d0 6c ab 1b bf 4e d6 19 3d 0b cb d8 be 28 00 20 bf
       -0.60808444 0.037557893 -0.4234241 -0.6250024
0000e0 d6 be 88 3f 68 32 99 bf 7f ce a2 be ed a4 02 3f
       1.0683239 -1.1968508 -0.3179817 0.51032907
0000f0 60 42 88 be 69 00 09 bf a1 13 ea bb e2 cf a4 3e
       -0.2661314 -0.5351625 -0.007143453 0.32189852
000100 45 c5 b2 be 29 66 90 bf a2 f2 08 be fe f1 b8 be
       -0.3491613 -1.1281177 -0.13373807 -0.36122125
000110 f5 bc 38 bf 99 1a 8b be ad 73 38 bf 1d f9 4f bf
       -0.72163326 -0.2716873 -0.7205151 -0.8123949
000120 db e2 6c bf df 18 2c be d3 7c ce 3d ae 06 f9 be
       -0.92533654 -0.16806363 0.10082402 -0.4863791
000130 89 38 96 3c 85 c3 aa be d2 4d 7c bf 0f 6d c8 be
       0.018337505 -0.33352295 -0.98556244 -0.39145705
000140 82 9a 75 be 6a be 0f 3f b6 9f 26 bf 66 4c 4b 3d
       -0.23984721 0.56149924 -0.6508745 0.049633406
000150 8d 94 1c 3e 12 d8 19 c0 5d af 13 bd 18 36 78 3d
       0.15291043 -2.403813 -0.03605591 0.060598463
000160 fa bc 52 3c 25 ed 13 bf fb 7d e8 3e 4e b8 63 be
       0.012862438 -0.5778373 0.45408615 -0.22238275
000170 ae 28 95 3e 82 34 f0 3d ec 4b 41 3e 41 fa 08 bf
       0.291326 0.11728765 0.18876618 -0.5350686
000180 74 c3 42 be 32 47 11 3f 62 ee 18 bf a9 de c9 be
       -0.19019872 0.5674926 -0.59738743 -0.3942769
000190 f0 54 88 bf 26 46 35 be ff 3c 8c be 76 e8 0a 3e
       -1.0650921 -0.17702541 -0.27390286 0.1356524
0001a0 c1 4d da bb 2d 7c 29 be 8e 95 ed bf 7b d7 02 be
       -0.006662101 -0.16551276 -1.8561265 -0.12777512
0001b0 ba b4 7d bd 8b 82 04 3f e5 12 a7 be d8 39 c7 be
       -0.061939932 0.5176169 -0.32631603 -0.3891132
0001c0 5d f6 d3 3e a0 40 05 3f 30 1b 4a be 4e a4 d9 3e
       0.41398898 0.52051735 -0.19736934 0.42508167
0001d0 ee 94 3c 3d 57 14 48 bf a3 17 9e bf 04 56 53 3d
       0.046040468 -0.78156036 -1.2350963 0.051595703
0001e0 4c 54 41 bf be fe f5 be aa 77 57 be 7d ef 2b bf
       -0.7551925 -0.48045915 -0.21041742 -0.67162305
0001f0 a6 38 88 3b 46 25 7f bf 8a 05 0e bf bd e4 8a bf
       0.0041571436 -0.9966625 -0.554772 -1.0851055
000200 d3 1d a8 bd e6 37 45 bd 27 b2 9e bd da 75 d7 bd
       -0.082088135 -0.048149012 -0.077488236 -0.10520525
000210 7e f7 7d 3b dd a5 91 3d 72 98 7f bf 20 aa a5 3d
       0.0038752253 0.07111714 -0.9984199 0.080890894
000220 7f dc 33 bb 98 0a c2 3d 28 12 b8 3b f4 c6 88 3c
       -0.0027444658 0.09474677 0.005617399 0.01669643
000230 83 7f 9d be 88 91 c0 be 18 38 24 3d db ad ff 3c
       -0.30761346 -0.37611032 0.040092558 0.03121083
000240 f8 e2 3a bd dd db db be 01 b9 64 3d aa f3 ba be
       -0.04562661 -0.4294118 0.055840496 -0.36514026
000250 8e 94 4d bf 7e 23 13 3d cb e2 c3 be d5 8b 92 3d
       -0.803048 0.03592252 -0.38258967 0.07155577
000260 c8 42 d2 bd c8 f4 f1 be 9b 22 55 bd f8 87 aa bf
       -0.10266644 -0.47257066 -0.052034955 -1.3322744
000270 da 47 f5 3d 7a 9b aa bd 53 a9 4f 3d af c0 b2 be
       0.11976595 -0.08330436 0.05069859 -0.3491263
000280 78 c0 32 bd 25 03 ab 3c b0 51 a5 bc 4b 41 38 bf
       -0.043640584 0.020875523 -0.020180553 -0.7197463
000290 e8 16 00 3d e4 9d 70 bd f5 39 05 bd 3f cd 2d 3c
       0.031271845 -0.058744326 -0.032525975 0.0106080165
0002a0 d1 2c 55 3e 3b ee 02 3d 90 ba a5 bc ee 78 11 3e
       0.20817877 0.031965476 -0.020230561 0.14206287
0002b0 35 dd 43 3c ef 38 4d bb 65 e6 e1 3c 86 c9 4a 3c
       0.011954595 -0.0031314453 0.027575681 0.0123771485
0002c0 50 39 2d be d4 d7 bd bd 88 8e 34 bf c9 31 a0 bd
       -0.16916394 -0.092696816 -0.70529985 -0.07821996
0002d0 eb b3 0c bd 8d df 08 bd bd 23 4b 3d 42 0b 2e be
       -0.03435127 -0.03341632 0.04959463 -0.16996482
0002e0 96 35 61 bd 6b e3 1d bd 70 87 b4 bd cc 33 73 3e
       -0.054982744 -0.03854696 -0.08814895 0.23750228
0002f0 cc e2 ae 3c 6e 71 52 be 50 02 a0 bd d6 ab f8 3d
       0.02134838 -0.20551082 -0.07812941 0.1214215
000300 86 56 46 bf c8 34 86 bf 94 8b c1 bc a7 ab 92 bd
       -0.77475774 -1.0484858 -0.023626126 -0.07161646
000310 7b b9 cc be 89 53 c4 3c 91 28 2d bf f1 81 2b bf
       -0.3998526 0.023965614 -0.67640024 -0.6699515
000320 b4 53 aa bf 42 5c 6a bf ef 4b 67 bc 1c 58 55 3d
       -1.3306794 -0.91547024 -0.014117225 0.05208598
000330 92 b5 89 3d c9 3f fc be 8d 62 38 bf 82 10 14 be
       0.06724085 -0.49267414 -0.72025377 -0.14459422
000340 02 a7 a2 bd d0 e2 4f 3d 2e 60 cf be 74 ba d7 3b
       -0.079420105 0.050753415 -0.40503067 0.0065835062
000350 7d 01 d7 3d 4f df 3e bf 83 b2 e1 3c c6 87 86 3d
       0.10498331 -0.7455949 0.027550941 0.065688655
000360 9b da 4e 3d 8a 34 ee be a5 f9 b4 3d 7a fe 08 3d
       0.050501447 -0.4652446 0.088366784 0.033445813
000370 23 14 20 bd 3f 3f fb 3c 64 00 34 3d b8 6c 23 bf
       -0.039081704 0.030669807 0.043945685 -0.63837767
000380 ee 2b 18 3d 70 2f 03 3e 8e 4a b0 bc db 6d 2e bf
       0.03715127 0.12811065 -0.021519925 -0.68136376
000390 94 9f c7 bc b4 6a 27 bd 3c 89 a8 bd c4 50 e3 3d
       -0.024368085 -0.040873244 -0.082293004 0.11099389
0003a0 6b 76 9c 3a 34 66 75 bf da bd 3b bf ff 0c ba bd
       0.0011937147 -0.95859075 -0.73336565 -0.0908451
0003b0 35 a8 ae bd 58 b6 cc 3d 20 27 37 bf fc e4 61 be
       -0.08528177 0.09995717 -0.71544075 -0.22060007
0003c0 3d bc 3d 3e 12 ff 96 3d 8e b9 89 bc 67 39 b2 3c
       0.18528838 0.073728696 -0.016812112 0.021755887
0003d0 87 64 af 3d 09 af ee be 74 f5 af 3d de 27 45 3a
       0.08564096 -0.46617916 0.08591738 0.0007520894
0003e0 a3 dd 8b bf fd 44 26 bf 6a 20 05 be 53 e6 09 bf
       -1.0927013 -0.6494902 -0.13000646 -0.5386707
0003f0 74 10 65 3c 37 a8 a2 bc 95 20 22 bd 1e 7b 4b bf
       0.0139809735 -0.019855602 -0.039581854 -0.79484737

layers.1.bias f4 [6]
000000 20 50 e4 bf ec a3 46 bf 00 00 00 00 00 00 00 00
       -1.7836952 -0.77593875 0.0 0.0
000010 00 00 00 00 00 00 00 00
       0.0 0.0
