RL4E2E/results/pptod/2.0k1/episode_1500/actor_param.pt (torch, 18917 bytes, 6 tensors)

layers.0.weight f4 [128, 3]
0.18020102 -0.10446302 1.6439742 0.29594368 0.89930826 0.583593 0.03874154 -0.276825
-1.15784 1.229813 -1.3168489 -0.51015097 -2.1335726 -0.3093855 -0.4716135 0.13626279
0.3216908 -0.92078525 -0.47871867 -0.70962083 0.38067734 0.7568042 -1.1427122 0.73883796
-0.7446035 0.8979696 0.60098255 0.12271251 0.051120397 -0.33543414 -0.28844416 -0.77953994
0.18274999 0.59707665 0.34918174 -0.034912452 0.9239028 -1.6554728 0.7055861 2.2743359
0.032183353 -0.08522206 0.90462506 0.47061807 -1.3441471 -0.017154463 0.35929516 0.63929546
1.4120638 -0.09600596 -0.40073317 1.2604938 0.41650656 0.7100319 -0.53103346 1.3139558
1.2668357 0.4269289 -0.3768871 -0.26369593 0.17073661 -0.37629253 -1.8296024 -0.08408996
0.7794945 0.6510703 -0.46690264 -0.6694615 -0.51697904 0.0379729 0.011669307 0.58445436
0.69377553 0.6931616 0.5718712 -0.0018674381 0.6981062 -0.26504344 -0.11651035 -0.20224607
1.6466914 -0.31456083 1.5032983 1.1826289 0.046588887 0.25083393 -0.33566582 0.50481117
0.709913 1.2849512 0.025068356 -0.201154 -0.013890799 0.56461865 -0.77278906 -1.0143962
0.7214115 -0.14391506 -1.5301448 -0.75826365 1.2348256 -0.12696165 -0.03719669 0.5916434
0.6927005 -0.14351887 0.7605762 -0.06610175 -0.03956853 0.9381139 0.5867093 -0.17639482
-1.0777214 -1.168929 2.144284 -0.29997012 0.8046596 -0.7154225 -0.93828195 -0.23572275
-0.11978482 1.0409359 2.252874 -0.19074267 -1.6060908 1.68314 0.71509475 -0.637175
-0.21174644 0.8371367 1.1403742 0.4030605 0.6415892 -0.43992797 1.046507 0.4645421
-0.21153247 -0.95935863 0.053992707 0.25320774 -0.80439216 -0.8525084 -0.5608682 -1.119329
0.8580288 -0.45873812 -0.2826756 -1.1783019 1.1351333 0.5102377 0.3401817 1.0270914
-0.17791325 0.26574802 -0.8550669 0.48233208 0.30040854 -0.7986583 0.70030874 0.20833972
0.72684115 0.41715437 0.01665386 0.6690533 -0.5114306 0.032302096 0.5457809 -0.012956917
-1.0987307 -0.0028346204 1.2201619 -0.789674 -0.37127456 -0.58748215 -0.24596898 -0.5070798
-1.4876487 0.6546671 0.8123675 0.20227042 0.1591865 -0.10531598 -0.31341106 0.3118093
-1.4388009 0.07030124 0.13251151 0.3825156 0.73783296 0.22680044 -0.40457642 0.009610828
0.7318059 -0.15699163 -1.0650889 0.2295936 0.2051066 0.4983298 -0.9874284 -0.6787475
0.09900089 0.020250592 0.42170995 -0.494237 -0.028509825 1.2222658 1.1886929 0.08463796
0.29807714 -1.8675693 0.7653454 -0.62757295 -0.5792097 -0.42964503 -0.97264755 -1.8205109
0.9704053 -1.2866566 0.12382109 -0.040509343 -1.746913 -1.0490505 0.69489855 -0.0952358
-0.8601289 -0.05841478 0.74710536 1.2297593 -0.8522477 0.2721493 0.22840826 0.10730619
-1.9161398 -0.41764328 0.027987441 -1.041922 0.34128052 0.47972596 0.9757315 -0.76335925
-0.032558795 0.9924194 0.3278279 0.24962398 -1.0173872 -0.39991894 0.9862066 1.5536572
-0.7363277 -1.1212704 -0.25895268 0.5035805 -1.207899 -0.4874504 -0.6365109 0.62068087
00000000: 9e86 383e b5f0 d5bd bf6d d23f ee85 973e
00000010: 1139 663f 5a66 153f 73af 1e3d 02bc 8dbe
00000020: 1a34 94bf 836a 9d3f 818e a8bf 4199 02bf
00000030: 748c 08c0 c767 9ebe 5377 f1be 7988 0b3e
00000040: a8b4 a43e 95b8 6bbf 9d1a f5be b6a9 35bf
00000050: 24e8 c23e ecbd 413f 6544 92bf 7c24 3d3f
00000060: 569e 3ebf 56e1 653f fed9 193f b250 fb3d
00000070: 9f63 513d 06be abbe f4ae 93be ee8f 47bf
00000080: d022 3b3e 04da 183f f3c7 b23e 5c00 0fbd
00000090: e584 6c3f 88e6 d3bf 4aa1 343f b88e 1140
000000a0: b1d2 033d e788 aebd 8295 673f daf4 f03e
000000b0: 030d acbf 8487 8cbc 89f5 b73e dea8 233f
000000c0: 82be b43f c69e c4bd e62c cdbe dc57 a13f
000000d0: 5940 d53e a7c4 353f cff1 07bf b42f a83f
000000e0: ac27 a23f 6d96 da3e 59f7 c0be 2703 87be
000000f0: 94d5 2e3e 6aa9 c0be 6930 eabf 5b37 acbd
00000100: f48c 473f 8bac 263f dd0d efbe d461 2bbf
00000110: bd58 04bf 7989 1b3d 9f30 3f3c cd9e 153f
00000120: 469b 313f 0a73 313f 2766 123f d3c4 f4ba
00000130: 17b7 323f c6b3 87be fa9c eebd 9819 4fbe
00000140: c9c6 d23f 1e0e a1be 146c c03f 6260 973f
00000150: fdd3 3e3d 4e6d 803e 64dc abbe 4e3b 013f
00000160: dcbc 353f 4879 a43f 275c cd3c 50fb 4dbe
00000170: 3c96 63bc d98a 103f 81d5 45bf bcd7 81bf
00000180: 6dae 383f 785e 13be c9db c3bf 911d 42bf
00000190: c40e 9e3f 3c02 02be 8e5b 18bd f175 173f
000001a0: d254 313f 9cf6 12be 1fb5 423f 5b60 87bd
000001b0: 9c12 22bd 3c28 703f 9532 163f d8a0 34be
000001c0: c6f2 89bf 779f 95bf f33b 0940 af95 99be
000001d0: 2cfe 4d3f ee25 37bf 3f33 70bf 4e61 71be
000001e0: be51 f5bd 633d 853f 162f 1040 0c52 43be
000001f0: 6294 cdbf 2271 d73f 7310 373f e71d 23bf
00000200: 0fd4 58be 974e 563f c8f7 913f f25d ce3e
00000210: 313f 243f 3d3e e1be f1f3 853f 76d8 ed3e
00000220: f89b 58be 8798 75bf 7527 5d3d 72a4 813e
00000230: a5ec 4dbf fe3d 5abf 0f95 0fbf 2c46 8fbf
00000240: c7a7 5b3f b9df eabe dbba 90be 99d2 96bf
00000250: 0c4c 913f f09e 023f 4c2c ae3e bb77 833f
00000260: e42e 36be 2010 883e aae5 5abf 3bf4 f63e
00000270: 26cf 993e df74 4cbf 6f47 333f 0257 553e
00000280: 4312 3a3f 4295 d53e ad6d 883c 1447 2b3f
00000290: 1eed 02bf 344f 043d 4cb8 0b3f 4049 54bc
000002a0: 35a3 8cbf 0ac5 39bb 442e 9c3f 1328 4abf
000002b0: b317 bebe 3b65 16bf 4bdf 7bbe fbcf 01bf
000002c0: 466b bebf 4398 273f 51f7 4f3f fa1f 4f3e
000002d0: c901 233e e8af d7bd 6a77 a0be 78a5 9f3e
000002e0: a12a b8bf 19fa 8f3d 19b1 073e 16d9 c33e
000002f0: 9fe2 3c3f 603e 683e a424 cfbe bc76 1d3c
00000300: a257 3b3f 6ac2 20be d554 88bf 961a 6b3e
00000310: 7707 523e 1525 ff3e 1cc8 7cbf 65c2 2dbf
00000320: fbc0 ca3d 92e4 a53c 5eea d73e a20c fdbe
00000330: 708d e9bc 3573 9c3f 1727 983f ab56 ad3d
00000340: 919d 983e 830c efbf aded 433f 9fa8 20bf
00000350: 1647 14bf 6ffa dbbe 6eff 78bf 8006 e9bf
00000360: 7b6c 783f 2ab1 a4bf e995 fd3d 20ed 25bd
00000370: d89a dfbf 4947 86bf dfe4 313f fd0a c3bd
00000380: 6831 5cbf 5644 6fbd 4c42 3f3f c168 9d3f
00000390: e82c 5abf 2757 8b3e dbe3 693e 59c3 db3d
000003a0: 1244 f5bf 57d5 d5be eb45 e53c b35d 85bf
000003b0: 52bc ae3e a49e f53e 8ac9 793f 836b 43bf
000003c0: 5f5c 05bd 330f 7e3f 0fd9 a73e 6e9d 7f3e
000003d0: be39 82bf 2dc2 ccbe 0978 7c3f 3dde c63f
000003e0: f97f 3cbf ca85 8fbf 7295 84be a7ea 003f
000003f0: 6f9c 9abf 1993 f9be 61f2 22bf f1e4 1e3f

layers.0.bias f4 [128]
0.20306063 0.31197512 0.0066958326 -0.20454676 0.0 -0.18829599 0.046930894 -0.34924895
0.014934706 -0.3416656 0.04619573 0.28843597 -0.371313 0.100399144 0.026834505 0.5122512
0.119455986 0.11953634 0.40585217 -0.5038758 -0.27462387 0.4457216 0.0 0.33225822
0.2971482 0.14707844 0.14507549 0.37150913 0.42952985 0.27386054 -0.56328875 -0.40434536
-0.28139675 0.08956667 0.55075455 0.23200522 0.40896818 0.0 0.077423416 0.0
0.5494354 0.08034346 -0.21610455 0.2766935 0.089028515 -0.3856557 -0.16442968 0.0
-0.2725388 0.0197643 0.3964663 -0.43027037 -0.2836916 0.38388646 0.12028105 0.51063776
0.12540077 0.0 0.0 0.27654663 -0.31992355 -0.42802992 0.34446672 -0.5522192
-0.38285622 0.31328923 0.049296983 0.04665914 0.24153085 0.06717208 -0.24696852 0.0
-0.4438996 0.0 -0.25179318 0.2955368 0.121610045 -0.23580618 0.17333251 0.29096478
0.25686595 -0.46384376 0.2589178 0.107632115 0.0 -0.40750468 0.006635203 0.039334264
0.0 0.0 -0.1525742 0.0 0.31940824 0.41844496 0.19575167 0.0
-0.47047028 0.11550805 0.045576755 0.17988195 0.14740327 -0.4504795 0.20696941 0.0
0.31573915 0.3052958 0.4439903 0.115733564 0.04253368 0.2543895 0.0 0.512898
0.074116826 0.46747565 0.031149024 -0.19357473 0.0 -0.5432054 0.1495469 0.0
-0.36404333 0.08452332 -0.23344287 0.2337527 0.2764979 0.1291686 0.06115942 0.077938534
00000000: 20ef 4f3e 34bb 9f3e b768 db3b b574 51be
00000010: 0000 0000 aad0 40be 9c3a 403d c2d0 b2be
00000020: b2b0 743c cbee aebe bc37 3d3d e1ad 933e
00000030: bd1c bebe 119e cd3d 09d4 db3c e522 033f
00000040: 57a5 f43d 78cf f43d dbcb cf3e 01fe 00bf
00000050: 809b 8cbe 9f35 e43e 0000 0000 c01d aa3e
00000060: cf23 983e bb9b 163e ab8e 143e 7236 be3e
00000070: 56eb db3e 7337 8c3e b133 10bf 5b06 cfbe
00000080: 3c13 90be bb6e b73d 40fe 0c3f c792 6d3e
00000090: 4764 d13e 0000 0000 2b90 9e3d 0000 0000
000000a0: cca7 0c3f 1d8b a43d 834a 5dbe c5aa 8d3e
000000b0: 9554 b63d aa74 c5be 4160 28be 0000 0000
000000c0: 358a 8bbe bee8 a13c a2fd ca3e 664c dcbe
000000d0: 0740 91be c48c c43e e955 f63d 28b9 023f
000000e0: 0f69 003e 0000 0000 0000 0000 8597 8d3e
000000f0: 05cd a3be bd26 dbbe f15d b03e 3d5e 0dbf
00000100: bb05 c4be 7267 a03e a2eb 493d a81d 3f3d
00000110: dd53 773e 8491 893d 51e5 7cbe 0000 0000
00000120: cf46 e3be 0000 0000 09eb 80be 9950 973e
00000130: b00e f93d 2d77 71be 147e 313e 56f9 943e
00000140: ef83 833e ee7c edbe e090 843e 3a6e dc3d
00000150: 0000 0000 74a4 d0be 1e6c d93b f71c 213d
00000160: 0000 0000 0000 0000 693c 1cbe 0000 0000
00000170: 7a89 a33e 6b3e d63e 2073 483e 0000 0000
00000180: 7be1 f0be 7c8f ec3d b1ae 3a3d f932 383e
00000190: e2f0 163e 40a5 e6be caef 533e 0000 0000
000001a0: 90a8 a13e bb4f 9c3e b252 e33e b805 ed3d
000001b0: cc37 2e3d 573f 823e 0000 0000 494d 033f
000001c0: 90ca 973d f858 ef3e 3d2c ff3c 7438 46be
000001d0: 0000 0000 820f 0bbf d322 193e 0000 0000
000001e0: e363 babe 901a ad3d a60b 6fbe de5c 6f3e
000001f0: 2291 8d3e c644 043e 4d82 7a3d 3d9e 9f3d

action_parameters_output_layer.weight f4 [27, 128]
0.00044397527 0.00015908266 0.038975764 -0.0001209841 -0.00015327071 -0.00020021078 -0.015681528 0.00017574677
0.0032966635 -5.96902e-05 -0.0009480759 -3.9174236e-05 1.6644683e-05 6.250263e-05 -0.00016644847 -0.0079682395
-5.150722e-05 0.00016634719 0.0005634573 -7.304506e-05 -0.0005608996 0.039907638 -0.00017586425 0.00045386955
-0.00021969042 0.0051576057 -0.007299378 0.006890694 -0.00030397737 -0.00016654558 0.005921475 -0.00022985876
-0.00020038511 -0.0014253764 0.002849249 -0.009338915 0.025283942 -9.957075e-05 6.7023575e-05 8.3627085e-05
-0.012001434 -0.0036084529 -0.00012376913 -0.00014164158 0.00016111562 -2.9725e-05 -0.0035604443 -0.0001460353
-2.9883413e-05 -0.0051215747 -8.953563e-05 2.3148916e-05 5.6898512e-05 4.455155e-05 -0.0054176813 -2.4917357e-05
0.0022787538 -0.0001235617 -1.2970951e-05 3.3298886e-05 0.00011260644 -0.00024317684 0.00024437942 -3.5667985e-05
-3.940234e-05 2.2253256e-05 -0.023697304 -0.049877305 0.03570196 -0.0012742649 3.0900188e-05 -5.8295434e-05
-8.271477e-05 -4.1643918e-05 -0.00023444768 -0.01197128 0.0021431884 0.0024637715 0.014962464 -7.7359015e-05
-0.061277553 -0.00023440334 4.806739e-06 0.012333656 2.3006045e-05 -4.8366604e-05 0.012337236 -0.0024987974
2.1085887e-05 3.5675872e-05 -3.242918e-05 -2.5808706e-05 0.0001689135 0.0006912145 0.00010235505 -4.321911e-05
-0.000112278765 0.007069748 -0.0052871928 3.532702e-05 0.033546034 0.00033208897 0.00017334864 8.040295e-05
0.0001182061 -0.00019585375 0.03597859 0.00016886045 0.008624214 0.00030571228 0.00021725241 -0.05218667
0.00037681143 -0.011849067 0.0012377516 0.00011867961 2.1936978e-05 -5.736333e-05 -0.014159527 3.5769055e-05
0.0002860628 1.4289772e-05 0.00012120035 0.0003466091 -0.0002809936 -0.023158256 -0.004657627 0.0023417983
-0.0007715937 8.840602e-05 -0.003167593 0.00032309865 -1.0177034e-05 -0.00020702177 -0.008030765 -0.00030284742
-0.040762126 -0.0011290968 -0.01989504 0.00029310366 -0.000127474 0.00025376078 0.00042662493 0.023451466
0.00016123809 -5.8905927e-05 0.055823106 -0.00049067166 0.0012590068 0.01252863 -7.6917975e-05 0.002209691
0.000105850675 0.0065969527 -0.009462375 -0.013222447 0.0061549298 -0.0003352932 -0.029204212 0.00011000367
0.00029021673 -0.0066183666 0.071850926 0.009977972 0.014589938 5.9441118e-05 0.00027605903 -0.00017004141
-0.0026374813 -0.0022012063 -1.8282415e-05 5.951265e-05 -2.1542448e-05 9.1781556e-05 -0.0014589857 3.6622616e-05
-0.00010579348 -0.030682594 0.00047216256 -0.0007432172 -0.00058808865 0.00041545185 0.0031119143 0.0063507524
-0.0132121015 2.2824714e-05 3.977007e-05 0.00021853129 -0.0003968233 -0.00015036487 0.00035005028 -0.0015161785
-8.5152475e-05 0.00035682978 0.0086237285 -0.0025450944 -0.0023296524 0.0060613714 0.0002838066 -3.2831445e-05
0.00014631973 4.791271e-05 0.0003046146 -0.0016728663 0.023288341 0.002129141 0.025550844 0.0005385932
-0.0043266225 -0.00025563157 0.00016405186 0.028361533 0.00010201199 0.00037916683 -0.017124843 -0.0011618254
-4.9061626e-05 -2.8380382e-05 0.0003281618 3.0150737e-05 -0.00019277727 0.008430314 -6.488266e-05 5.0395218e-05
-0.00041318565 0.00842512 -0.0059175673 0.0005508495 -0.0058220117 -0.0012900118 -0.00042858886 2.633939e-05
0.00018799811 0.0006478 0.008305444 3.2244843e-05 0.045575257 0.005507771 2.62871e-05 0.052607715
-0.010314554 0.012450824 0.027953355 -0.00047593575 5.511657e-05 -0.0012657393 -0.010792193 -2.4707731e-05
-0.0031640364 0.00022019389 -0.00012690859 -0.00068011484 0.00054551335 -0.025409091 0.00051412365 0.025687134
00000000: 5ac5 e839 6dcf 2639 0da5 1f3d d8b8 fdb8
00000010: 4bb7 20b9 acef 51b9 8c76 80bc aa48 3839
00000020: d60c 583b dd5b 7ab8 4c88 78ba 044f 24b8
00000030: 2fa0 8b37 d813 8338 ac88 2eb9 388d 02bc
00000040: 7509 58b8 7c6d 2e39 fbb4 133a c52f 99b8
00000050: 5609 13ba 3176 233d 3368 38b9 57f5 ed39
00000060: b35c 66b9 2201 a93b 9f2f efbb 55cb e13b
00000070: 275f 9fb9 bda2 2eb9 ef08 c23b 3e06 71b9
00000080: 781e 52b9 b2d3 baba 77ba 3a3b 4002 19bc
00000090: 4520 cf3c a4d0 d0b8 028f 8c38 f360 af38
000000a0: aaa1 44bc cb7b 6cbb 06c8 01b9 9f85 14b9
000000b0: 25f1 2839 f459 f9b7 5856 69bb 0d21 19b9
000000c0: 24ae fab7 e2d2 a7bb 13c5 bbb8 eb2f c237
000000d0: 50a6 6e38 dddc 3a38 ce86 b1bb 9e05 d1b7
000000e0: 2557 153b 5790 01b9 cf9d 59b7 68aa 0b38
000000f0: 1f27 ec38 49fd 7eb9 0d20 8039 359a 15b8
00000100: f143 25b8 81ac ba37 d920 c2bc 254c 4cbd
00000110: 383c 123d 3c05 a7ba d39a 0138 3f82 74b8
00000120: 2777 adb8 d1aa 2eb8 12d6 75b9 3023 44bc
00000130: bc74 0c3b 3a77 213b 1f25 753c ce3b a2b8
00000140: 2cfe 7abd 2bca 75b9 9349 a136 1a13 4a3c
00000150: 1bfd c037 3fdd 4ab8 1e22 4a3c ddc2 23bb
00000160: 99e1 b037 ada2 1538 9104 08b8 c67f d8b7
00000170: 5f1e 3139 9f32 353a 73a7 d638 2a46 35b8
00000180: 3477 ebb8 58a9 e73b 3040 adbb 192c 1438
00000190: 9167 093d 3a1c ae39 ecc4 3539 019e a838
000001a0: 6be5 f738 175e 4db9 495e 133d 2210 3139
000001b0: 934c 0d3c 0248 a039 40ce 6339 b1c1 55bd
000001c0: c68e c539 9722 42bc 0d3c a23a a1e3 f838
000001d0: 4d05 b837 6899 70b8 5cfd 67bc bb06 1638
000001e0: b3fa 9539 1abe 6f37 f12c fe38 16b9 b539
000001f0: 5352 93b9 62b6 bdbc 029f 98bb db78 193b
00000200: c744 4aba 9f66 b938 6497 4fbb 9165 a939
00000210: 07be 2ab7 fc13 59b9 7893 03bc 7ec7 9eb9
00000220: 30f6 26bd 34fe 93ba ecfa a2bc b5ab 9939
00000230: 8baa 05b9 320b 8539 a1ac df39 4a1d c03c
00000240: 0512 2939 c211 77b8 c5a6 643d 6ba0 00ba
00000250: 4205 a53a e244 4d3c 064f a1b8 77d0 103b
00000260: 26fc dd38 402b d83b 1408 1bbc f6a2 58bc
00000270: 4baf c93b 4bca afb9 ac3d efbc c5b1 e638
00000280: 3b28 9839 e2de d8bb 9426 933d a67a 233c
00000290: a30a 6f3c 6a50 7938 04bc 9039 254d 32b9
000002a0: 98d9 2cbb 1d42 10bb 305d 99b7 399d 7938
000002b0: 0eb6 b4b7 d97a c038 703b bfba 3c9b 1938
000002c0: 71dd ddb8 105a fbbc 968c f739 76d4 42ba
000002d0: f629 1aba 01d1 d939 42f1 4b3b f919 d03b
000002e0: 9277 58bc b377 bf37 cace 2638 8c25 6539
000002f0: b90c d0b9 43ab 1db9 f486 b739 82ba c6ba
00000300: e393 b2b8 e214 bb39 8a4a 0d3c 99cb 26bb
00000310: 15ad 18bb 789e c63b e1cb 9439 7fb4 09b8
00000320: 676d 1939 e1f5 4838 aeb4 9f39 1444 dbba
00000330: 31c7 be3c 0f89 0b3b 0150 d13c 6130 0d3a
00000340: 57c6 8dbb 4a06 86b9 5605 2c39 7256 e83c
00000350: 45ef d538 e9ca c639 6649 8cbc 6448 98ba
00000360: 85c7 4db8 6812 eeb7 220d ac39 37ec fc37
00000370: 4124 4ab9 4d1f 0a3c 9d11 88b8 745f 5338
00000380: d7a0 d8b9 8409 0a3c 27e8 c1bb e266 103a
00000390: 93c6 bebb 9d15 a9ba 39b4 e0b9 69f3 dc37
000003a0: 5c21 4539 1fd1 293a 8f13 083c a33e 0738
000003b0: 1fad 3a3d 887a b43b 1e83 dc37 307b 573d
000003c0: 60fe 28bc 8afe 4b3c 6ffe e43c 0487 f9b9
000003d0: f72c 6738 2ae7 a5ba bdd1 30bc 7343 cfb7
000003e0: b95b 4fbb d9e3 6639 c412 05b9 bc49 32ba
000003f0: c800 0f3a ba26 d0bc 41c6 063a d36d d23c

action_parameters_output_layer.bias f4 [27]
-0.0012172201 0.16822399 0.112119764 0.0147691015 0.038915284 0.23429714 0.032325413 0.1103552
-0.01905158 0.0010518591 0.025912173 -0.011291461 0.058533654 0.034059998 0.26804662 0.03181288
0.05964137 0.07787303 0.016115729 0.31246555 0.023646146 0.03244527 0.18270394 0.042267602
0.0015428562 0.17686836 0.16486509
00000000: 218b 9fba e942 2c3e 0c9f e53d 1afa 713c
00000010: a265 1f3d 97eb 6f3e a767 043d e801 e23d
00000020: 0f12 9cbc 89de 893a c445 d43c d2ff 38bc
00000030: fcc0 6f3d 7f82 0b3d 683d 893e 394e 023d
00000040: 824a 743d e57b 9f3d 2205 843c 7cfb 9f3e
00000050: 90b5 c13c 55e5 043d be16 3b3e cb20 2d3d
00000060: aa39 ca3a fb1c 353e 65d2 283e

action_parameters_passthrough_layer.weight f4 [27, 3]
0.0 0.0 0.0 0.0 0.0 0.0 0.0 0.0
0.0 0.0 0.0 0.0 0.0 0.0 0.0 0.0
0.0 0.0 0.0 0.0 0.0 0.0 0.0 0.0
0.0 0.0 0.0 0.0 0.0 0.0 0.0 0.0
0.0 0.0 0.0 0.0 0.0 0.0 0.0 0.0
0.0 0.0 0.0 0.0 0.0 0.0 0.0 0.0
0.0 0.0 0.0 0.0 0.0 0.0 0.0 0.0
0.0 0.0 0.0 0.0 0.0 0.0 0.0 0.0
0.0 0.0 0.0 0.0 0.0 0.0 0.0 0.0
0.0 0.0 0.0 0.0 0.0 0.0 0.0 0.0
0.0
00000000: 0000 0000 0000 0000 0000 0000 0000 0000
00000010: 0000 0000 0000 0000 0000 0000 0000 0000
00000020: 0000 0000 0000 0000 0000 0000 0000 0000
00000030: 0000 0000 0000 0000 0000 0000 0000 0000
00000040: 0000 0000 0000 0000 0000 0000 0000 0000
00000050: 0000 0000 0000 0000 0000 0000 0000 0000
00000060: 0000 0000 0000 0000 0000 0000 0000 0000
00000070: 0000 0000 0000 0000 0000 0000 0000 0000
00000080: 0000 0000 0000 0000 0000 0000 0000 0000
00000090: 0000 0000 0000 0000 0000 0000 0000 0000
000000a0: 0000 0000 0000 0000 0000 0000 0000 0000
000000b0: 0000 0000 0000 0000 0000 0000 0000 0000
000000c0: 0000 0000 0000 0000 0000 0000 0000 0000
000000d0: 0000 0000 0000 0000 0000 0000 0000 0000
000000e0: 0000 0000 0000 0000 0000 0000 0000 0000
000000f0: 0000 0000 0000 0000 0000 0000 0000 0000
00000100: 0000 0000 0000 0000 0000 0000 0000 0000
00000110: 0000 0000 0000 0000 0000 0000 0000 0000
00000120: 0000 0000 0000 0000 0000 0000 0000 0000
00000130: 0000 0000 0000 0000 0000 0000 0000 0000
00000140: 0000 0000

action_parameters_passthrough_layer.bias f4 [27]
0.0 0.0 0.0 0.0 0.0 0.0 0.0 0.0
0.0 0.0 0.0 0.0 0.0 0.0 0.0 0.0
0.0 0.0 0.0 0.0 0.0 0.0 0.0 0.0
0.0 0.0 0.0
00000000: 0000 0000 0000 0000 0000 0000 0000 0000
00000010: 0000 0000 0000 0000 0000 0000 0000 0000
00000020: 0000 0000 0000 0000 0000 0000 0000 0000
00000030: 0000 0000 0000 0000 0000 0000 0000 0000
00000040: 0000 0000 0000 0000 0000 0000 0000 0000
00000050: 0000 0000 0000 0000 0000 0000 0000 0000
00000060: 0000 0000 0000 0000 0000 0000
