RL4E2E/results/pptod/2.0k1/episode_3000/actor_param.pt (torch, 18917 bytes, 6 tensors)

layers.0.weight f4 [128, 3]
00000000: eef0 113e 170f 1dbe e5d5 cb3f 54f8 5b3e
00000010: 0940 4f3f c08d 023f 6230 173d 1f76 8bbe
00000020: 4068 99bf 4fbe 913f 2741 b9bf 8c83 1dbf
00000030: 748c 08c0 c767 9ebe 5377 f1be 79fb ed3d
00000040: 3ee2 aa3e 33b8 70bf cbf0 b8be a78c 4abf
00000050: 309a de3e c25f 263f bc06 9ebf c260 223f
00000060: cdc2 03bf 53fa 813f 38ba 283f b5bc d23d
00000070: ceed b93d 0d6c adbe 0353 47be f26e 70bf
00000080: a863 803e eddd f43e 3ec0 293e ba28 36be
00000090: 1f78 593f 393e debf 9c5c 203f 4bb6 0340
000000a0: 02d3 58be 1f5a 9dbe 6dc6 453f 55df a03e
000000b0: 50d6 bcbf 92df 33bc 8f3a a73e 8392 1d3f
000000c0: 12a4 9e3f 4332 a5be 3db0 15bf 6229 7a3f
000000d0: 03bc f83d 2baa dc3e 420c 9fbe 5c32 ac3f
000000e0: 6219 b53f 3dbb b13e bf94 bfbe 05e4 97be
000000f0: 0841 153e 5581 e5be 3991 eebf ab0b 28bd
00000100: 1396 3e3f b555 213f dd0d efbe d461 2bbf
00000110: bd58 04bf 0f85 f03c 98c1 5cbd 3f09 0d3f
00000120: 644c 023f 46ee f63e 9180 c03e b4b7 233c
00000130: d740 383f ad33 99be 81cd c2bd 55ce 65be
00000140: 5030 d33f 8613 a8bd 7cf0 cd3f 4cbf 9d3f
00000150: ffce 3a3d 9d41 2a3e a27b b0be 586d cb3e
00000160: 2d4c 1f3f ebc9 983f 66cf e23c ff79 08be
00000170: 2204 333d f2d1 dd3e b3bc 66bf 5d05 92bf
00000180: ab13 193f 79c4 8cbe 0193 d3bf 180f 83be
00000190: 0a7e c43f 7e23 3c3c 9fe7 cabc 5b75 0e3f
000001a0: 133a 2a3f ed66 08bd 4736 593f 7b53 f0bd
000001b0: 728e 10bd 462c 6a3f b21e 123f d8a0 34be
000001c0: c6f2 89bf 779f 95bf caa0 fd3f 3b71 febe
000001d0: 16ce 223f ee25 37bf 3f33 70bf 4e61 71be
000001e0: 3587 f3bd f737 8c3f 647d 0d40 7df2 8f3a
000001f0: 5da2 d5bf f467 df3f 32e3 133f bfb1 4cbf
00000200: fbd5 b2be 8ccd 363f 8db0 823f a586 953e
00000210: e734 0d3f bb15 10bf 04dd 713f 056f b83e
00000220: 5dc3 89be 3fa2 84bf bd6e 733d afba 8c3e
00000230: a520 46bf fe3d 5abf 0f95 0fbf 2c46 8fbf
00000240: 2a44 fc3e acd6 3cbf 054f 1abf 7277 96bf
00000250: a134 913f 3232 093f 6b04 8a3e abcc 693f
00000260: 483d 87be 12e0 5b3e c21a 54bf 0b7d e73e
00000270: e9d2 763e 0fcc 54bf f671 253f 53ee 0e3e
00000280: 68fd 163f 5514 a43e 4839 3d3c 519e 2c3f
00000290: 0da7 10bf a8bc ce3c c808 ef3e 7fce 46bd
000002a0: fb17 42bf 80fd 893d 76f4 b43f 1328 4abf
000002b0: b317 bebe 3b65 16bf 4bdf 7bbe fbcf 01bf
000002c0: 466b bebf 3a93 f03e 40b3 183f 6451 443c
000002d0: f9e5 f33d 3898 a5bd 6bd6 a5be cd9f 8a3e
000002e0: ef26 bebf 9170 993c bc32 ba3d cb26 8f3e
000002f0: f670 2a3f 0463 4a3e 0539 bcbe e8bd 653c
00000300: 41ea 193f ae95 7bbe e1e6 93bf 2067 3f3e
00000310: 67dd d23d 8a5f dd3e b94f 94bf f42d 17bf
00000320: c3fb 133e ca7f bc3c 2af1 f73e 94e9 e9be
00000330: ace5 efbc c648 9d3f 588e 993f 1f14 a73d
00000340: 0002 6f3e 661e f1bf 0eb8 263f 911b 48bf
00000350: a205 33bf 6ffa dbbe 6eff 78bf 8006 e9bf
00000360: 8f59 523f ad30 b5bf 5a5e e2bc 20ed 25bd
00000370: d89a dfbf 4947 86bf 0175 083f 0c4e 70be
00000380: 57f8 7cbf bbf6 44bd 9c72 453f 7de4 9b3f
00000390: 4902 4bbf 14af 873e 364c 983e 751a c23d
000003a0: 9168 fabf e4c8 ddbe 0fe0 eb3b 87c5 8fbf
000003b0: c60c af3e 6713 cd3e 970e 5d3f 7a20 59bf
000003c0: 8eca f6bc a02b 7f3f f4e1 a23e 64b1 4c3e
000003d0: 1a6d 85bf 5f0e dfbe 4a5f 683f c595 bc3f
000003e0: 935c 4dbf a044 87bf af01 f1bd 4b74 123f
000003f0: 6f9c 9abf 1993 f9be 61f2 22bf 4cbc 083f
0.14252064 -0.15337788 1.592465 0.21481448 0.80957085 0.50997543 0.036911376 -0.27238557
-1.198494 1.1386203 -1.4473008 -0.6152885 -2.1335726 -0.3093855 -0.4716135 0.1162023
0.33375734 -0.94031066 -0.3612121 -0.7912087 0.4347701 0.64989865 -1.2345805 0.6342889
-0.5146912 1.0154518 0.6590915 0.10289899 0.09078561 -0.338715 -0.1946526 -0.9391929
0.25076032 0.47825566 0.16577241 -0.17788973 0.84948915 -1.7362739 0.6264131 2.0580013
-0.21174243 -0.3073282 0.772559 0.3142039 -1.4752903 -0.010978596 0.32661864 0.61551684
1.239382 -0.3226491 -0.58472043 0.97719395 0.121452354 0.43098578 -0.3106404 1.3452868
1.4148371 0.34713164 -0.37418172 -0.29666153 0.14575589 -0.44825235 -1.8638068 -0.041026752
0.74447745 0.63021404 -0.46690264 -0.6694615 -0.51697904 0.029360322 -0.053895563 0.55092233
0.5089781 0.48228663 0.37598088 0.009992529 0.7197394 -0.29922238 -0.09511853 -0.2244199
1.6499119 -0.08206849 1.6089015 1.2324004 0.045607563 0.16626592 -0.34469324 0.3973186
0.6222561 1.193662 0.027686786 -0.13327788 0.043705113 0.43324238 -0.9013168 -1.1407887
0.59795636 -0.27493647 -1.6529237 -0.25597453 1.5350964 0.011483071 -0.024768649 0.5564782
0.66494864 -0.033301283 0.84848446 -0.11734673 -0.035292096 0.91473806 0.5707809 -0.17639482
-1.0777214 -1.168929 1.9814694 -0.49695763 0.6359571 -0.7154225 -0.93828195 -0.23572275
-0.11891023 1.0954579 2.2107782 0.0010982301 -1.6690174 1.7453599 0.5776855 -0.7995872
-0.3492888 0.7140739 1.0210129 0.29204288 0.5515885 -0.5628316 0.9447787 0.360222
-0.26906863 -1.0362014 0.05943178 0.27486178 -0.7739356 -0.8525084 -0.5608682 -1.119329
0.49270755 -0.73765063 -0.60276824 -1.1755202 1.1344186 0.53592217 0.26956496 0.91327924
-0.2641394 0.21472195 -0.8285333 0.45212588 0.24103893 -0.8312387 0.64627016 0.13958101
0.5898042 0.32046762 0.011549301 0.6742907 -0.565049 0.025236443 0.46686387 -0.048536774
-0.7581784 0.067378044 1.4137104 -0.789674 -0.37127456 -0.58748215 -0.24596898 -0.5070798
-1.4876487 0.46987325 0.59648514 0.011982296 0.11909098 -0.08085674 -0.3239015 0.27075043
-1.4855632 0.018730434 0.09091708 0.27959284 0.66578615 0.19764334 -0.36762252 0.014022328
0.6012307 -0.24568817 -1.1554834 0.18691683 0.102961354 0.43236953 -1.158683 -0.59054494
0.14451508 0.023010153 0.4842618 -0.45686018 -0.02928432 1.2287834 1.1996565 0.08158135
0.23340607 -1.8837402 0.65124595 -0.78167063 -0.6993047 -0.42964503 -0.97264755 -1.8205109
0.82167906 -1.415548 -0.027632881 -0.040509343 -1.746913 -1.0490505 0.53303534 -0.23467273
-0.98816437 -0.048086863 0.77128005 1.2179104 -0.7930036 0.26500762 0.29745644 0.094777025
-1.9563161 -0.4331733 0.0071983407 -1.1232156 0.34189433 0.40053865 0.8635039 -0.8481518
-0.030125882 0.9967594 0.31813014 0.19989544 -1.042392 -0.43565652 0.907704 1.4733206
-0.8021938 -1.0567818 -0.11767899 0.572087 -1.207899 -0.4874504 -0.6365109 0.5341232

layers.0.bias f4 [128]
00000000: b711 9f3e c605 af3e 1507 cb3d 183e e7bc
00000010: 0000 0000 5e69 d3be 08a6 4f3c 6833 f0be
00000020: 42a9 263e 4bb7 38bf 25af 25bd edd7 2f3f
00000030: 688a b6be 705d 9a3e 68df ef3d 34cc 4c3f
00000040: b153 bb3e e958 093e b683 4a3f a5e9 80bf
00000050: d2ee cabe 6fd6 823f 0000 0000 8513 273f
00000060: 8288 053f 5fb0 d23d 3ff2 f83c 17fd 293f
00000070: d276 523f fefc 033e 0a6d 55bf 7dcb ecbe
00000080: 361b aebe 4f71 bb3e 19dd 5e3f 4955 6d3e
00000090: 89a9 3e3f 0000 0000 c16e 7a3e 0000 0000
000000a0: c9fe 753f 066a d6bd 78f9 79be a880 4a3e
000000b0: 967e 6f3e 2605 41bf 701c 93be 0000 0000
000000c0: 1061 80bf 59ee 953c a82e 273f b380 51bf
000000d0: ae25 f0be fcff 553f 094d 453e 2ad4 683f
000000e0: b09a b03e 0000 0000 0000 0000 a91f 003f
000000f0: 4983 50bf fd67 03bf aee2 3d3f aef0 77bf
00000100: e01a 3bbf 7bf8 253f 1678 263e 9414 243d
00000110: 74a4 ee3d e9b8 793e 6f75 12be 0000 0000
00000120: 4f2b 1ebf 0000 0000 a3a7 0abf 0e64 d03e
00000130: f7cd 243e 65ae 05be 1e47 d03e f855 ed3e
00000140: d26e 4c3e 6925 42bf 7534 563e 23ad 563e
00000150: 0000 0000 e0b2 b4be 852f 033d ae03 5b3e
00000160: 0000 0000 0000 0000 7458 873c 0000 0000
00000170: 1c6a 6c3e 0ec6 413f 322b 243d 0000 0000
00000180: 079f 61bf fec1 643e e53b 7e3d 1344 f53e
00000190: b9da a23e b7d6 62bf eb67 9c3e 0000 0000
000001a0: 3c42 1b3f c384 313f f748 193f 2959 b93d
000001b0: cc4c c73d 56c0 1a3f 0000 0000 5274 233f
000001c0: ec54 7c3e 2aba c23e e7a1 f73d 9e03 c1be
000001d0: 0000 0000 718d 6cbf 0d8d 073e 0000 0000
000001e0: e01f 4bbf f08b af3e fcb6 3cbf fe18 793e
000001f0: 1755 583e 761a 513c 28a2 053e 09eb d33d
0.31068203 0.34184092 0.0991346 -0.02822785 0.0 -0.41291326 0.012673862 -0.4691422
0.16275504 -0.7215468 -0.040450234 0.6868885 -0.3565247 0.30149412 0.11712533 0.7999909
0.3658729 0.13412823 0.79107225 -1.0071303 -0.3963533 1.022169 0.0 0.6526416
0.5216142 0.10287546 0.03038895 0.6640181 0.82212555 0.12889478 -0.83369505 -0.46249
-0.34005135 0.36609885 0.8705612 0.23177065 0.7447744 0.0 0.24456312 0.0
0.96091896 -0.10469441 -0.24411571 0.19775641 0.23388132 -0.7539848 -0.28732634 0.0
-1.0029621 0.01830213 0.65305567 -0.81837004 -0.46903747 0.83593726 0.19267668 0.90948737
0.34493017 0.0 0.0 0.5004831 -0.81450325 -0.5133055 0.7417401 -0.96851623
-0.73087883 0.64832276 0.16256747 0.040058687 0.11652461 0.24386944 -0.1430261 0.0
-0.61784834 0.0 -0.54162043 0.40701336 0.16094194 -0.13054807 0.40679258 0.4635465
0.1996415 -0.75838333 0.20918448 0.20964484 0.0 -0.3529272 0.03202774 0.21388122
0.0 0.0 0.01652167 0.0 0.23087353 0.7569283 0.040080257 0.0
-0.8813328 0.22339627 0.06206884 0.479035 0.31807497 -0.8860888 0.30548033 0.0
0.6064794 0.69343203 0.5987696 0.09050209 0.09731445 0.6044973 0.0 0.63849366
0.2464177 0.38032657 0.12091427 -0.37698072 0.0 -0.9240332 0.132374 0.0
-0.7934551 0.3428645 -0.7371671 0.2432594 0.21126209 0.012762656 0.13050139 0.10347564

action_parameters_output_layer.weight f4 [27, 128]
00000000: 292e 2439 5911 c5b9 72a3 003d 4264 243a
00000010: 4bb7 20b9 91a4 5eb9 3f91 933b daee eb38
00000020: 34c9 ac3c c0e7 b5bb 4231 383c 9223 953a
00000030: af03 d539 c02b a939 0def b039 ffaa 403c
00000040: 4720 fb39 7223 f338 30a6 3abc b0d0 01bb
00000050: 5dda 4c39 5442 b23d 3368 38b9 f679 173c
00000060: c2bd a638 ef47 90bb ebb8 e3ba 7055 973c
00000070: 90be 983c b28f 8cba 85fe bdbc a29e 3e3a
00000080: 99f4 0d3a 16b5 6a3d ea3e cb3c 0f73 1ebd
00000090: bb10 6f3d a4d0 d0b8 947d 8039 f360 af38
000000a0: 8d7e 99bc f89a 79bc 93a0 4f39 129f 0cba
000000b0: f662 053a 8890 a2b9 6c2a 4bbb 0d21 19b9
000000c0: 0207 4eba 3f19 77bc f6d0 4d3a 7a1f efba
000000d0: 1fd0 3bba bb78 0b3b 1220 38bc a2f6 833c
000000e0: 1a10 d73c 5790 01b9 cf9d 59b7 8254 c539
000000f0: 6af8 98bb f6ae 543a 8bd6 303b bda8 76bb
00000100: dbae 9cb9 fad0 fb3a dc06 513d 664e 66bd
00000110: 40ea 7d3c 9f24 153c 0ff6 223a 3f82 74b8
00000120: 5ec0 f6b5 d1aa 2eb8 6348 aeb9 1719 93bc
00000130: 4782 873b 4474 1e3c 0867 e63c 4d89 1e3a
00000140: d6b8 3abd fab3 93ba 3115 71b9 6c98 523c
00000150: 1bfd c037 c163 bb3a 3047 f33b eb54 603c
00000160: 99e1 b037 ada2 1538 00a7 183a c67f d8b7
00000170: 12e9 7dba b68e c43c cf9a efb9 2a46 35b8
00000180: 6e6b b2ba bab2 9d3b c859 a4bb eaae d23a
00000190: f925 893d 93f6 f9bb 89d4 3c37 019e a838
000001a0: d224 243a 81c3 dc3a f797 453d 6b0d cbb7
000001b0: 39b1 b83d 0b9e 133d 40ce 6339 f3db 40bc
000001c0: c788 d1bc 7d12 d9bc ed47 f83c 467f 24ba
000001d0: 4d05 b837 176f 29bb 92e3 4dbd bb06 1638
000001e0: b3ec 18bc b0f6 2d3a ea0d c2ba 4ca2 30ba
000001f0: 7e47 abba 72c1 debc 5679 7a3c f736 a63c
00000200: 4696 e7ba 1402 a2b9 da00 02bb ca22 613a
00000210: 07be 2ab7 115d 20bb 9783 c3b9 cd0c e8b9
00000220: 08d8 3fbc c6a2 98bb dfeb 203c d04c 623a
00000230: 1b93 bbb7 154c ce39 a393 903a fd1a 303d
00000240: d394 083a dc80 23b9 c005 17bd 295c acba
00000250: 2715 bebb cb34 db3c 064f a1b8 12cc c03b
00000260: 4f1f f038 f3a6 43bc f0f2 10bd a768 883b
00000270: fc25 883c f216 75ba 4595 6abd f4db c639
00000280: 6750 4b3a ec32 61bd ce85 c63d fc51 633d
00000290: b4c2 083c 6a50 7938 4a5d b939 254d 32b9
000002a0: 71b7 943c 5cd6 d1bc 736e 5f39 5da8 feb8
000002b0: dffc be38 4a5d 87b8 b2b2 13bc 3c9b 1938
000002c0: 69aa d7b6 5e14 08bc 7019 9e3a 6bf9 10bb
000002d0: d0ba a9ba fe52 543a 52c1 acbc d841 7e3c
000002e0: 55ed 823b b377 bf37 cace 2638 852e 9639
000002f0: 73d9 36bb b8c3 c5ba 2424 293a d7b6 7dbb
00000300: 53f3 dd38 f0ca 883a f4c7 213d 2c8d 7fbc
00000310: 42ef a4bc 758b e33b 5f1f 483a 7fb4 09b8
00000320: 1682 8e38 e1f5 4838 220e 1d3a 4ff3 b2bc
00000330: 5e8e 8d3c 4484 993c 0e26 3c3c 7c90 bd3a
00000340: 992e f4bc dca0 10bb 77f9 ce39 e519 9a3c
00000350: 45ef d538 a03f 713a 83ad 46bd 8707 e3bc
00000360: 85c7 4db8 6812 eeb7 4647 433a 37ec fc37
00000370: ee87 55ba c799 aa3c 5a36 99b9 745f 5338
00000380: 44be 6cba 2afe c2bc c33d b03c fed0 e23a
00000390: fc07 e7bc fadd 92bb 6072 85ba 69f3 dc37
000003a0: 6d32 0c39 5e56 013b fc22 1e3a c764 4fb9
000003b0: 332a 3cbe ada4 433c 1e83 dc37 8333 bc3d
000003c0: 1a4f 1e3d c182 1bbb f57f f33d 28c6 88ba
000003d0: f72c 6738 3595 62bb 1096 ebbc 7343 cfb7
000003e0: b83c 12bc 2571 4f3a f2f2 46ba 4d94 f0ba
000003f0: e98d 36ba 0a76 7fbd 979e c5bc 52eb 9c3d
0.00015657455 -0.00037587693 0.031405874 0.0006271043 -0.00015327071 -0.00021232876 0.0045033987 0.00011250163
0.021092035 -0.0055513084 0.011242213 0.0011378399 0.0004062927 0.00032266788 0.00033747443 0.011759519
0.000478985 0.00011593745 -0.011392161 -0.0019808225 0.00019536303 0.08704057 -0.00017586425 0.009245386
7.950842e-05 -0.0044031064 -0.0017373835 0.018473357 0.018645555 -0.0010723977 -0.023192653 0.0007271563
0.0005415171 0.057301603 0.024810273 -0.038683947 0.058365565 -9.957075e-05 0.00024507625 8.3627085e-05
-0.018737102 -0.015234701 0.00019800877 -0.00053642795 0.00050882937 -0.00031006732 -0.0031000627 -0.0001460353
-0.00078593206 -0.015081703 0.0007851267 -0.0018243634 -0.00071644963 0.0021281678 -0.011238115 0.016108815
0.026252795 -0.0001235617 -1.2970951e-05 0.0003763773 -0.004668285 0.00081132294 0.0026983346 -0.0037637197
-0.00029884916 0.001921206 0.051031932 -0.05622711 0.015497744 0.009102969 0.0006216475 -5.8295434e-05
-1.8384414e-06 -4.1643918e-05 -0.00033241799 -0.0179563 0.0041354033 0.009671275 0.028125301 0.0006047681
-0.04558643 -0.0011268847 -0.00022991445 0.012853723 2.3006045e-05 0.0014296697 0.0074242577 0.013692121
2.1085887e-05 3.5675872e-05 0.0005823225 -2.5808706e-05 -0.0009685914 0.023993831 -0.00045700974 -4.321911e-05
-0.0013612339 0.0048125656 -0.0050155856 0.0016073857 0.06696696 -0.007628271 1.1255158e-05 8.040295e-05
0.000626159 0.0016842933 0.048240628 -2.4205734e-05 0.090181775 0.036039393 0.00021725241 -0.01177119
-0.025577916 -0.026498074 0.030307734 -0.0006275069 2.1936978e-05 -0.0025853568 -0.050265856 3.5769055e-05
-0.009333777 0.00066361856 -0.0014805172 -0.00067380513 -0.0013067571 -0.027191851 0.015287718 0.020289881
-0.0017668686 -0.00030900596 -0.0019836933 0.0008588253 -1.0177034e-05 -0.0024469534 -0.0003729134 -0.00044260026
-0.011709221 -0.004658076 0.009821861 0.0008632662 -2.2360638e-05 0.00039348067 0.0011030327 0.042994488
0.0005210165 -0.00015592895 -0.036870718 -0.0013150024 -0.0058008614 0.026758572 -7.6917975e-05 0.005883702
0.000114499235 -0.011941659 -0.035387933 0.004162866 0.016619675 -0.00093494274 -0.05727126 0.0003792938
0.00077558163 -0.054980204 0.0969349 0.05549811 0.008347202 5.9441118e-05 0.00035355455 -0.00017004141
0.018153878 -0.02561491 0.00021308083 -0.00012143024 9.107007e-05 -6.454678e-05 -0.009014772 3.6622616e-05
-6.4273377e-06 -0.008305637 0.0012062024 -0.002212132 -0.0012949351 0.0008099525 -0.021088276 0.015518628
0.0039955773 2.2824714e-05 3.977007e-05 0.0002864489 -0.0027900606 -0.0015088236 0.0006452224 -0.0038713717
0.00010583424 0.0010436457 0.03949733 -0.015597623 -0.020133618 0.006944115 0.0007634069 -3.2831445e-05
6.795318e-05 4.791271e-05 0.00059911807 -0.021844534 0.0172798 0.018739827 0.011483682 0.0014462615
-0.029807376 -0.0022068536 0.00039477248 0.018811176 0.00010201199 0.0009202901 -0.048505317 -0.02771355
-4.9061626e-05 -2.8380382e-05 0.000744928 3.0150737e-05 -0.000814556 0.02082528 -0.0002922293 5.0395218e-05
-0.00090310373 -0.023802835 0.021513825 0.0017304716 -0.02820205 -0.004482028 -0.0010181181 2.633939e-05
0.00013370225 0.0019735317 0.0006032435 -0.00019778601 -0.18375473 0.011941117 2.62871e-05 0.091895126
0.038649656 -0.0023729058 0.1188964 -0.0010435032 5.511657e-05 -0.0034573798 -0.028758079 -2.4707731e-05
-0.008925609 0.0007913283 -0.0007589302 -0.0018354744 -0.0006963895 -0.06236843 -0.024123473 0.07662071

action_parameters_output_layer.bias f4 [27]
00000000: 073b 0b3e 6aed 973e 7ff6 483e d1af 4abc
00000010: 9186 6e3e 8d97 af3e 991e 143e 1451 093e
00000020: c9b0 5d3d 0aba db3d 2898 953d 2030 ba3d
00000030: c588 f93d 1478 073e 3cd4 893e a5ff 143d
00000040: 8961 273e fbc3 3a3e d029 1c3e ed48 943e
00000050: 451f 413d 155a 053e 1e93 853e 2aac 043e
00000060: 3301 f43d 231b 4f3e 57ff 8b3e
0.13596736 0.2967332 0.19625281 -0.012371019 0.2329352 0.34295312 0.14464797 0.13409835
0.054123674 0.107288435 0.07304412 0.0909121 0.1218429 0.132294 0.26919734 0.036376614
0.163458 0.18238823 0.15250325 0.28961888 0.04714896 0.13022645 0.26088804 0.129563
0.11914291 0.20225196 0.27343246

action_parameters_passthrough_layer.weight f4 [27, 3]
00000000: 0000 0000 0000 0000 0000 0000 0000 0000
00000010: 0000 0000 0000 0000 0000 0000 0000 0000
00000020: 0000 0000 0000 0000 0000 0000 0000 0000
00000030: 0000 0000 0000 0000 0000 0000 0000 0000
00000040: 0000 0000 0000 0000 0000 0000 0000 0000
00000050: 0000 0000 0000 0000 0000 0000 0000 0000
00000060: 0000 0000 0000 0000 0000 0000 0000 0000
00000070: 0000 0000 0000 0000 0000 0000 0000 0000
00000080: 0000 0000 0000 0000 0000 0000 0000 0000
00000090: 0000 0000 0000 0000 0000 0000 0000 0000
000000a0: 0000 0000 0000 0000 0000 0000 0000 0000
000000b0: 0000 0000 0000 0000 0000 0000 0000 0000
000000c0: 0000 0000 0000 0000 0000 0000 0000 0000
000000d0: 0000 0000 0000 0000 0000 0000 0000 0000
000000e0: 0000 0000 0000 0000 0000 0000 0000 0000
000000f0: 0000 0000 0000 0000 0000 0000 0000 0000
00000100: 0000 0000 0000 0000 0000 0000 0000 0000
00000110: 0000 0000 0000 0000 0000 0000 0000 0000
00000120: 0000 0000 0000 0000 0000 0000 0000 0000
00000130: 0000 0000 0000 0000 0000 0000 0000 0000
00000140: 0000 0000
0.0 0.0 0.0 0.0 0.0 0.0 0.0 0.0
0.0 0.0 0.0 0.0 0.0 0.0 0.0 0.0
0.0 0.0 0.0 0.0 0.0 0.0 0.0 0.0
0.0 0.0 0.0 0.0 0.0 0.0 0.0 0.0
0.0 0.0 0.0 0.0 0.0 0.0 0.0 0.0
0.0 0.0 0.0 0.0 0.0 0.0 0.0 0.0
0.0 0.0 0.0 0.0 0.0 0.0 0.0 0.0
0.0 0.0 0.0 0.0 0.0 0.0 0.0 0.0
0.0 0.0 0.0 0.0 0.0 0.0 0.0 0.0
0.0 0.0 0.0 0.0 0.0 0.0 0.0 0.0
0.0

action_parameters_passthrough_layer.bias f4 [27]
00000000: 0000 0000 0000 0000 0000 0000 0000 0000
00000010: 0000 0000 0000 0000 0000 0000 0000 0000
00000020: 0000 0000 0000 0000 0000 0000 0000 0000
00000030: 0000 0000 0000 0000 0000 0000 0000 0000
00000040: 0000 0000 0000 0000 0000 0000 0000 0000
00000050: 0000 0000 0000 0000 0000 0000 0000 0000
00000060: 0000 0000 0000 0000 0000 0000
0.0 0.0 0.0 0.0 0.0 0.0 0.0 0.0
0.0 0.0 0.0 0.0 0.0 0.0 0.0 0.0
0.0 0.0 0.0 0.0 0.0 0.0 0.0 0.0
0.0 0.0 0.0
