RL4E2E/results/pptod/2.0k1/episode_3000/actor.pt (torch, 20755 bytes, 4 tensors)

layers.0.weight f4 [128, 30]
000000 d3 32 55 3d a8 5a 90 3e 20 dc 68 bd a5 1f 13 bf
       0.052050423 0.28194165 -0.056850553 -0.5747016
000010 ca ff 63 be 56 6f 17 bf 51 2c fd be 75 d3 bb 3d
       -0.22265545 -0.5915426 -0.49447873 0.091711916
000020 82 a4 14 be aa fc f5 be 99 00 10 be 07 8f 03 3f
       -0.1451588 -0.4804433 -0.14062728 0.5139012
000030 16 75 15 be 4c 15 ce 3d 39 39 a7 be 26 fc 24 bf
       -0.14595446 0.10062656 -0.32660845 -0.6444725
000040 a5 ae 84 bd 80 ab 53 3e 60 53 f8 bd 80 17 e3 be
       -0.06478623 0.20670891 -0.121252775 -0.44353867
000050 ce 98 f7 bd ec ba 38 3e 1d 67 0f bc 28 f2 6d 3e
       -0.12089692 0.18040055 -0.0087526115 0.23236907
000060 34 69 e2 be ff ba 07 bf 21 ce ec be 0b 05 16 be
       -0.4422089 -0.5301971 -0.46251014 -0.14650361
000070 68 6c 7b be 16 2a f0 be 31 5f 86 be 89 eb df be
       -0.24553072 -0.4690711 -0.262445 -0.43734387
000080 98 68 3c be 63 1d 4f 3e 81 5a 5b be ca 43 01 be
       -0.18399274 0.20226054 -0.21421243 -0.12623516
000090 e0 3d 11 be 0d 90 c2 3c 42 17 0b bd c4 49 11 3d
       -0.1418376 0.02375033 -0.033957727 0.03547074
0000a0 70 10 14 be 30 cf 74 be 72 9b 08 3d 91 22 d3 3e
       -0.14459395 -0.23907161 0.03335137 0.4123731
0000b0 03 0f 58 3e 7d f0 8c 3c de e3 54 be 80 de fd bd
       0.21099477 0.017204517 -0.2079005 -0.12395954
0000c0 c4 b4 2a 3c aa 4c d7 be 5d b2 c3 3e 66 b8 87 3c
       0.010419074 -0.42050678 0.38222018 0.01656742
0000d0 0d 7e 52 3e 69 ff 27 3d d5 59 4a 3d bf 85 60 be
       0.20555897 0.041015062 0.049402077 -0.2192602
0000e0 87 a0 13 3e 31 3b 94 be e1 40 43 bd b1 55 b8 bd
       0.14416705 -0.2895141 -0.047669295 -0.09000719
0000f0 d3 83 ce be 24 70 5a 3f 29 35 17 3f d1 8f 4c bf
       -0.4033495 0.85327363 0.5906549 -0.79906946
000100 d0 3b 7e 3e b3 31 13 bf f1 1f c1 be 59 ef a7 3d
       0.24827504 -0.5749771 -0.37719682 0.08199949
000110 2d 88 23 be e5 5d 80 3e af 70 1f be fb a0 ff bc
       -0.15969916 0.25071636 -0.15570329 -0.031204691
000120 40 48 f1 bc fb 1f b4 bd 51 33 a5 3f 0e 67 a7 3e
       -0.029453397 -0.08795162 1.2906286 0.32695812
000130 70 95 d5 bd 37 c4 aa 3d c5 6e a6 3d 80 fe fb 3e
       -0.104288936 0.08338206 0.08126596 0.49217606
000140 57 db a7 3e 30 af 2e 3f 6f 03 2a 3d b6 2f 68 3f
       0.3278453 0.68236065 0.04150718 0.906978
000150 99 6a 28 be 3a 40 5b be 27 26 b0 be 39 4c d7 bd
       -0.16446914 -0.21411219 -0.34404108 -0.10512585
000160 0c de 59 bd ad 59 34 be 4c f8 c8 3c 00 8a 0b bf
       -0.053190276 -0.17612334 0.02453246 -0.54507446
000170 28 6c fe bc bf 50 2e 3e 9e 3c 65 3e 7c f1 38 be
       -0.031057432 0.1702299 0.22386405 -0.18060869
000180 46 8e 8c be 6a 81 50 3f 88 b2 26 3e 87 98 bf 3d
       -0.27452296 0.8144747 0.16279042 0.09355264
000190 e7 52 0c 3e d3 63 20 3f a1 9a 61 3e 40 bc 89 3e
       0.137035 0.6265232 0.22031642 0.26901436
0001a0 be b1 f4 3e 14 35 6e 3e 8b 28 50 be 73 d8 ec bd
       0.47791857 0.23262435 -0.20327966 -0.11564722
0001b0 bb b3 61 3e c1 89 51 be f0 96 49 3f 54 04 cb 3e
       0.22041218 -0.20462705 0.7874594 0.3965174
0001c0 dd a5 1d 3d 82 84 7a 3f ab 2e 2a be af b2 ea 3e
       0.038488258 0.9785844 -0.16619365 0.4583945
0001d0 c8 97 ed 3d 86 77 0d bb ff f3 66 3f a5 60 87 3d
       0.116012156 -0.0021586134 0.9021606 0.0661023
0001e0 4e fe c7 3e be 31 82 be f4 3c 1c be 0f aa 00 be
       0.39061207 -0.25428575 -0.15257627 -0.12564872
0001f0 cc f0 bb 3d 6f 21 f8 be 64 04 57 bf ac 0a 31 3e
       0.09176788 -0.48463008 -0.83991075 0.17289227
000200 ed 02 39 bd 4e f5 df be f9 da 9b be 09 f1 63 3d
       -0.045168806 -0.4374184 -0.304405 0.05564979
000210 b7 44 dd be b5 1b 43 bf 6a c6 b1 3d 2d 61 69 be
       -0.43216488 -0.7621415 0.086804226 -0.22790976
000220 31 10 8d be f0 ea a4 bd da de 33 be 1d 80 d0 3d
       -0.27551416 -0.08052623 -0.1756548 0.10180686
000230 31 a5 cf bd 2b df 53 be bc ce 3d be a2 e2 10 be
       -0.1013893 -0.206906 -0.18535894 -0.14148954
000240 70 5c cf be e5 9a 9e be e0 a0 e1 be 06 ba 41 3d
       -0.40500212 -0.3097755 -0.4406805 0.047296546
000250 64 2d 4b be 9d 80 95 be b3 f7 a0 be 98 9f e9 bd
       -0.19841534 -0.29199687 -0.3143898 -0.11407393
000260 16 d2 99 be 43 dc 35 bc 9e 7d a0 3e 70 a0 30 be
       -0.30043095 -0.011099878 0.31345838 -0.17248702
000270 c9 19 07 bd b4 8a d8 be 2b 19 47 3e b1 43 17 be
       -0.032983575 -0.42293322 0.19443195 -0.14771916
000280 35 b1 86 bc a1 47 fe 3e ed 37 5a bc ed 8a 49 be
       -0.01644192 0.49664024 -0.013318998 -0.19681902
000290 55 a7 a8 3e fa 09 d6 3d 37 3f 65 bd ce 9e bb be
       0.32940164 0.10451122 -0.05596849 -0.36644596
0002a0 52 23 c3 be f2 29 22 be a8 25 99 bd 26 02 5d 3e
       -0.38112885 -0.15836313 -0.074778855 0.21582851
0002b0 c6 59 82 3e 72 b1 2b 3e de c4 db bd 2d e7 76 3e
       0.25459117 0.16766909 -0.10730909 0.24111624
0002c0 af df c3 be 74 15 e8 be 47 90 91 3e dd e8 2c be
       -0.38256595 -0.45328867 0.28430387 -0.16885705
0002d0 3f 98 18 bd af 93 27 3f 28 e9 a2 bf 80 9e 34 be
       -0.03725457 0.6545972 -1.2727404 -0.17638588
0002e0 d1 f1 78 3e 64 57 f5 be fa 56 16 3f 36 a8 3a bf
       0.24310996 -0.47918236 0.58726466 -0.7291292
0002f0 22 89 da 3e 01 e3 fd 3e da a1 96 bf 6f 93 d1 be
       0.4268275 0.49587253 -1.1768143 -0.40932795
000300 f7 56 36 3f ba 61 ce bc fc b2 29 bd c5 0c e5 be
       0.7122645 -0.025193084 -0.04143046 -0.44736305
000310 9b e0 78 3f 81 19 63 3e e6 5f 8f 3e 36 71 6a 3f
       0.9721772 0.22177698 0.28002852 0.91578996
000320 11 7d d3 3e de ce 27 3f 20 67 ff 3e 55 45 b4 3d
       0.41306356 0.6555003 0.49883366 0.088022865
000330 84 cf d3 3c 63 76 61 3e 6a ab b6 3e e8 d8 8e be
       0.025855787 0.22017817 0.35677654 -0.2789986
000340 2c 76 b6 3e 05 2d 85 3f 07 fd fe bd c3 e7 2e 3e
       0.35637033 1.0404364 -0.12450605 0.17080598
000350 b3 2a 7e 3f e7 97 57 3d ae d9 5b 3b af d6 3a 3f
       0.99283904 0.0526351 0.0033546495 0.7298383
000360 91 43 d3 3d a8 cd 56 be 03 fd 14 bf 7d 26 8e 3e
       0.10315622 -0.20976889 -0.58198565 0.2776374
000370 e6 52 27 be f2 58 d4 3c 80 65 a8 be e8 7f 75 be
       -0.16340217 0.025921319 -0.32889938 -0.23974574
000380 34 1f 13 3d be 3b de bc b0 6d 58 be cb f1 0d 3f
       0.03591843 -0.027128097 -0.21135592 0.5544707
000390 9e 3d 9d bc bc d2 53 3d 20 d1 81 be 5a 8c 5d bf
       -0.01919442 0.051714644 -0.25354862 -0.86542284
0003a0 23 32 02 3f 3b aa a7 3f 97 49 8c bd 89 4f 3b be
       0.5085775 1.3098825 -0.06849974 -0.18292059
0003b0 20 6a 19 be 0c 05 f7 bd 3b 21 f8 3c d8 0d 28 bd
       -0.1498189 -0.120615095 0.030289283 -0.041028827
0003c0 b1 b8 80 bd 6c 29 4b be 7e 45 db bd 4a 27 fb bd
       -0.06285227 -0.1984002 -0.10706614 -0.12263353
0003d0 5c 01 76 be eb 1c 1b be 92 6f a0 3e e4 49 d4 be
       -0.24023956 -0.1514775 0.3133512 -0.41462624
0003e0 25 d7 25 3e 12 ac 10 bd 5d 57 9c 3d 73 8d 07 3e
       0.16195352 -0.03532035 0.07633851 0.13237552
0003f0 e8 75 42 3d 02 21 18 3e 10 c5 58 be 13 72 ce bd
       0.047475725 0.14856341 -0.21168923 -0.10080352

layers.0.bias f4 [128]
000000 63 34 1a 40 00 00 00 00 35 72 0e 3f ec 14 07 40
       2.4094474 0.0 0.55643016 2.110652
000010 c0 bf ea 3f be 7d f8 bc 48 36 3a 40 6b 81 6e 3f
       1.8339767 -0.030333396 2.909563 0.93166226
000020 74 16 fa bc b1 64 45 c0 0c 6c 0b 40 26 69 be 3e
       -0.030528285 -3.0842707 2.1784697 0.37189597
000030 76 7a 1f 40 88 84 04 40 18 14 d2 3e 40 94 e8 3f
       2.4918494 2.070589 0.41030955 1.8170242
000040 19 29 1f c0 78 cd 0b 40 58 ec 76 3e 2e 4e 15 40
       -2.4868834 2.1844158 0.24113595 2.3328967
000050 01 3c 46 40 c3 f6 30 c0 fd 4b 18 40 e7 40 94 3e
       3.0974123 -2.7650611 2.379638 0.28955767
000060 67 31 10 40 13 e6 07 40 63 0b 0c 40 72 2e 33 40
       2.2530153 2.1234176 2.188195 2.7997098
000070 ca f8 33 c0 95 db 0d c0 e6 04 c5 3e f4 4a 0c 40
       -2.8120599 -2.2165272 0.384803 2.1920748
000080 00 00 00 00 00 00 00 00 00 00 00 00 47 eb 2c 40
       0.0 0.0 0.0 2.7018602
000090 41 83 46 c0 0b 70 21 40 00 00 00 00 90 1a 02 40
       -3.101761 2.5224636 0.0 2.0328712
0000a0 d6 e0 5d c0 b3 bb f1 3f 3b ea 15 40 f8 96 4f c0
       -3.466848 1.8885406 2.3424213 -3.2435894
0000b0 00 00 00 00 f6 87 21 c0 66 4e 04 3f 00 00 00 00
       0.0 -2.5239234 0.51682127 0.0
0000c0 81 e9 2e 40 e1 28 06 40 75 dd f3 3f 00 00 00 00
       2.733002 2.096245 1.9051958 0.0
0000d0 5a 85 03 3f 78 b7 03 bd ea a3 60 3f 8b e7 ec 3f
       0.51375353 -0.03215739 0.87750113 1.8508161
0000e0 be d7 02 3f f8 34 10 40 70 b5 16 40 fe 2f 44 c0
       0.51110446 2.253233 2.354824 -3.0654292
0000f0 ae 8e fb 3e 63 b1 27 40 65 68 90 bd 23 dc 37 c0
       0.49132293 2.6202018 -0.07051162 -2.872811
000100 89 c6 10 40 09 da 29 40 c2 b9 01 40 1f c6 18 40
       2.2621176 2.6539328 2.0269628 2.3870924
000110 2e f0 14 40 f0 71 07 3f 7e bc 16 40 de 4b 05 40
       2.3271594 0.5290823 2.3552547 2.0827556
000120 d0 53 3f 40 16 df 83 3f ec 12 15 c0 98 ce 15 3f
       2.9894905 1.0302455 -2.32928 0.5851836
000130 78 6e 64 bd b7 82 eb 3f b4 20 4c 40 1e ad 17 40
       -0.055769414 1.8399266 3.189496 2.3699412
000140 24 14 1c 40 e1 ef 39 c0 27 ed 24 40 b1 c8 0d bd
       2.4387293 -2.905266 2.5769746 -0.034615222
000150 43 b5 2e c0 1d 4b 55 40 00 00 00 00 00 00 00 00
       -2.7298133 3.3327096 0.0 0.0
000160 00 00 00 00 53 19 11 40 bd 2d 2e c0 ed 0d 07 40
       0.0 2.2671707 -2.7215416 2.110225
000170 8b 16 29 c0 6b 87 3b c0 b0 4a 2b c0 5d f6 09 40
       -2.642001 -2.9301403 -2.6764336 2.1556618
000180 7a 1d 05 40 07 ae 4c c0 d6 58 ba 3e a4 73 5e 3f
       2.079924 -3.1981218 0.363959 0.86895204
000190 3d 20 aa 3e 8c f0 08 40 66 45 23 40 63 9c 27 c0
       0.3322772 2.1396818 2.5511107 -2.61892
0001a0 61 5d 23 3e b9 1a 5d 3f 66 e2 24 40 3a e2 30 40
       0.1595359 0.863689 2.5763183 2.7638078
0001b0 ac 82 24 40 24 b0 42 c0 b6 83 87 3f f1 48 26 40
       2.5704756 -3.0420008 1.058707 2.598202
0001c0 a0 20 3d c0 8f c1 33 c0 c8 22 01 40 8d 6f 28 c0
       -2.9551163 -2.8086889 2.0177479 -2.6318085
0001d0 00 00 00 00 36 63 23 40 ea f6 2d 3f 94 6b 8f bc
       0.0 2.5529304 0.67954886 -0.017507352
0001e0 73 09 41 40 25 55 0b 40 ab b4 12 40 db 6b 0f 40
       3.0162017 2.1770718 2.292277 2.240958
0001f0 00 00 00 00 bb da a7 3e 47 25 23 3f 4e c0 47 40
       0.0 0.32784066 0.63728756 3.1211123

layers.1.weight f4 [6, 128]
000000 e9 1c 97 be 7b e0 a9 bb c0 8d 54 bf 96 4a 55 bf
       -0.29514244 -0.005184231 -0.83028793 -0.83316934
000010 6d 26 2d be 50 f6 99 bc 9b 0b 96 bf 3a 08 d8 bf
       -0.1690919 -0.018794209 -1.1722292 -1.687751
000020 8d b9 30 bd 15 39 bc 3e 75 a8 f5 bd f9 67 ea 3f
       -0.043145705 0.367623 -0.11995021 1.831298
000030 f7 8c 26 be 63 e1 10 bf 36 6b b6 3f e6 43 2d be
       -0.16264711 -0.5659391 1.4251468 -0.16920432
000040 d1 4f 1c 3e 08 39 05 bf b7 23 14 3f 7d fa 29 bf
       0.15264823 -0.5204015 0.57866997 -0.6639784
000050 79 ed cd bf 09 db 22 3e d6 30 5a bf 3a 59 14 c0
       -1.6088096 0.15903868 -0.8523077 -2.317946
000060 ba 9d 4e be 71 bb fd be 62 fd 9c be 85 d4 a2 bf
       -0.20177355 -0.4955707 -0.30662066 -1.2721106
000070 fc 10 3d 3e c8 f8 59 3d db 91 18 bf b1 88 1d bf
       0.1846351 0.053215772 -0.5959756 -0.615367
000080 f5 65 15 3d b5 2a 91 bd 99 fd 90 bd fb e3 ca be
       0.036474187 -0.07088224 -0.0707962 -0.3962706
000090 66 3b b5 3e 65 09 53 be e4 a5 59 bc e2 f9 17 be
       0.3539688 -0.20609052 -0.01328418 -0.14841416
0000a0 49 a4 e0 3e bc 37 19 be ca 54 17 be 83 cc fd 3e
       0.4387534 -0.14962667 -0.14778438 0.49570093
0000b0 9b 97 16 bd bf 41 70 3e d1 b6 4b bf 70 57 f8 bc
       -0.036765676 0.2346258 -0.7957583 -0.030315131
0000c0 a8 2f 35 be b0 b9 e3 bd d8 36 7b bf ca 3f 89 bd
       -0.1769396 -0.111194015 -0.9813056 -0.0670162
0000d0 c5 8b 11 bf 4e d6 19 3d 93 47 ac bf 99 33 1a bf
       -0.56853896 0.037557893 -1.3459343 -0.6023498
0000e0 c5 cf b2 3f 87 38 94 bf d2 ce 91 be 01 e7 0f 3f
       1.3969656 -1.1579751 -0.28478104 0.5621186
0000f0 28 53 24 bf ee 5a fb be a1 13 ea bb a4 15 84 3e
       -0.64189386 -0.4909281 -0.007143453 0.2579776
000100 ff 2a 66 be c0 7b 94 bf 29 6f 0d be 6d e0 aa be
       -0.22477339 -1.1600266 -0.13811935 -0.33374348
000110 50 93 1a bf 7f 40 2f bf 71 22 14 bf dd ef 22 bf
       -0.6038103 -0.6845779 -0.57865053 -0.6364725
000120 c1 53 33 bf e1 02 25 be b8 3a a7 3d 88 ac 2e bf
       -0.70049673 -0.1611438 0.081654966 -0.6823201
000130 89 38 96 3c 8d 0d d6 be 61 47 86 bf 81 a5 8f be
       0.018337505 -0.41807213 -1.0490533 -0.28055957
000140 b6 0b 5e be 84 f0 f4 3e 42 52 07 bf 66 4c 4b 3d
       -0.21684155 0.4783975 -0.5285989 0.049633406
000150 75 ad 01 3e 8a 5c 80 c0 5d af 13 bd 18 36 78 3d
       0.12663825 -4.0112963 -0.03605591 0.060598463
000160 fa bc 52 3c a2 fd bb be 88 e5 d2 3e 08 b0 34 be
       0.012862438 -0.36716944 0.41190743 -0.17645276
000170 f5 1b 7d 3e 87 6b ab 3d d1 61 1f 3e be ff 1d bf
       0.24717696 0.083701186 0.15564658 -0.61718357
000180 9d b2 3c be a0 b1 27 3f ba 33 1e bf 50 9a f6 be
       -0.1842751 0.6550541 -0.6179768 -0.48164606
000190 91 0a 02 c0 ae 5e 32 be db ff 6c be 12 47 e4 3d
       -2.031895 -0.1741893 -0.23144476 0.11146368
0001a0 13 c9 2d bf c8 6d 06 bf 93 02 14 c0 50 0b fe bd
       -0.6788494 -0.5251126 -2.312657 -0.124045014
0001b0 a4 dc 89 bd 98 81 fb 3e c3 eb 24 bf 26 cf af be
       -0.06731537 0.4912231 -0.64422244 -0.3433773
0001c0 90 c3 bb 3e 98 d8 ef 3e 6c f7 42 be 9e cb c9 3e
       0.3667264 0.46844935 -0.19039696 0.3941316
0001d0 ee 94 3c 3d 89 e8 29 bf 45 55 86 bf 04 56 53 3d
       0.046040468 -0.66370445 -1.0494772 0.051595703
0001e0 0e 2a 30 bf 31 12 ed be 77 36 42 be df 97 28 bf
       -0.6881417 -0.4630294 -0.18966089 -0.65856737
0001f0 a6 38 88 3b 48 f0 f5 bf 10 5d 39 bf 2f c8 93 bf
       0.0041571436 -1.9213953 -0.7240763 -1.1545466
000200 b3 76 1e be e6 37 45 bd f0 4d 23 3e e4 2e 8e be
       -0.15474968 -0.048149012 0.159477 -0.2777015
000210 95 d7 51 bc dd a5 91 3d db 9c 97 bf 8a c8 0b bc
       -0.012807746 0.07111714 -1.1844743 -0.008531699
000220 7f dc 33 bb 94 35 06 3e 62 a7 2d bc 0d 4c d3 bd
       -0.0027444658 0.13106376 -0.010598989 -0.1031724
000230 ce dd e7 be 1a cb f7 be 11 3d 8f bd 2e 2b d9 3c
       -0.4528641 -0.48397142 -0.06994069 0.026509847
000240 bb 10 29 bc 7e b1 1f bf 6e 87 82 3f a2 56 1b bf
       -0.01031893 -0.62380207 1.019758 -0.60679066
000250 ca f1 4d c0 be 88 63 3d 36 f1 ca be 66 76 7e be
       -3.2178826 0.05555033 -0.39637154 -0.24849853
000260 12 11 0c be b1 f9 65 bf fc 09 f9 bd 24 d3 68 bf
       -0.13678387 -0.89834124 -0.121601075 -0.90947175
000270 ed 45 30 3e e4 78 81 bd 97 34 13 3d a4 ba cc be
       0.17214175 -0.06321886 0.035938825 -0.39986145
000280 78 c0 32 bd 25 03 ab 3c b0 51 a5 bc 7d 50 64 bf
       -0.043640584 0.020875523 -0.020180553 -0.89185315
000290 0a 21 c3 3d 0c ce e8 bd f5 39 05 bd 96 bc 8b bc
       0.09527786 -0.11367425 -0.032525975 -0.017057698
0002a0 b0 17 8d 3e 7d ce a0 3c 26 00 3a bd dc 19 26 3e
       0.27557135 0.019629711 -0.045410298 0.16220802
0002b0 35 dd 43 3c 5b f7 35 3d 02 25 5f 3d 86 c9 4a 3c
       0.011954595 0.04442535 0.054478653 0.0123771485
0002c0 e7 72 5b be 5d dd 05 be f1 f7 42 bf c9 31 a0 bd
       -0.2143055 -0.13072725 -0.7615958 -0.07821996
0002d0 dc 78 13 3f 8d df 08 bd ad 20 4e 3f 2c 0d 68 bf
       0.5760629 -0.03341632 0.8051861 -0.906451
0002e0 2b 13 81 bc 26 9d 17 be a3 21 31 be 37 96 84 3e
       -0.01575621 -0.14806041 -0.17297988 0.25895855
0002f0 44 7e 3c 3e 24 a3 9f be 50 02 a0 bd d4 84 69 3e
       0.18407542 -0.31179154 -0.07812941 0.22804576
000300 2e 7f 84 bf 17 1a 83 bf dd b3 01 bd 8d 79 29 be
       -1.0351312 -1.0242337 -0.03166567 -0.16550274
000310 17 09 0b bf 9d 0e b0 3e 82 2e 63 be c1 fe 6e bf
       -0.54310745 0.3438615 -0.2218571 -0.93357474
000320 ca 9c da bf 38 f6 da be e7 0d 38 bb a4 97 5c be
       -1.7079098 -0.42765975 -0.0028084458 -0.21542221
000330 92 b5 89 3d 9a d8 4f bf f6 61 b8 bf cd da 92 be
       0.06724085 -0.8118988 -1.4404895 -0.28682557
000340 0c 33 04 be 82 7e 88 3e 2c db 1b bf 74 ba d7 3b
       -0.12910098 0.26659018 -0.60881305 0.0065835062
000350 8b cc f2 3d 61 01 16 c0 83 b2 e1 3c c6 87 86 3d
       0.1185542 -2.3438342 0.027550941 0.065688655
000360 9b da 4e 3d e5 c1 52 bf 42 40 38 3e 74 d1 e0 bd
       0.050501447 -0.8232711 0.17993262 -0.1097745
000370 53 3e 8c 3d ef 56 b7 3d 3c 82 a2 3d 58 9e 3c bf
       0.06847825 0.08952128 0.079349965 -0.73679113
000380 7a 75 ae bb fc c0 1c 3e 37 d2 d4 3d 04 99 41 bf
       -0.005324063 0.15307993 0.10391658 -0.7562411
000390 6b 57 11 bf 0a b0 81 bd 68 85 1d be cd c9 06 3e
       -0.56774014 -0.06332405 -0.15382922 0.13162918
0003a0 86 9b f6 3e ad 89 2f bf a7 a7 0f c0 21 29 00 be
       0.4816553 -0.6856945 -2.2446077 -0.1251569
0003b0 3c fa c1 bd 9c 7d 4a 3e 0b 3e 29 be 81 ee b2 be
       -0.094715565 0.19774479 -0.16527574 -0.3494759
0003c0 39 ff 69 3e c1 37 5b 3e 2b 25 17 bd e5 7b d3 3d
       0.22851266 0.21407987 -0.03690068 0.103263654
0003d0 87 64 af 3d 86 35 18 bf 4b 37 a2 3e de 27 45 3a
       0.08564096 -0.5945667 0.3168281 0.0007520894
0003e0 c3 76 90 bf 21 aa 5c bf ee 24 28 be ce ec 31 bf
       -1.1286243 -0.86197096 -0.16420338 -0.6950196
0003f0 74 10 65 3c e3 a1 03 bf 2d 64 74 bf eb b8 93 bf
       0.0139809735 -0.51418895 -0.95465356 -1.1540807

layers.1.bias f4 [6]
000000 a9 13 e0 bf e1 31 97 bf 00 00 00 00 00 00 00 00
       -1.7506 -1.1812097 0.0 0.0
000010 00 00 00 00 00 00 00 00
       0.0 0.0
