RL4E2E/results/collected_results/2.0k1/episode_1/actor.pt (torch, 20755 bytes, 4 tensors)

layers.0.weight f4 [128, 30]
000000 c1 ee 1d 3e 9a 73 10 bf 65 d9 d7 3e 59 cc 94 3e
       0.15423109 -0.56426394 0.42158046 0.29062155
000010 b5 0e 9e bd 43 15 36 bd 77 67 8a 3e de 2a 8f 3e
       -0.07717649 -0.04445387 0.27032062 0.27962393
000020 3f 6f e2 3e 6e ec a9 3d b3 ea 3b 3c fe 85 55 be
       0.442255 0.082970485 0.011469531 -0.20851895
000030 6a 7f 1b be 18 8f f6 bd 3a f9 25 3e bc 07 1a be
       -0.15185323 -0.12039012 0.16208354 -0.15042013
000040 2f 11 17 be d6 c3 37 3e ea 84 57 be ac 7b 00 3e
       -0.14752649 0.17945799 -0.21046796 0.12547177
000050 2e 80 83 3e 6e 6e 60 3e f7 84 a6 bd f7 c5 43 be
       0.2568373 0.21917126 -0.0813083 -0.19118486
000060 d7 3a 40 3e df 67 21 bc 87 db d4 3e 1d 31 3c 3c
       0.18772446 -0.009851425 0.41573736 0.011486319
000070 99 71 30 3e c7 fb e8 3d 74 ba 80 3e 60 d2 49 be
       0.17230834 0.11376148 0.25142252 -0.19709158
000080 95 6d 92 bd ac 9b 08 3c fa 4e ab ba 39 43 a3 3e
       -0.07149807 0.008337896 -0.0013069801 0.31887224
000090 4c 39 79 3e e6 9e 1c be a3 1f 4d 3e 4c bb 04 3e
       0.24338263 -0.1529499 0.200316 0.12962073
0000a0 57 f1 5c be f9 c4 a5 3d 4d 6a 70 3e 38 a4 98 3c
       -0.21576439 0.0809421 0.2347805 0.018632993
0000b0 37 31 f1 3e fd 24 72 3e df 5a 8a 3e 3f f6 10 bc
       0.4710786 0.23646922 0.27022454 -0.008847772
0000c0 62 7f ac be db 21 47 3e d3 27 13 be 32 26 d1 3e
       -0.33690935 0.19446509 -0.1437066 0.40849453
0000d0 7c 51 86 be b5 9b 6d 3e 76 8d 00 3e f5 0c 8b be
       -0.26234043 0.23203929 0.12553963 -0.27158323
0000e0 1c f0 bd be 4a 39 b8 3c 99 61 16 3e 5a af 83 be
       -0.3709725 0.022488255 0.14685668 -0.2571972
0000f0 c3 d2 b4 bd 3c 27 73 3e 21 8f dc be 92 25 9e bb
       -0.08829262 0.23745435 -0.4307795 -0.004826256
000100 b6 d1 f6 bb ca 08 f4 3c 4b 83 77 3c 52 d8 9d 3e
       -0.0075323237 0.029789347 0.015106986 0.30829102
000110 ec 26 70 be 6e 52 e8 bd 0e 7d a3 bd 7b d9 a7 be
       -0.23452348 -0.11343847 -0.07982837 -0.32783112
000120 f2 72 e7 3e a3 85 30 be 78 55 f9 bd a9 8c 2e 3e
       0.45204884 -0.17238478 -0.12174505 0.17045845
000130 cc 91 a2 3d b7 19 62 be 12 49 8c bd 5b a7 8c 3c
       0.07937965 -0.22080122 -0.068498746 0.017169645
000140 1f 08 75 3e 42 12 4d 3e 9d 08 e7 bd 8e c3 de 3e
       0.23928879 0.20026496 -0.1128094 0.4350857
000150 16 34 04 bf e7 f5 05 3f 5e 6b ee 3d 9f 9a 60 3e
       -0.51641977 0.5232834 0.116415724 0.21933983
000160 2c 32 c9 be 69 9b d2 3d 44 5e 1b bc e9 ed b4 3c
       -0.3929609 0.102835484 -0.009482924 0.0220861
000170 14 4b a8 be 79 2d 9f 3c a4 10 6e be 2e f0 e8 be
       -0.3286978 0.019430863 -0.23248535 -0.45495743
000180 1b a2 6c be 72 27 9a be c1 53 0f 3e b7 a5 75 be
       -0.23108713 -0.3010822 0.13996793 -0.23988996
000190 f6 44 cb bc 58 b5 ac 3d df ee a1 bd 35 dc 0c 3f
       -0.024813157 0.08433026 -0.07906889 0.5502351
0001a0 09 fe 1f 3e ee 90 65 be a2 b3 28 be 2c 40 03 3e
       0.1562425 -0.22418568 -0.16474774 0.12817448
0001b0 50 1a ce 3d 73 f4 48 3e 8d ff 87 3e 05 1c f9 bd
       0.100636125 0.196245 0.26562157 -0.121635474
0001c0 c1 e3 b1 bd c8 4f c4 3d 9a 49 84 3d 96 91 18 be
       -0.08686019 0.095855296 0.06459351 -0.14899287
0001d0 45 dd 79 3e 60 50 8b be d2 ec cd be dc d7 c7 3d
       0.24400814 -0.2720976 -0.40219742 0.09757969
0001e0 99 3c 66 3d af 7c 90 be b3 5c aa 3d 51 84 d0 bb
       0.056210134 -0.28220126 0.08318462 -0.0063634296
0001f0 cd 8e 03 bd d2 d7 11 3f 4d 09 df bd ca e6 1c bf
       -0.032118607 0.5696994 -0.10890446 -0.61289656
000200 60 11 0d be fa 2d b1 3d ac 18 85 be 3b ad 64 3e
       -0.1377616 0.086513475 -0.25995386 0.22331707
000210 27 e0 35 be b5 1c ca be 93 4c b9 3e aa 54 ad be
       -0.17761289 -0.39475027 0.36191234 -0.33853656
000220 e8 1f 18 3f 43 72 a3 3a 36 28 05 bf 25 8e ec 3d
       0.59423685 0.0012469966 -0.5201448 0.115505494
000230 5f 8b 34 3d 9e b2 61 3e f0 3f e4 3c c1 97 94 be
       0.044078227 0.22040793 0.027862519 -0.2902203
000240 a5 35 84 be 89 75 4f bd 6c 22 74 3d 15 5c 08 be
       -0.25822178 -0.0506492 0.05960314 -0.13316377
000250 90 de 17 be 7e ee 8d 3d 49 b7 8b 3e 3b c3 a9 be
       -0.14830995 0.069302544 0.27288273 -0.33156762
000260 f6 b2 c2 3d 44 b6 a4 3e f4 84 64 3e 94 37 c1 be
       0.0950679 0.32170308 0.22316343 -0.37737715
000270 73 77 15 3e 8e a7 fb bd 27 96 a5 bd 6a 55 86 be
       0.14596348 -0.12287818 -0.0808528 -0.2623704
000280 0c 57 83 be 6d 5e 33 3e 34 16 c1 be ff 5c a1 3c
       -0.2565235 0.1751649 -0.37712252 0.019697664
000290 41 e6 54 3e ca be 33 be cf 7b 1c be 92 1e 7b bd
       0.2079096 -0.17553249 -0.15281604 -0.06130845
0002a0 25 33 af 3d 18 a4 3d be 42 a3 fc 3d ea 98 fa bd
       0.08554677 -0.18519628 0.123358265 -0.12236197
0002b0 ae d3 60 be 90 c7 8f 3d 4f b6 49 be d7 9c a2 bc
       -0.2195575 0.070204854 -0.19698451 -0.019850178
0002c0 43 94 19 3f 2b db 9b 3d f3 6d 1f 3e b5 a0 88 3e
       0.59991854 0.07610162 0.15569286 0.2668511
0002d0 e2 68 d5 bd 0b 57 ba 3c d1 da 0a be 6b b3 6b 3e
       -0.104203954 0.022746583 -0.13560034 0.23017661
0002e0 14 98 02 bd cc 35 1e be 28 a9 72 bd 9d aa 96 be
       -0.031883314 -0.1545021 -0.05924335 -0.29427043
0002f0 e0 29 10 be e8 1c 08 be 5c b5 25 3d f1 5d 40 be
       -0.14078474 -0.13292277 0.04045616 -0.18785836
000300 44 a3 89 be ba 31 f5 be b7 88 65 3d 81 49 82 3e
       -0.26882374 -0.478895 0.056038585 0.25446704
000310 aa f6 af 3d 58 55 0d 3f 9d a5 1f bf b1 34 8b be
       0.08591969 0.5520835 -0.6236208 -0.27188638
000320 28 d8 c3 be 53 12 4b be 09 a9 a2 bd dc 41 8f 3e
       -0.38250852 -0.19831209 -0.07942397 0.27979934
000330 8f 30 23 3e 6a 02 19 3e ed 5d b1 bd 29 b0 5b 3e
       0.15936492 0.14942327 -0.08660493 0.21453919
000340 e8 a1 ea be 14 76 6a 3d f1 a4 32 3d ed 6a 94 3e
       -0.4582665 0.057241514 0.04361433 0.28987828
000350 b4 91 c2 3e 00 97 41 be 9f 1d ce bd 39 48 ae be
       0.38001788 -0.18905258 -0.100642435 -0.34039477
000360 c6 6a bf be 29 a1 9d be 6a 0d 9d 3d 1d c7 f7 3d
       -0.3738615 -0.30787018 0.07668574 0.12098525
000370 79 fb 97 3c b8 b2 0f 3f 21 1f 15 3e ac 15 34 be
       0.018552529 0.5613208 0.14562656 -0.17586392
000380 93 16 99 3e 88 25 90 3e a3 75 77 3c fb c6 0c be
       0.29900035 0.28153634 0.01510373 -0.1374778
000390 14 b8 0c 3e 44 f6 dd be b8 c5 0b 3d 67 ab 88 be
       0.13742095 -0.43351948 0.034124106 -0.2669327
0003a0 79 56 77 3e 27 3a a4 3c a1 9b 95 3d b6 6e a3 bd
       0.2415408 0.02004726 0.073050745 -0.07980101
0003b0 4b 14 e2 3d 4e e1 f9 bd c1 53 37 3e 46 10 c8 be
       0.11039027 -0.122011766 0.17903043 -0.39074916
0003c0 1a fd 9a 3e f9 25 29 3e 31 07 46 be 51 3c 9b be
       0.30271226 0.16518392 -0.19338681 -0.30319455
0003d0 38 d0 33 3d 34 8e a7 bd 81 d3 30 be bc 86 43 3e
       0.043899745 -0.0818142 -0.17268182 0.19094366
0003e0 80 61 c3 3e 25 bf 0a bf 1e 24 00 be 1b 6d bd bd
       0.38160324 -0.54197913 -0.12513778 -0.09249326
0003f0 16 49 19 be e7 0f be bd d3 66 b4 be fd df 40 3d
       -0.14969286 -0.09280377 -0.352347 0.047088612

layers.0.bias f4 [128]
000000 00 00 00 00 00 00 00 00 00 00 00 00 00 00 00 00
       0.0 0.0 0.0 0.0
000010 00 00 00 00 00 00 00 00 00 00 00 00 00 00 00 00
       0.0 0.0 0.0 0.0
000020 00 00 00 00 00 00 00 00 00 00 00 00 00 00 00 00
       0.0 0.0 0.0 0.0
000030 00 00 00 00 00 00 00 00 00 00 00 00 00 00 00 00
       0.0 0.0 0.0 0.0
000040 00 00 00 00 00 00 00 00 00 00 00 00 00 00 00 00
       0.0 0.0 0.0 0.0
000050 00 00 00 00 00 00 00 00 00 00 00 00 00 00 00 00
       0.0 0.0 0.0 0.0
000060 00 00 00 00 00 00 00 00 00 00 00 00 00 00 00 00
       0.0 0.0 0.0 0.0
000070 00 00 00 00 00 00 00 00 00 00 00 00 00 00 00 00
       0.0 0.0 0.0 0.0
000080 00 00 00 00 00 00 00 00 00 00 00 00 00 00 00 00
       0.0 0.0 0.0 0.0
000090 00 00 00 00 00 00 00 00 00 00 00 00 00 00 00 00
       0.0 0.0 0.0 0.0
0000a0 00 00 00 00 00 00 00 00 00 00 00 00 00 00 00 00
       0.0 0.0 0.0 0.0
0000b0 00 00 00 00 00 00 00 00 00 00 00 00 00 00 00 00
       0.0 0.0 0.0 0.0
0000c0 00 00 00 00 00 00 00 00 00 00 00 00 00 00 00 00
       0.0 0.0 0.0 0.0
0000d0 00 00 00 00 00 00 00 00 00 00 00 00 00 00 00 00
       0.0 0.0 0.0 0.0
0000e0 00 00 00 00 00 00 00 00 00 00 00 00 00 00 00 00
       0.0 0.0 0.0 0.0
0000f0 00 00 00 00 00 00 00 00 00 00 00 00 00 00 00 00
       0.0 0.0 0.0 0.0
000100 00 00 00 00 00 00 00 00 00 00 00 00 00 00 00 00
       0.0 0.0 0.0 0.0
000110 00 00 00 00 00 00 00 00 00 00 00 00 00 00 00 00
       0.0 0.0 0.0 0.0
000120 00 00 00 00 00 00 00 00 00 00 00 00 00 00 00 00
       0.0 0.0 0.0 0.0
000130 00 00 00 00 00 00 00 00 00 00 00 00 00 00 00 00
       0.0 0.0 0.0 0.0
000140 00 00 00 00 00 00 00 00 00 00 00 00 00 00 00 00
       0.0 0.0 0.0 0.0
000150 00 00 00 00 00 00 00 00 00 00 00 00 00 00 00 00
       0.0 0.0 0.0 0.0
000160 00 00 00 00 00 00 00 00 00 00 00 00 00 00 00 00
       0.0 0.0 0.0 0.0
000170 00 00 00 00 00 00 00 00 00 00 00 00 00 00 00 00
       0.0 0.0 0.0 0.0
000180 00 00 00 00 00 00 00 00 00 00 00 00 00 00 00 00
       0.0 0.0 0.0 0.0
000190 00 00 00 00 00 00 00 00 00 00 00 00 00 00 00 00
       0.0 0.0 0.0 0.0
0001a0 00 00 00 00 00 00 00 00 00 00 00 00 00 00 00 00
       0.0 0.0 0.0 0.0
0001b0 00 00 00 00 00 00 00 00 00 00 00 00 00 00 00 00
       0.0 0.0 0.0 0.0
0001c0 00 00 00 00 00 00 00 00 00 00 00 00 00 00 00 00
       0.0 0.0 0.0 0.0
0001d0 00 00 00 00 00 00 00 00 00 00 00 00 00 00 00 00
       0.0 0.0 0.0 0.0
0001e0 00 00 00 00 00 00 00 00 00 00 00 00 00 00 00 00
       0.0 0.0 0.0 0.0
0001f0 00 00 00 00 00 00 00 00 00 00 00 00 00 00 00 00
       0.0 0.0 0.0 0.0

layers.1.weight f4 [6, 128]
000000 ee a1 28 3c e4 6f ed 3c 29 86 ab bd 15 73 48 bd
       0.010292513 0.028984018 -0.083751984 -0.048937876
000010 05 55 96 bd db 80 c4 3c 57 80 a8 3d a4 de 2c bd
       -0.07340435 0.023987224 0.08227604 -0.042204514
000020 7c a1 b3 3d 8a f6 eb 3c 3e 1b 87 bc c5 cf 65 3d
       0.08771035 0.028804082 -0.016492482 0.056106348
000030 ab b4 6d 3d aa a0 a9 3c 4b dd 99 3c 9a da 21 bd
       0.058033627 0.020706493 0.018782279 -0.039515115
000040 ca ea a7 3a 43 08 66 3d 8c 52 2e 3d 22 e5 a7 bd
       0.0012811061 0.056160223 0.04255919 -0.081980005
000050 55 29 bb bc bf b0 83 bd a5 ee 7d bd 65 eb 4f bd
       -0.022846857 -0.06430196 -0.061995167 -0.0507616
000060 40 15 99 bd 98 41 72 3c e4 aa 1f 3d d6 dc b4 3d
       -0.07474756 0.014786147 0.038981333 0.088311836
000070 cc 46 a9 bc 1a aa 1e bd 45 f3 63 bc db 83 39 bd
       -0.020663641 -0.03873644 -0.01391298 -0.045291763
000080 08 86 00 3d c2 70 a9 b8 81 a1 60 bd fc e5 14 3d
       0.031377822 -8.079551e-05 -0.054841522 0.036352143
000090 42 cb 35 3d 99 a8 87 bc 42 9b 86 bd 28 ce e5 bc
       0.044383295 -0.016559886 -0.06572582 -0.028052405
0000a0 fc 57 a1 bd 9f d4 56 bd e7 8c a2 3d 11 5e b1 3b
       -0.0787811 -0.052448865 0.07937031 0.005412825
0000b0 e7 65 41 bd 23 8d 86 bd a7 5d 77 ba 24 92 98 bd
       -0.047216322 -0.065698884 -0.00094362575 -0.07449749
0000c0 d5 ff 5a bd 47 88 41 3d 5b 11 6c bd d3 71 85 3d
       -0.053466637 0.047249105 -0.05763374 0.06515851
0000d0 38 63 13 3a 5b c6 3f bd 21 6f ac bd 6d 9a 4c bd
       0.000562239 -0.046820026 -0.08419634 -0.04995196
0000e0 81 fe 8d 3b 49 2c 81 bd aa 1f 87 3a d2 01 ad 3d
       0.0043333177 -0.06307275 0.0010309119 0.08447613
0000f0 24 a7 0f 3d 81 4f ad 3c 3e 0b b4 bd 93 ed 96 bc
       0.035071507 0.021156074 -0.08791207 -0.018423831
000100 43 bb 33 bb 69 6f 29 bd 0a ce 77 bc 62 0e b4 3d
       -0.002742485 -0.041366015 -0.015124807 0.08791806
000110 56 be 7e 3b ac 09 86 bd b2 d5 e4 3c 07 46 ac bd
       0.0038870773 -0.065448135 0.02793393 -0.08411794
000120 67 62 6b 3d 56 2e 20 bd c9 17 ff 3a 5e a9 a1 3c
       0.05746689 -0.03910669 0.0019462045 0.01973408
000130 82 d8 8d 3d 05 7f b0 3c c0 e0 b9 3c 07 e8 c0 bc
       0.06926061 0.021544943 0.022690177 -0.02354814
000140 30 d1 73 3d a3 ed da bc c8 d3 bd 3c b5 89 55 bd
       0.05952567 -0.026724642 0.023172274 -0.05213328
000150 47 fc 49 bd 3f e5 8e bd 8e 11 ea 3c 0b 68 33 3c
       -0.049312856 -0.06977319 0.028572824 0.010950099
000160 a1 d2 8b 3b 5d e5 77 3d 8b c5 a6 3d 75 5e b1 3d
       0.0042670523 0.060521472 0.08143147 0.086605944
000170 e7 b8 f9 bc 63 d5 80 bd 46 a0 6d bd a7 1e 69 3d
       -0.030483676 -0.062907 -0.058014177 0.056913998
000180 66 39 4e 3d 32 9f 97 bd c1 cb a7 3d aa ac 20 bc
       0.05034771 -0.07403411 0.0819316 -0.009806791
000190 ed 70 6a bc a4 91 1c 39 26 39 9b bd 8f a1 a3 bc
       -0.01430915 0.00014931575 -0.075792596 -0.019974498
0001a0 7d ec a8 bd 66 d3 aa 3d cb a2 52 3d 51 bb 90 3d
       -0.082482316 0.08341102 0.051424783 0.07066978
0001b0 08 f3 4f 3d 3d 4c 6b bd 88 39 c3 bc 55 b0 1e bd
       0.050768882 -0.057445753 -0.023831144 -0.038742382
0001c0 3e b1 19 bd d6 9f 27 bd 1d 3f 1b bc 63 10 7a bd
       -0.037522547 -0.040923916 -0.009475497 -0.061050784
0001d0 1f 76 96 bd f6 eb 48 3c 45 6b 9e bc c6 12 19 bd
       -0.073467486 0.012263289 -0.01933826 -0.03737142
0001e0 f3 58 8b bd 9a 6f 11 bc b2 95 af bd df 60 9c bc
       -0.06804075 -0.008876706 -0.08573474 -0.01908916
0001f0 c1 a2 88 bd 64 79 61 bc d3 d9 11 bd 88 df 89 bd
       -0.06671668 -0.013761852 -0.035608124 -0.06732088
000200 86 70 64 bd 89 ba 9b 3d 4a 85 0d 3d db 5b 87 bc
       -0.055771373 0.07603938 0.034550942 -0.016523292
000210 35 bb a8 3d 8e 5a 67 3d 04 07 dd bc dc ea 95 bd
       0.08238832 0.056482844 -0.026980884 -0.073201865
000220 5b 65 77 bd e1 30 b9 bc 1e a2 17 3d cb 51 83 bd
       -0.060399394 -0.022606315 0.03701984 -0.06412085
000230 80 3d 43 bd 3e db 4f bd 1a f4 10 bd a3 12 89 bc
       -0.047666073 -0.050746195 -0.035389043 -0.01673252
000240 e0 d9 87 3c 8a 29 6a bd 05 58 c0 bc e7 97 ab 3c
       0.016583383 -0.05716852 -0.023479471 0.020946456
000250 a0 12 09 bd ae e8 6e bd d7 6f 4d bd 34 80 1a 3d
       -0.033465028 -0.05832737 -0.050155487 0.03771992
000260 f3 c1 97 bc a4 b2 95 bd 50 ed 91 bc 50 1b a8 3d
       -0.0185251 -0.073094636 -0.017813355 0.082083344
000270 72 e7 78 bd 1c f8 7c bd bc 08 73 bb ce 35 59 3d
       -0.0607676 -0.061760053 -0.0037084064 0.053029828
000280 df 42 a3 3c 62 78 fd 3c 25 92 f9 bc 83 f6 cf 3b
       0.019929348 0.030941192 -0.030465195 0.006346525
000290 e6 a4 af bd d4 b7 fc bc 8b e3 6a bd 46 b8 a1 3d
       -0.08576374 -0.030849375 -0.057345908 0.078964755
0002a0 fd de 34 3c 62 11 87 3d 76 22 b4 bd 09 3c 9c 3d
       0.011039493 0.065951124 -0.087956354 0.07628638
0002b0 0c c5 9a 3c b3 4a e5 3c 1c 57 30 bc 28 86 06 3d
       0.018892787 0.02798972 -0.010762956 0.032842785
0002c0 53 94 33 3d ee f6 29 bd e9 0d 22 bd 2e c8 96 3d
       0.043842625 -0.041495256 -0.039564047 0.073624
0002d0 f8 fe 50 bc 8e 1f 9c 3c 2b 73 c2 bb 80 e7 9e ba
       -0.012756102 0.019058015 -0.0059341392 -0.0012123436
0002e0 b8 c5 93 bd 6a 12 77 bd c8 2e 2c bd 21 b9 20 bd
       -0.07215446 -0.060320295 -0.0420368 -0.039239053
0002f0 ec f8 05 bd ba 6b b4 3d 6d bb 1e 3d 90 67 c3 3b
       -0.032708094 0.0880961 0.038752962 0.0059632733
000300 b8 80 af 3d 1e 8a 48 3d c1 95 97 3d fa e3 35 bd
       0.08569473 0.048959844 0.0740161 -0.04440687
000310 df 40 75 bd 54 f6 ab bd ee 48 5f 3d d5 df 4c 3d
       -0.05987632 -0.08396593 0.05451291 0.05001815
000320 88 11 9f bd d1 8a 86 3d b1 31 14 bc ac 93 d3 ba
       -0.07767016 0.06569446 -0.0090450505 -0.0016142032
000330 12 59 66 3d 4f ca 20 bd a3 c7 fa 3a 75 a5 9d bc
       0.056237288 -0.039255437 0.0019132983 -0.019243935
000340 a6 63 aa bb 1c 5e 1a 3d 93 ab 99 3c b3 26 80 bd
       -0.0051998673 0.037687406 0.01875857 -0.06257381
000350 95 35 a4 3d 0f ac 6c bd 13 cf 6b bd a2 36 9f 3d
       0.080180325 -0.057781275 -0.05757053 0.07774092
000360 17 19 c0 bc c1 2a ad 3c 95 3e 7c 3b 18 17 67 3d
       -0.023449464 0.02113855 0.003848945 0.05641851
000370 70 8d 08 bd 56 96 6e bc c7 df 67 3d 66 65 34 3d
       -0.03333801 -0.01456221 0.056609895 0.044042014
000380 d4 82 95 3d 6d 70 25 3c fd db 0b bd e5 0a 91 3d
       0.07300344 0.010097605 -0.034145344 0.07082156
000390 db f7 08 bd 72 d7 9b bd 6e cc 96 bd 9f 49 ed 3c
       -0.0334395 -0.07609452 -0.073632106 0.02896577
0003a0 31 5b a9 3b 6d 6d 11 bd 61 27 88 bd f5 5c 32 bd
       0.0051683416 -0.035504747 -0.06648136 -0.043545682
0003b0 18 36 95 bd 47 92 23 3d d7 3b 8c bd 26 1f a5 3d
       -0.07285708 0.039934423 -0.06847351 0.08062582
0003c0 c4 74 1d bd b2 07 49 bd e1 b9 88 bd eb f1 74 3c
       -0.038441435 -0.049079604 -0.066760786 0.014950256
0003d0 85 4d 80 bd c5 0f 71 3d 36 20 99 bc 0a 77 95 bd
       -0.06264786 0.05885293 -0.018692117 -0.072980955
0003e0 b6 a0 fd 3c b2 28 87 3d 26 e0 3e bd 22 36 34 bd
       0.030960422 0.06599559 -0.046600483 -0.043996938
0003f0 56 08 9b bd 56 07 0b 3d 8a b0 27 3c 6f f2 b4 3d
       -0.07569949 0.033942543 0.010234961 0.08835303

layers.1.bias f4 [6]
000000 00 00 00 00 00 00 00 00 00 00 00 00 00 00 00 00
       0.0 0.0 0.0 0.0
000010 00 00 00 00 00 00 00 00
       0.0 0.0
