RL4E2E/results/collected_results/2.0k1/episode_1/actor_param.pt (torch, 18853 bytes, 6 tensors)

layers.0.weight f4 [128, 3]
00000000: ca40 a43d 3603 f3be a51e f63e e8ec 96be
00000010: 0ed1 103f c1c9 39bf 3904 943d d189 b83e
00000020: 4357 143f 49b7 c93d cd28 12be ade1 f93d
00000030: fa79 853f df73 f4bd b239 e2be 732f 0abf
00000040: 287e c43e 6361 44be e541 8e3e 21dc ef3f
00000050: f081 ab3e 9245 0440 b77f d13e 299f a03f
00000060: 3c41 84be 86d7 3abf 5223 27bf cc37 c2bf
00000070: 2e89 df3e e333 983d 165c e0bf 1c93 543f
00000080: 2a8e ec3e dc44 84bf ec00 fc3c 513b 303f
00000090: 91e8 ae3e 575e 14bf b64b 12be cb1a 2d3d
000000a0: d49b 8e3e 96ac 1e3f b3f2 4cbd 6c62 873f
000000b0: 7d4d e33e 7757 72bf 734a 9abf 2cda 7cbd
000000c0: eb83 2cbf 9975 eebf 02cd 79bf 2ea9 b63f
000000d0: c8dc c73f 2a3b 2ebf 4617 a73f db7d 07bf
000000e0: 580e 02be 8d0e 493f 5134 5e3f 92a1 1abe
000000f0: adfe c4be 87b5 0fbe 33d9 38be 960b 80be
00000100: 5f29 adbf 8497 7e3e ace1 9a3f ee51 3bbf
00000110: d4ee 843e 3711 32bf ba7a 91be b593 e13e
00000120: 0af1 ac3d 8f9c 74be 65d4 d33f fe1f 39be
00000130: ebab cfbe e61e d9bf 6603 d93e b75c 01bf
00000140: df44 d33e 3aa8 1c3f c09e 0bbf 73c4 f9bf
00000150: 6361 10be 5827 233f ff96 85bf 6ea0 1abf
00000160: 1253 72bd 4289 353f cc1c 123f bdd6 b03d
00000170: 40ed 8fbe 79ef 3f3f 3e3e c13e 4faa 92be
00000180: 5107 62be ed41 9cbe 3c1c 0140 f484 9cbf
00000190: e798 30c0 d12a c0bf 6059 b8bf 7935 c6be
000001a0: 477c 0d3e b338 cebf 7298 033d 6fcb c3bf
000001b0: 4d06 bc3e 6bd5 28bf b0fb bd3e dd59 8dbf
000001c0: 4fee fd3e 1d8c 273f 5e5f 89bf f580 973f
000001d0: 8ea8 403e 3479 b93e b120 843f 7390 9f3f
000001e0: 1a81 88be e39c 74bf ae16 8dbf ceef 603e
000001f0: be8b f43e d566 81be 74d0 9f3c 30a5 793f
00000200: b8f4 94be b2be 303f d6b9 efbe ec77 d5bd
00000210: 8c58 c33e d40c cfbe a015 b73f c01c 1e3d
00000220: cc0d 3ebe 13af 76bf 4010 1e3f 7f56 bcbe
00000230: f179 e33f 7672 fe3c 9865 a0bc 985d 5ebf
00000240: 1818 183f 68b0 323e 99fe f73e 1026 573e
00000250: 3cfa c4be 3b33 53bf 1565 dd3e 9926 8bbf
00000260: 4d3c a53f 3638 0abf b96f 253e c333 893f
00000270: 5d90 08bf 3b17 42be 24d8 7e3f 2208 02bf
00000280: f636 b2be 7b7d 8abe ba21 db3e 1573 193f
00000290: 1a65 bf3f 9a09 e83d 878e e3be e4a5 383f
000002a0: 7649 7c3f c9fc 7a3e 4f27 a23f 92cd 9ebe
000002b0: e22a 493f 7332 083e 52a0 bfbf b2b4 bbbd
000002c0: 4928 7e3e 7aa1 1bbe 3122 82bf 9fa4 513e
000002d0: 3db3 a93e e16c 5cbf 6807 ef3e fe27 0440
000002e0: 96e9 cebd 4c30 9dbe de31 48bb 5f3c 463c
000002f0: 8b3f 263f a385 4c3f 6c5b 993f 4be6 6e3e
00000300: 6082 403f 1ebd 6e3f 3120 82be f7b6 05bf
00000310: c9c4 49be 2562 7ebf baa4 2ebf 68f6 16bf
00000320: 06b8 bb3e a93a dbbf b8ec e53d 0d38 38bf
00000330: 390b c23e 5e35 8abe e59f 40bf e8f9 1dbf
00000340: 7f76 bb3f 0f0b 89bf ae7e 3a3f 0be3 d03e
00000350: 454b 803f 5a55 3c3e a6da 363c 5fb5 47bf
00000360: e520 e7bf ccbc 89bd 048d 07be 9103 d93e
00000370: 745f 7f3f 8d01 64bf 661c cebb 91bd 093f
00000380: 6880 95bd 3b0b b5bf 9b44 fa3d 95b3 98be
00000390: 9fc7 7bbe 1582 5c3e 7bbf 19be 4f23 dcbe
000003a0: 2288 1a3f e9b3 58bf af8a 273d cf47 ecbe
000003b0: af56 72bf 6854 a1bd 7fb4 84bf 3108 18be
000003c0: ca27 833e 4357 e0be d682 8f3e 9972 3e3f
000003d0: d48e 8dbe e61d e43c 93b2 8dbf 911b 7e3e
000003e0: 0be7 803f bfe4 a5be 896c f0be eae3 8dbf
000003f0: b5a0 e13e f49d 3abe d05a 953f 4750 62be
0.0802017 -0.47463387 0.48070255 -0.2947762 0.5656899 -0.7257348 0.07227368 0.36042646
0.5794565 0.09849412 -0.14273377 0.12201247 1.0427849 -0.11936163 -0.44184643 -0.5397865
0.383775 -0.19177775 0.2778465 1.8739053 0.33497572 2.0667462 0.4091775 1.2548572
-0.2583102 -0.7298511 -0.6528827 -1.5173278 0.43659347 0.074317716 -1.7528102 0.8303697
0.46202213 -1.0333514 0.030762158 0.6884051 0.3416181 -0.5795645 -0.14286694 0.04226188
0.27853262 0.61982095 -0.050036144 1.0576911 0.44395056 -0.9466471 -1.205397 -0.061731502
-0.6738879 -1.8629638 -0.9757844 1.427038 1.5614252 -0.6805903 1.3053977 -0.52926415
-0.12700784 0.7853783 0.8679858 -0.15100697 -0.38475552 -0.14034091 -0.18051605 -0.2500884
-1.352825 0.24862486 1.210012 -0.7317189 0.2596346 -0.6955752 -0.28413945 0.44058004
0.08444412 -0.23887847 1.6549193 -0.1807861 -0.4056085 -1.6962554 0.42385405 -0.50532097
0.41263482 0.61194193 -0.5453911 -1.9513077 -0.1409965 0.6373191 -1.0436705 -0.60401046
-0.059161253 0.70912564 0.5707519 0.08634708 -0.28110695 0.7497478 0.377428 -0.2864556
-0.22073103 -0.30519047 2.0173483 -1.2228074 -2.7593324 -1.5013067 -1.4402275 -0.3871267
0.1381694 -1.6111053 0.032127805 -1.5296458 0.36723557 -0.6595065 0.37106085 -1.1043049
0.49595878 0.6544817 -1.0732229 1.183623 0.18814299 0.36225283 1.0322477 1.2465957
-0.26660997 -0.9555189 -1.1022546 0.21966478 0.47762865 -0.25273767 0.019508578 0.9751768
-0.29092956 0.6904098 -0.4682147 -0.10423264 0.38153493 -0.40439475 1.4303474 0.038601637
-0.1855995 -0.9636089 0.61743546 -0.3678474 1.7771589 0.031060439 -0.019579694 -0.8686156
0.59411764 0.17450106 0.4843643 0.21010613 -0.38472164 -0.82500046 0.43241182 -1.0871154
1.2909027 -0.5399202 0.161559 1.0718921 -0.5334528 -0.18954174 0.99548554 -0.5079366
-0.34807557 -0.2704886 0.4279917 0.59941226 1.4952729 0.11329956 -0.44444677 0.7212813
0.9854959 0.24510492 1.2668246 -0.31016213 0.7858106 0.13300495 -1.4970801 -0.09165324
0.24820055 -0.15198317 -1.0166684 0.20472954 0.3314456 -0.86103636 0.46685338 2.064941
-0.10103147 -0.3070091 -0.0030547301 0.0120993545 0.6494071 0.79891413 1.1981025 0.23330037
0.75198936 0.9325732 -0.25415185 -0.5223231 -0.19703974 -0.99368507 -0.682201 -0.58969736
0.36663836 -1.7127277 0.11226791 -0.71960527 0.37899187 -0.2699384 -0.7524398 -0.6170945
1.4645537 -1.07065 0.7284955 0.4079822 1.002297 0.18391934 0.011160528 -0.78011125
-1.8056914 -0.06725463 -0.13237387 0.42385533 0.99755025 -0.89064866 -0.0062900065 0.5380488
-0.07299882 -1.4144052 0.12220117 -0.2982451 -0.24587868 0.21533997 -0.1501445 -0.42995688
0.6036397 -0.8464952 0.040903743 -0.46148536 -0.9466352 -0.07877427 -1.0367583 -0.14846875
0.25616294 -0.43816575 0.28029507 0.7439361 -0.27648032 0.027846288 -1.1070122 0.24815203
1.0070509 -0.32401082 -0.46957806 -1.1085179 0.44067922 -0.18224317 1.1668339 -0.22100936

layers.0.bias f4 [128]
00000000: 0000 0000 0000 0000 0000 0000 0000 0000
00000010: 0000 0000 0000 0000 0000 0000 0000 0000
00000020: 0000 0000 0000 0000 0000 0000 0000 0000
00000030: 0000 0000 0000 0000 0000 0000 0000 0000
00000040: 0000 0000 0000 0000 0000 0000 0000 0000
00000050: 0000 0000 0000 0000 0000 0000 0000 0000
00000060: 0000 0000 0000 0000 0000 0000 0000 0000
00000070: 0000 0000 0000 0000 0000 0000 0000 0000
00000080: 0000 0000 0000 0000 0000 0000 0000 0000
00000090: 0000 0000 0000 0000 0000 0000 0000 0000
000000a0: 0000 0000 0000 0000 0000 0000 0000 0000
000000b0: 0000 0000 0000 0000 0000 0000 0000 0000
000000c0: 0000 0000 0000 0000 0000 0000 0000 0000
000000d0: 0000 0000 0000 0000 0000 0000 0000 0000
000000e0: 0000 0000 0000 0000 0000 0000 0000 0000
000000f0: 0000 0000 0000 0000 0000 0000 0000 0000
00000100: 0000 0000 0000 0000 0000 0000 0000 0000
00000110: 0000 0000 0000 0000 0000 0000 0000 0000
00000120: 0000 0000 0000 0000 0000 0000 0000 0000
00000130: 0000 0000 0000 0000 0000 0000 0000 0000
00000140: 0000 0000 0000 0000 0000 0000 0000 0000
00000150: 0000 0000 0000 0000 0000 0000 0000 0000
00000160: 0000 0000 0000 0000 0000 0000 0000 0000
00000170: 0000 0000 0000 0000 0000 0000 0000 0000
00000180: 0000 0000 0000 0000 0000 0000 0000 0000
00000190: 0000 0000 0000 0000 0000 0000 0000 0000
000001a0: 0000 0000 0000 0000 0000 0000 0000 0000
000001b0: 0000 0000 0000 0000 0000 0000 0000 0000
000001c0: 0000 0000 0000 0000 0000 0000 0000 0000
000001d0: 0000 0000 0000 0000 0000 0000 0000 0000
000001e0: 0000 0000 0000 0000 0000 0000 0000 0000
000001f0: 0000 0000 0000 0000 0000 0000 0000 0000
0.0 0.0 0.0 0.0 0.0 0.0 0.0 0.0
0.0 0.0 0.0 0.0 0.0 0.0 0.0 0.0
0.0 0.0 0.0 0.0 0.0 0.0 0.0 0.0
0.0 0.0 0.0 0.0 0.0 0.0 0.0 0.0
0.0 0.0 0.0 0.0 0.0 0.0 0.0 0.0
0.0 0.0 0.0 0.0 0.0 0.0 0.0 0.0
0.0 0.0 0.0 0.0 0.0 0.0 0.0 0.0
0.0 0.0 0.0 0.0 0.0 0.0 0.0 0.0
0.0 0.0 0.0 0.0 0.0 0.0 0.0 0.0
0.0 0.0 0.0 0.0 0.0 0.0 0.0 0.0
0.0 0.0 0.0 0.0 0.0 0.0 0.0 0.0
0.0 0.0 0.0 0.0 0.0 0.0 0.0 0.0
0.0 0.0 0.0 0.0 0.0 0.0 0.0 0.0
0.0 0.0 0.0 0.0 0.0 0.0 0.0 0.0
0.0 0.0 0.0 0.0 0.0 0.0 0.0 0.0
0.0 0.0 0.0 0.0 0.0 0.0 0.0 0.0

action_parameters_output_layer.weight f4 [27, 128]
00000000: 14b6 0ab8 5244 b1b8 b58c ecb8 6a79 19b7
00000010: 94e5 16b8 d528 21b8 9116 f6b8 b2c5 dd38
00000020: b585 f238 5ac8 d7b8 93c4 59b7 8c40 7637
00000030: 44e3 0539 6a7e 51b6 d919 8bb8 f54c f736
00000040: 53fd 0138 2576 aab8 764f b1b8 c4f5 6837
00000050: 782f c337 6a2f fab7 e567 f037 fb09 a738
00000060: e389 0639 5583 1638 b9e0 1439 54d3 d7b6
00000070: c328 7eb8 cd76 d2b6 cebf feb7 d679 7c38
00000080: 746d b6b7 b7e8 2538 99e5 6b38 f112 09b9
00000090: 566e d2b8 63c6 a7b8 4a6c 4837 b37d ea38
000000a0: 54df d7b8 ca7d a7b6 feee 42b9 131c edb8
000000b0: 7211 5ab8 cf5f 09b9 417d df37 1a8d 4d39
000000c0: 8d95 95b7 5c76 cbb8 7fb1 8837 72f9 3038
000000d0: f114 1e38 702b 11b7 dee8 42b7 5d6b 0a37
000000e0: e3e4 67b9 8afd 9736 71e7 44b9 f8cb 1539
000000f0: 8d7c 3e38 9489 d5b7 2028 8937 c171 2138
00000100: e82a 3138 a6cb 8139 9d20 c0b7 66cf 9e38
00000110: 1a48 3038 d929 2839 9947 0839 83c1 49b6
00000120: 12fe 55b8 e7d0 dfb6 35e1 d1b8 0962 f9b8
00000130: 3379 07b8 80c8 27b9 29f3 0339 9e29 cab8
00000140: fd09 9db7 c6a1 a1b8 d427 99b8 bf45 6638
00000150: b2a5 3437 abfa 42b7 3605 18b9 b7ab bfb8
00000160: f7f3 4738 8f1e fc38 a5d5 9638 9b2d 1136
00000170: c327 c7b8 46f8 ad38 58b9 e738 17f0 4038
00000180: f297 a2b8 f520 8339 cc1e 3c37 0681 c7b8
00000190: c199 2839 9e91 c237 9f5b 1e39 1b98 1138
000001a0: 8289 df37 c8f2 a437 3b70 af38 24c2 bf37
000001b0: 4251 a4b7 e3e8 45b9 35b8 b8b8 a3dd fd38
000001c0: 6833 c1b7 251c 41b9 ba0b 26b8 fc7d 16b9
000001d0: 3c99 06b9 d68a 50b9 6bdb eeb7 ca50 0539
000001e0: 07ba e3b6 dc2f 4838 c6df 2a39 f019 b838
000001f0: ab6e 96b7 7cd1 9cb8 2502 4438 52e3 d5b8
00000200: cb1c 5538 9fff ddb8 4d64 f6b8 43c7 6537
00000210: 24bc 7438 f2ce 45b7 2f62 00b9 4b95 7f39
00000220: bb7a a438 140a 1138 946e ffb8 33cf ec38
00000230: ffd0 bc38 0c01 49b8 fd60 15b9 7da6 ec38
00000240: 2c8a 1d38 dd0b 8bb7 046a d537 a4fc 3d38
00000250: 653d 4039 a8cf 07b8 3ae1 a5b8 efd8 6c37
00000260: 58d5 0739 8893 1439 d811 b5b8 452a 24b6
00000270: 87db 4cb5 afb9 c0b8 2bc4 b8b7 ed3e 2d39
00000280: f50c eb38 1ba1 38b8 d6bf 2738 af6c 3a38
00000290: 005b f3b8 2bc5 b2b8 646f ae38 372c 96b8
000002a0: 6352 54b7 fb33 39b8 467b 09b8 26fe 6ab9
000002b0: 5b94 1839 49e3 23b7 3ba1 3538 271c 6439
000002c0: 975e 2838 f973 fdb8 8640 abb8 5aa2 c9b7
000002d0: b632 efb8 8f37 c9b8 2839 3538 6dee c9b7
000002e0: 1952 edb8 3c71 be37 11c4 1db8 e3a3 8238
000002f0: 8c8d 0eb9 a3e8 9c38 f8e1 32b8 f1ca 0b39
00000300: 458c 8cb8 6bd6 15b9 a484 2d37 888e 2ab8
00000310: 086d 0fb8 fb57 d2b8 b291 82b8 3a4d 61b8
00000320: addc 93b7 5292 14b8 bc67 2f38 8f05 8e37
00000330: 4f8b 67b8 ab39 8db8 21cd 2239 ccaf cdb6
00000340: a8ba 7fb8 d332 bfb6 f91c 0db9 1d1e 9937
00000350: d105 8136 356a 54b6 7ed4 e4b7 45ba 2238
00000360: c56c 2eb9 99c1 70b8 4afa ceb6 a064 14b9
00000370: cd9e 87b8 e7ac 4e38 38fa f938 fb5f 99b6
00000380: 85cf 0cb8 3d9f 93b8 4d40 8cb7 da56 6138
00000390: a946 f137 5b0b 5039 e372 97b8 c7cc 06b9
000003a0: 0cb2 4eb9 9eac 5138 4c0e b337 d2b8 3539
000003b0: 8cea 1038 0c87 c6b8 3d18 21b7 af0b 4ab8
000003c0: 7f96 0838 141e e738 0fda 80b7 4267 f834
000003d0: 69c7 b738 1eea 1239 0e22 3537 8900 0539
000003e0: 8c77 32b7 9fdc ab38 d431 1bb8 a60b d3b8
000003f0: 219e 43b9 9cd8 b238 e7ae 0eb9 591c 8bb8
-3.3071337e-05 -8.452743e-05 -0.00011279566 -9.14778e-06 -3.5976598e-05 -3.842342e-05 -0.000117343974 0.00010574925
0.00011564364 -0.00010289317 -1.2979976e-05 1.4677771e-05 0.00012768531 -3.121701e-06 -6.632851e-05 7.3701326e-06
3.0991923e-05 -8.128238e-05 -8.4548185e-05 1.3885499e-05 2.3267916e-05 -2.9824401e-05 2.865861e-05 7.9650395e-05
0.00012830603 3.58851e-05 0.00014198096 -6.432101e-06 -6.059628e-05 -6.272318e-06 -3.0368476e-05 6.019495e-05
-2.1747059e-05 3.9555798e-05 5.6242196e-05 -0.00013072394 -0.00010034132 -8.000133e-05 1.1946142e-05 0.00011181403
-0.00010293597 -4.9916316e-06 -0.00018590313 -0.0001130627 -5.1991497e-05 -0.0001310103 2.6641997e-05 0.00019602888
-1.7831824e-05 -9.7018405e-05 1.6295116e-05 4.2193984e-05 3.768964e-05 -8.652787e-06 -1.161752e-05 8.250438e-06
-0.00022115144 4.5296665e-06 -0.00018778235 0.00014285732 4.5415527e-05 -2.5455643e-05 1.6350357e-05 3.8491333e-05
4.2240048e-05 0.00024756527 -2.290337e-05 7.572658e-05 4.202882e-05 0.00016037318 0.00012996643 -3.0063973e-06
-5.101978e-05 -6.6702373e-06 -0.00010007845 -0.00011891506 -3.2299384e-05 -0.00016001053 0.00012583718 -9.6398624e-05
-1.872051e-05 -7.707211e-05 -7.303027e-05 5.490123e-05 1.0767415e-05 -1.1621664e-05 -0.00014497791 -9.139574e-05
4.7672507e-05 0.000120219884 7.192352e-05 2.163323e-06 -9.496466e-05 8.2955274e-05 0.00011049461 4.599997e-05
-7.753064e-05 0.00025010822 1.1212844e-05 -9.513092e-05 0.00016079006 2.319441e-05 0.00015102186 3.4712353e-05
2.6647704e-05 1.9663377e-05 8.365555e-05 2.2859378e-05 -1.9588162e-05 -0.00018874141 -8.808115e-05 0.00012105263
-2.303133e-05 -0.00018416399 -3.9588405e-05 -0.00014352048 -0.0001283632 -0.00019888146 -2.8473985e-05 0.00012713965
-6.7867836e-06 4.772829e-05 0.00016295825 8.778635e-05 -1.7932927e-05 -7.477679e-05 4.673204e-05 -0.00010198973
5.0809973e-05 -0.00010585714 -0.000117488766 1.3695858e-05 5.8349353e-05 -1.1790298e-05 -0.00012243607 0.00024374311
7.84299e-05 3.458008e-05 -0.00012179944 0.00011291951 9.003467e-05 -4.792311e-05 -0.00014245878 0.00011284368
3.75604e-05 -1.6575616e-05 2.5440946e-05 4.52964e-05 0.00018333418 -3.2379903e-05 -7.909765e-05 1.4117205e-05
0.0001295408 0.0001416934 -8.634076e-05 -2.4462508e-06 -7.6315376e-07 -9.18986e-05 -2.2025857e-05 0.00016522007
0.00011208087 -4.401906e-05 3.9994564e-05 4.4447075e-05 -0.00011604093 -8.524427e-05 8.317715e-05 -7.160793e-05
-1.2655367e-05 -4.4155848e-05 -3.2778153e-05 -0.00022410657 0.00014551116 -9.768476e-06 4.330392e-05 0.00021754262
4.0142415e-05 -0.00012085582 -8.165934e-05 -2.4036668e-05 -0.00011405854 -9.5947755e-05 4.3206994e-05 -2.4072093e-05
-0.000113163325 2.2702494e-05 -3.7614318e-05 6.229409e-05 -0.00013594906 7.4819916e-05 -4.2648957e-05 0.00013331675
-6.7018475e-05 -0.00014289624 1.0342486e-05 -4.06639e-05 -3.41954e-05 -0.00010029968 -6.226021e-05 -5.3716103e-05
-1.7626526e-05 -3.542222e-05 4.181986e-05 1.6930308e-05 -5.5204433e-05 -6.7341454e-05 0.0001552594 -6.1299415e-06
-6.0970575e-05 -5.6981603e-06 -0.00013457601 1.8253044e-05 3.8451767e-06 -3.1652282e-06 -2.7278667e-05 3.8797287e-05
-0.00016634453 -5.740076e-05 -6.168416e-06 -0.00014151866 -6.4668806e-05 4.9275255e-05 0.00011919852 -4.570929e-06
-3.357187e-05 -7.039167e-05 -1.6719243e-05 5.3725067e-05 2.8762342e-05 0.00019840656 -7.2216404e-05 -0.00012855521
-0.00019712019 4.9990245e-05 2.134512e-05 0.00017330356 3.4550714e-05 -9.46653e-05 -9.601991e-06 -4.8171434e-05
3.2565087e-05 0.00011020541 -1.536033e-05 4.626873e-07 8.763263e-05 0.0001401086 1.079637e-05 0.00012684068
-1.0637461e-05 8.195009e-05 -3.7001286e-05 -0.00010063434 -0.00018655557 8.528048e-05 -0.00013607331 -6.633317e-05

action_parameters_output_layer.bias f4 [27]
00000000: 0000 0000 0000 0000 0000 0000 0000 0000
00000010: 0000 0000 0000 0000 0000 0000 0000 0000
00000020: 0000 0000 0000 0000 0000 0000 0000 0000
00000030: 0000 0000 0000 0000 0000 0000 0000 0000
00000040: 0000 0000 0000 0000 0000 0000 0000 0000
00000050: 0000 0000 0000 0000 0000 0000 0000 0000
00000060: 0000 0000 0000 0000 0000 0000
0.0 0.0 0.0 0.0 0.0 0.0 0.0 0.0
0.0 0.0 0.0 0.0 0.0 0.0 0.0 0.0
0.0 0.0 0.0 0.0 0.0 0.0 0.0 0.0
0.0 0.0 0.0

action_parameters_passthrough_layer.weight f4 [27, 3]
00000000: 0000 0000 0000 0000 0000 0000 0000 0000
00000010: 0000 0000 0000 0000 0000 0000 0000 0000
00000020: 0000 0000 0000 0000 0000 0000 0000 0000
00000030: 0000 0000 0000 0000 0000 0000 0000 0000
00000040: 0000 0000 0000 0000 0000 0000 0000 0000
00000050: 0000 0000 0000 0000 0000 0000 0000 0000
00000060: 0000 0000 0000 0000 0000 0000 0000 0000
00000070: 0000 0000 0000 0000 0000 0000 0000 0000
00000080: 0000 0000 0000 0000 0000 0000 0000 0000
00000090: 0000 0000 0000 0000 0000 0000 0000 0000
000000a0: 0000 0000 0000 0000 0000 0000 0000 0000
000000b0: 0000 0000 0000 0000 0000 0000 0000 0000
000000c0: 0000 0000 0000 0000 0000 0000 0000 0000
000000d0: 0000 0000 0000 0000 0000 0000 0000 0000
000000e0: 0000 0000 0000 0000 0000 0000 0000 0000
000000f0: 0000 0000 0000 0000 0000 0000 0000 0000
00000100: 0000 0000 0000 0000 0000 0000 0000 0000
00000110: 0000 0000 0000 0000 0000 0000 0000 0000
00000120: 0000 0000 0000 0000 0000 0000 0000 0000
00000130: 0000 0000 0000 0000 0000 0000 0000 0000
00000140: 0000 0000
0.0 0.0 0.0 0.0 0.0 0.0 0.0 0.0
0.0 0.0 0.0 0.0 0.0 0.0 0.0 0.0
0.0 0.0 0.0 0.0 0.0 0.0 0.0 0.0
0.0 0.0 0.0 0.0 0.0 0.0 0.0 0.0
0.0 0.0 0.0 0.0 0.0 0.0 0.0 0.0
0.0 0.0 0.0 0.0 0.0 0.0 0.0 0.0
0.0 0.0 0.0 0.0 0.0 0.0 0.0 0.0
0.0 0.0 0.0 0.0 0.0 0.0 0.0 0.0
0.0 0.0 0.0 0.0 0.0 0.0 0.0 0.0
0.0 0.0 0.0 0.0 0.0 0.0 0.0 0.0
0.0

action_parameters_passthrough_layer.bias f4 [27]
00000000: 0000 0000 0000 0000 0000 0000 0000 0000
00000010: 0000 0000 0000 0000 0000 0000 0000 0000
00000020: 0000 0000 0000 0000 0000 0000 0000 0000
00000030: 0000 0000 0000 0000 0000 0000 0000 0000
00000040: 0000 0000 0000 0000 0000 0000 0000 0000
00000050: 0000 0000 0000 0000 0000 0000 0000 0000
00000060: 0000 0000 0000 0000 0000 0000
0.0 0.0 0.0 0.0 0.0 0.0 0.0 0.0
0.0 0.0 0.0 0.0 0.0 0.0 0.0 0.0
0.0 0.0 0.0 0.0 0.0 0.0 0.0 0.0
0.0 0.0 0.0
