RL4E2E/results/galaxy/2.1k1/actor_param.pt (torch, 18758 bytes, 6 tensors)

layers.0.weight f4 [128, 3]
000000 ea b9 5a 3e 92 10 ac bd d8 19 d7 3f 68 47 b3 3e
       0.21359983 -0.08401598 1.6804762 0.35015416
000010 ba b6 76 3f 59 36 28 3f 10 3e 5d 3d bf 62 a0 be
       0.9637257 0.6570793 0.054014266 -0.31325337
000020 22 0c 8d bf 69 05 bd 3f 36 85 8b bf e5 16 95 be
       -1.1019328 1.4767276 -1.0900028 -0.2911903
000030 74 8c 08 c0 c7 67 9e be 53 77 f1 be 39 6e 30 3e
       -2.1335726 -0.3093855 -0.4716135 0.17229547
000040 06 d3 b9 3e 6e 7f 60 bf bf 10 09 bf 64 86 37 bf
       0.3629381 -0.8769444 -0.5354118 -0.7168944
000050 79 aa c2 3e b2 d9 68 3f d2 bb 84 bf 95 48 58 3f
       0.38020685 0.90957177 -1.0369818 0.8448575
000060 d0 b6 65 bf 1d b0 5e 3f 04 bc 06 3f 47 e7 84 3e
       -0.89732075 0.8698748 0.5263064 0.259577
000070 ef 1f 22 3e 01 4f 5f be f7 49 aa be 86 ff 29 bf
       0.15832494 -0.21807481 -0.33259556 -0.6640552
000080 e6 5e 4e 3e 21 fd 4a 3f 1c 3a 0d 3f 7c 00 27 3e
       0.20153388 0.79292494 0.5516679 0.16308779
000090 eb 5f 87 3f 5b 04 c9 bf 2f 00 4c 3f 8e e8 1c 40
       1.0576147 -1.5704454 0.7968778 2.451694
0000a0 51 71 5a 3e cf 8a b3 3d f2 41 89 3f 12 66 26 3f
       0.2133229 0.0876671 1.072325 0.64999497
0000b0 37 dc 96 bf 64 1e 47 be 5b 3f 55 3e 83 7e 20 3f
       -1.1785954 -0.19445187 0.2082495 0.6269304
0000c0 d1 dd cf 3f 83 2f 07 3e f9 ee 47 be 9d a0 b0 3f
       1.6239568 0.13201718 -0.19524755 1.3799015
0000d0 ab fd 09 3f 3e d8 53 3f 58 c6 1d bf 75 f8 a7 3f
       0.5390269 0.82751834 -0.61630774 1.3122698
0000e0 3a bc 9a 3f 3e 3e 3a 3f dc 5d 11 be 0e 4c 72 3b
       1.2088692 0.72751224 -0.14195961 0.0036971602
0000f0 48 41 4b 3e 7a 9e a5 be 80 43 e4 bf 55 10 da be
       0.19849122 -0.3234747 -1.7833099 -0.42590585
000100 0b a2 18 3f 02 e9 05 3f dd 0d ef be d4 61 2b bf
       0.5962226 0.52308667 -0.46690264 -0.6694615
000110 bd 58 04 bf 92 ee 7c 3d d2 6f 24 3d ea 0f 1e 3f
       -0.51697904 0.061750956 0.040145703 0.6174303
000120 c6 0f 52 3f 8e f3 51 3f 01 a0 35 3f ff f7 37 bd
       0.8205532 0.8201226 0.7094727 -0.044914242
000130 a0 93 30 3f 9e f7 b0 be e9 52 ed be f2 98 fb be
       0.6897526 -0.34563917 -0.46352318 -0.49140126
000140 42 34 bb 3f 11 b0 09 bf ed b4 b6 3f f3 6c 84 3f
       1.4625323 -0.5378428 1.4273964 1.0345749
000150 c7 84 b5 3d 4f 94 af 3e 55 fd 7d be 8c d8 15 3f
       0.08863216 0.34292838 -0.2480367 0.5853355
000160 26 d8 49 3f 7d fc af 3f a1 10 d0 3c 1f 57 9b be
       0.7884544 1.3748928 0.025398554 -0.30339906
000170 2c f0 23 bd 8f 82 2d 3f af d2 2e bf 91 f6 72 bf
       -0.040023968 0.6777734 -0.6829023 -0.9490748
000180 72 58 58 3f fe b5 fe bc ae ae b7 bf de 5d 70 bf
       0.84509957 -0.03109264 -1.4350183 -0.9389323
000190 cf 31 99 3f 59 b1 81 be ee a6 0a bd 5a 01 20 3f
       1.1968325 -0.25330618 -0.033850603 0.6250206
0001a0 e7 92 32 3f f6 c8 d2 be 64 de 21 3f 9e 04 67 be
       0.69755405 -0.41168946 0.63229966 -0.22560355
0001b0 22 37 d2 be 1e 56 4a 3f 64 82 d5 3e d8 a0 34 be
       -0.41057688 0.79037654 0.41701043 -0.17639482
0001c0 c6 f2 89 bf 77 9f 95 bf 7f b9 13 40 93 a3 ef bd
       -1.0777214 -1.168929 2.3081968 -0.11701121
0001d0 60 5a 74 3f ee 25 37 bf 3f 33 70 bf 4e 61 71 be
       0.954504 -0.7154225 -0.93828195 -0.23572275
0001e0 af ce d1 be 37 10 6d 3f 94 63 08 40 cf d2 01 bf
       -0.40978 0.92602867 2.1310778 -0.50712293
0001f0 67 2d cf bf a8 e5 c3 3f 69 ea 77 3f 43 75 cb be
       -1.6185731 1.530446 0.96842057 -0.397379
000200 0d 69 3b 3c 56 f2 77 3f 76 55 a2 3f 08 98 0d 3f
       0.01143862 0.9685415 1.2682331 0.55310106
000210 ee 4a 44 3f 76 e4 aa be b3 2d 94 3f 1b a6 19 3f
       0.76676834 -0.33377427 1.1576446 0.6001908
000220 98 02 c2 bd ba a8 5d bf 9a e4 93 3d 26 d3 94 3e
       -0.09473151 -0.8658558 0.07221337 0.29067343
000230 af 32 42 bf fe 3d 5a bf 0f 95 0f bf 2c 46 8f bf
       -0.7585859 -0.8525084 -0.5608682 -1.119329
000240 4c c6 98 3f 29 4a 10 be 6d f6 e5 3c c1 f9 a9 bf
       1.1935515 -0.1409079 0.028071607 -1.3279344
000250 3c b5 8f 3f 1b ab bb 3e 7e 0f db 3e 1f e0 90 3f
       1.1227183 0.3665398 0.42785257 1.1318396
000260 26 37 89 bd c3 79 b9 3e 94 2e 53 bf 38 6d 08 3f
       -0.06699972 0.3622571 -0.8249295 0.53291655
000270 87 41 c7 3e 3a 87 44 bf 57 e2 3c 3f 45 e3 87 3e
       0.3891718 -0.7676884 0.7378287 0.2654058
000280 5a dc 4d 3f 21 fd fd 3e de fd 00 3b 9e 01 30 3f
       0.80414355 0.49607185 0.0019682567 0.6875247
000290 f7 3c ed be f0 c7 5c 3d 4d e4 1a 3f 94 b1 31 3d
       -0.46335575 0.053901613 0.6050461 0.043382242
0002a0 fd 4b aa bf 56 cd f3 bd 84 0d 8f 3f 13 28 4a bf
       -1.330444 -0.11904399 1.1176 -0.789674
0002b0 b3 17 be be 3b 65 16 bf 4b df 7b be fb cf 01 bf
       -0.37127456 -0.58748215 -0.24596898 -0.5070798
0002c0 46 6b be bf cb ff 48 3f 68 bb 72 3f 71 63 ae 3e
       -1.4876487 0.7851531 0.9481721 0.34060243
0002d0 f5 bb d7 3e a9 e1 eb 3d 80 88 a8 bd ca d6 c0 3e
       0.42135587 0.11517651 -0.0822916 0.3766387
0002e0 5b 76 b2 bf 2e 66 c1 3d df 48 30 3e fb b2 dc 3e
       -1.3942369 0.09443317 0.17215298 0.431053
0002f0 6a 1b 4b 3f 45 cc dd 3e 58 97 91 be 54 c1 1e 3e
       0.79338706 0.43319908 -0.2843578 0.15503436
000300 68 d4 69 3f c2 f9 91 3b 9c 0a 6d bf 0e 83 96 3e
       0.9133973 0.0044548223 -0.92594314 0.29396862
000310 06 73 8b 3e cf 1b 12 3f aa 27 7b bf 65 c2 2d bf
       0.27236193 0.5707368 -0.981074 -0.6787475
000320 5e f1 31 3d 54 26 59 3c be 0a d0 3e 38 f7 fb be
       0.043443076 0.013253767 0.40633196 -0.4921205
000330 ae 86 71 bd d5 eb 9c 3f 35 20 94 3f 63 50 d3 3d
       -0.05896633 1.225947 1.1572329 0.10318067
000340 1f 7c a9 3e a4 22 eb bf 8e 3a 7c 3f bf 8f d7 be
       0.3310251 -1.8369946 0.9852685 -0.42101857
000350 52 3c c3 be 6f fa db be 6e ff 78 bf 80 06 e9 bf
       -0.38131958 -0.42964503 -0.97264755 -1.8205109
000360 61 53 97 3f 3d 42 90 bf a3 6d 98 3e 20 ed 25 bd
       1.182232 -1.1270214 0.29771146 -0.040509343
000370 d8 9a df bf 49 47 86 bf 59 f8 5d 3f 0e 52 78 3d
       -1.746913 -1.0490505 0.86707073 0.06062513
000380 eb 98 35 bf 98 d4 62 be bd 79 1c 3f 64 dd 95 3f
       -0.7093646 -0.2215141 0.6112326 1.1708188
000390 a4 ba 60 bf 48 b2 88 3e 1c 68 0f 3e 03 e2 db 3d
       -0.8778479 0.26698518 0.14004558 0.10736468
0003a0 ca e2 f6 bf fd 5f db be f8 ce 03 3d 56 4b 9c bf
       -1.928796 -0.4284667 0.032179803 -1.2210491
0003b0 6e b7 8c 3e 26 3c 19 3f 01 63 8d 3f 41 39 1f bf
       0.27483696 0.59857404 1.1045839 -0.6219674
0003c0 27 e0 a6 bc 43 88 80 3f 5c 36 9b 3e 4a 6a 9d 3e
       -0.020370556 1.0041584 0.3031491 0.30745155
0003d0 40 0e 78 bf ce 82 c4 be 5d b7 90 3f f7 27 da 3f
       -0.96896744 -0.38381046 1.1305958 1.7043446
0003e0 dc f7 11 bf b8 de 95 bf 71 3d d3 be 1d b6 01 3f
       -0.5701883 -1.1708593 -0.41257814 0.5066851
0003f0 6f 9c 9a bf 19 93 f9 be 61 f2 22 bf a3 8c 38 3f
       -1.207899 -0.4874504 -0.6365109 0.72089595

layers.0.bias f4 [128]
000000 54 88 1d 3e 7b 26 3f 3e ee 8f b9 3b 93 5f 1a be
       0.15384036 0.18667023 0.0056629097 -0.15075521
000010 00 00 00 00 94 2b 20 be 47 68 7d 3d 49 63 da bd
       0.0 -0.15641624 0.061867025 -0.106634684
000020 f4 ed 5c 3d 90 01 8d 3c d0 72 9f 3d 68 db 15 3e
       0.053937867 0.01721266 0.077855706 0.14634478
000030 44 24 10 be 15 86 b7 3d df 8f b4 bd 1d 46 5c 3d
       -0.14076334 0.08961121 -0.08816504 0.053777803
000040 82 72 af 3c d2 56 1b 3e 79 e1 d9 3c f9 97 31 bd
       0.021416906 0.15169838 0.026596772 -0.043357823
000050 cf 3c 30 be 80 47 06 3d 00 00 00 00 79 3a 3d 3e
       -0.17210697 0.03278303 0.0 0.18479337
000060 46 d0 25 3e 23 8d b6 3d 94 52 45 3d 86 e9 84 3d
       0.16192731 0.089136384 0.048174456 0.064898536
000070 e0 ee cc 3d 2d 29 26 3e 22 3d 51 be 71 e5 46 be
       0.10006499 0.16226645 -0.20433477 -0.19423462
000080 5b c8 29 be 3c d8 8f 3d a0 ad 7f 3e 7d ac 9d 3d
       -0.16580336 0.07023665 0.24968576 0.07698915
000090 ee 47 22 3d 00 00 00 00 97 17 7b 3d 00 00 00 00
       0.03961938 0.0 0.061301794 0.0
0000a0 b2 fd 24 3e 4e f2 6c 3d e4 66 f0 bd 22 70 1f 3e
       0.16112402 0.057848267 -0.11738375 0.15570119
0000b0 f5 44 b9 3d 5f f2 28 be 7e 14 fd bd 00 00 00 00
       0.09046356 -0.16498707 -0.12357424 0.0
0000c0 12 bf c3 bd 06 b4 19 3b 09 7a 32 3e 01 e2 e7 bd
       -0.09557928 0.002345325 0.17429365 -0.11322404
0000d0 39 4f 4b bd 49 36 3f 3e db 50 10 3e 89 9d 50 3e
       -0.0496361 0.18673052 0.14093344 0.20372595
0000e0 6a 5c 6f 3d 00 00 00 00 00 00 00 00 62 82 28 3e
       0.058437742 0.0 0.0 0.16455987
0000f0 28 39 43 3d 6e 80 44 be aa ed 42 3e 3a e7 04 be
       0.04766193 -0.19189617 0.19035974 -0.12978831
000100 15 1d 1d be 29 2f 38 3e 3e 96 29 bc a5 52 c2 3d
       -0.15343125 0.1798674 -0.010350762 0.094884194
000110 f1 e9 8a 3e 1b ef 5d bd 28 f7 ad bd 00 00 00 00
       0.27131608 -0.054183107 -0.08494407 0.0
000120 58 83 23 be 00 00 00 00 aa 00 88 bd fa 5a c9 3d
       -0.15968072 0.0 -0.06640752 0.098318055
000130 62 d8 d8 3c 79 fa d7 bd 03 57 96 3d 0c 7c 00 3e
       0.026470367 -0.10545821 0.07340815 0.1254732
000140 83 26 8b 3e d3 22 4f be b6 03 ef 3d b8 4d 45 3d
       0.2717782 -0.20228128 0.1167063 0.04816982
000150 00 00 00 00 bf fd 49 be 84 ab 34 3e 6f cf 2e 3a
       0.0 -0.19725703 0.17643553 0.0006668483
000160 00 00 00 00 00 00 00 00 b3 57 e9 bd 00 00 00 00
       0.0 0.0 -0.113936804 0.0
000170 63 cf 3f 3e 7c 28 4f 3e f7 37 2c 3e 00 00 00 00
       0.18731456 0.20230287 0.16818224 0.0
000180 58 4b 16 be 07 f0 37 3d 25 52 17 3d 01 d5 c8 3c
       -0.14677179 0.044906642 0.036943574 0.02451563
000190 0f 4f 16 3e b4 77 31 be 8b 0b 18 3e 00 00 00 00
       0.14678596 -0.1733082 0.14848153 0.0
0001a0 f9 43 2b 3e ea 1d 06 3e 87 4e 6c 3e 80 ae 1d 3e
       0.16725148 0.13097349 0.23076831 0.15398598
0001b0 f1 ee 80 ba 97 4f 19 3e 00 00 00 00 9a e1 84 3e
       -0.0009836835 0.14971767 0.0 0.2595337
0001c0 8c aa ad 3d 31 09 ea 3d c6 8a 8e bb b8 01 ee 3b
       0.08479795 0.11427534 -0.004350039 0.0072633885
0001d0 00 00 00 00 43 b3 5a be 9e 3c 1d 3e 00 00 00 00
       0.0 -0.21357445 0.15355155 0.0
0001e0 61 a7 3d bc ab e1 bf 3c f0 1f 69 3d 22 b1 31 3e
       -0.011575551 0.023423037 0.056915224 0.17352727
0001f0 1c f0 13 3e cb 67 a5 3d 30 87 00 38 09 fd 35 3c
       0.14447063 0.080764376 3.064348e-05 0.011107692

action_parameters_output_layer.weight f4 [27, 128]
000000 60 56 6d ba ff a5 94 3a 64 ed 80 bc 4a 54 bc b9
       -0.00090537034 0.0011340975 -0.015738197 -0.00035920955
000010 4b b7 20 b9 6a 1a f2 3a 4b ae ac bc aa 82 0a ba
       -0.00015327071 0.0018471007 -0.021079203 -0.00052837527
000020 04 c5 96 3a 62 21 b5 39 a1 de b9 bc b2 b6 c6 39
       0.0011502807 0.00034547882 -0.022689166 0.00037901622
000030 45 82 5e ba 23 4c 52 39 eb d7 b3 39 98 8f 8c 3c
       -0.00084880396 0.00020055524 0.00034302412 0.017158315
000040 1d 5f fc 38 13 89 b0 39 83 9c b4 bb c6 f2 78 b8
       0.000120340126 0.00033671464 -0.0055118217 -5.9353908e-05
000050 1b ff 56 3a a2 84 07 bb 33 68 38 b9 04 11 5c b9
       0.0008201466 -0.002067842 -0.00017586425 -0.00020987174
000060 32 15 40 39 72 87 58 bd ac 65 84 3b 6e 25 ac ba
       0.00018318443 -0.052863546 0.0040404405 -0.0013133714
000070 d6 58 fd 3a 48 9a a1 38 26 f9 0b bc da e9 f4 b9
       0.0019328843 7.7058154e-05 -0.008543288 -0.0004671354
000080 22 52 fc 38 7f 49 3f bb 61 1e a2 3c fe 1d 99 bb
       0.00012031595 -0.0029188094 0.019789876 -0.004672765
000090 9e 47 2d bc a4 d0 d0 b8 a0 c1 6b 38 f3 60 af 38
       -0.010576157 -9.957075e-05 5.6208693e-05 8.3627085e-05
0000a0 4e 10 d2 3c fb 04 8f bb 6a 3f 78 b9 81 27 e8 39
       0.02564254 -0.0043646074 -0.00023674747 0.0004427992
0000b0 44 e6 60 b9 e8 d3 08 39 e4 f6 1d 3b 0d 21 19 b9
       -0.00021448085 0.00013048912 0.0024103457 -0.0001460353
0000c0 48 ff 5b 34 38 0d a2 3a cf d7 a5 3a 2a 5d c5 ba
       2.0488835e-07 0.0012363559 0.0012652817 -0.0015057672
0000d0 c9 0d ae ba a9 de 98 3a 32 25 12 3d ad b0 93 3b
       -0.0013279255 0.0011663038 0.035680003 0.0045071454
0000e0 90 2d e7 3a 57 90 01 b9 cf 9d 59 b7 22 7a 23 3a
       0.001763748 -0.0001235617 -1.2970951e-05 0.0006236156
0000f0 1d 70 bc 39 b5 88 15 bb 40 7f 34 3a 9f bc ca b9
       0.00035941685 -0.002281708 0.0006885417 -0.00038668976
000100 79 84 34 39 0f 80 98 39 28 ca d0 bb c7 57 80 3d
       0.00017215488 0.0002908711 -0.006371755 0.06266742
000110 2f d1 f1 3b 7e 9f 2d ba b7 26 89 b7 3f 82 74 b8
       0.007379673 -0.00066231925 -1.63497e-05 -5.8295434e-05
000120 67 be 10 ba d1 aa 2e b8 1b 8e 3d b7 b4 79 c0 3c
       -0.0005521536 -4.1643918e-05 -1.1298364e-05 0.023495533
000130 ca bd 9f b8 bf a8 95 bc 9d 11 62 3c ca 49 8a 3a
       -7.617062e-05 -0.018268941 0.013798145 0.0010550555
000140 8e 69 0e 3d a4 21 d6 ba e4 19 69 3a a9 66 e8 bc
       0.034768634 -0.001633693 0.00088921026 -0.028369265
000150 1b fd c0 37 cd 9d 4d ba a6 d8 ca bc d8 ae 64 bc
       2.3006045e-05 -0.00078436435 -0.02476151 -0.013957702
000160 99 e1 b0 37 ad a2 15 38 61 b2 5b b9 c6 7f d8 b7
       2.1085887e-05 3.5675872e-05 -0.00020951919 -2.5808706e-05
000170 83 f7 a6 3a 29 12 62 3a 4b 70 60 3a 2a 46 35 b8
       0.0012738559 0.0008623922 0.0008561655 -4.321911e-05
000180 e3 f2 18 b8 85 33 b2 bb ba 23 8d bb 0c 87 4a 3a
       -3.646583e-05 -0.0054382705 -0.0043072375 0.0007725812
000190 ad 5e 71 bc 21 a0 b9 b8 4f a9 0d ba 01 9e a8 38
       -0.014732045 -8.851314e-05 -0.0005403952 8.040295e-05
0001a0 f1 0c 0e 3a 33 d3 48 3a 99 fc ca bb 8f 1d 67 38
       0.00054187985 0.00076608657 -0.006194663 5.510222e-05
0001b0 e0 a8 38 bb e9 3d f5 ba 40 ce 63 39 a2 10 09 3d
       -0.002817683 -0.0018710467 0.00021725241 0.033463128
0001c0 97 ef b2 ba 61 7c 81 3c 29 7f 79 bc ad f9 58 ba
       -0.0013651726 0.015806379 -0.015228071 -0.00082769507
0001d0 4d 05 b8 37 13 21 60 ba e6 e3 e3 3a bb 06 16 38
       2.1936978e-05 -0.00085498503 0.0017386645 3.5769055e-05
0001e0 be c1 33 bb f7 d6 c5 39 44 77 07 b9 af 03 87 b9
       -0.0027428712 0.0003773493 -0.00012919033 -0.0002575195
0001f0 86 59 8a 3b a9 00 69 bc 3b 06 96 bc 35 9d 84 bc
       0.004222098 -0.014221349 -0.018313518 -0.016188243
000200 ff 8f 08 3b 53 87 80 3a d5 07 d5 3a 4e 6e e8 36
       0.0020837781 0.0009805955 0.0016252944 6.92698e-06
000210 07 be 2a b7 bd 10 f7 ba 40 42 bc 3b 90 73 d6 38
       -1.0177034e-05 -0.0018849593 0.0057452023 0.000102258404
000220 c1 4b 06 ba 62 5a 9e 37 c3 e7 2c bb 6b 6e 3c 39
       -0.00051229825 1.8877156e-05 -0.0026383258 0.00017970211
000230 64 4e 8a 38 b5 bd 35 39 b7 66 6f b9 8e cc 59 3a
       6.594954e-05 0.00017332177 -0.0002283108 0.0008308374
000240 9b 5a 63 b8 81 1a 73 39 62 ca 8c bb 97 a2 b5 b8
       -5.42054e-05 0.0002318416 -0.004296587 -8.661037e-05
000250 6e 92 92 bb bc c3 f2 3a 06 4f a1 b8 db 54 40 3b
       -0.004473022 0.0018521468 -7.6917975e-05 0.0029347453
000260 9f 4b f4 39 51 d8 d0 bc f7 b5 c8 bb 43 53 0d bb
       0.0004659565 -0.025493773 -0.0061252075 -0.002156452
000270 6c 91 99 b9 46 b6 4a 3a 04 a3 c6 bb 37 74 23 ba
       -0.00029290782 0.00077328493 -0.0060619134 -0.0006235274
000280 cc a1 2c ba 6f 07 06 bb 2d 5f 1a 3d f1 37 82 bb
       -0.0006585389 -0.0020451208 0.037688423 -0.003973954
000290 84 25 8a ba 6a 50 79 38 1f 35 c5 39 25 4d 32 b9
       -0.0010539745 5.9441118e-05 0.00037614346 -0.00017004141
0002a0 a8 56 0e 3c 0c 80 fc 39 1e 05 b5 b8 f5 fb d0 39
       0.008687653 0.00048160588 -8.631706e-05 0.00039860574
0002b0 1c 5f 0f 3a e1 38 d7 b9 7d f3 5d bb 3c 9b 19 38
       0.00054691895 -0.00041050374 -0.0033867054 3.6622616e-05
0002c0 be aa d3 b8 e0 0f 4b bb d6 a4 7f 39 56 6d ad 39
       -0.00010093067 -0.0030984804 0.00024380101 0.00033078593
0002d0 42 6c e9 39 2b b7 71 3a 9e b2 d6 3c c0 93 d0 3a
       0.00044521882 0.00092207146 0.026208218 0.0015913174
0002e0 05 8d a4 bb b3 77 bf 37 ca ce 26 38 62 64 d3 39
       -0.0050216937 2.2824714e-05 3.977007e-05 0.00040319847
0002f0 53 75 84 39 91 08 5d b9 df ff d3 3a 9c 5f e9 b8
       0.00025264415 -0.00021079394 0.0016174278 -0.000111281144
000300 26 dc e9 b9 3d 74 3c 3a 11 40 03 3c 92 33 a8 3a
       -0.00044605247 0.0007188952 0.00801088 0.0012832752
000310 b3 50 a5 3b b4 59 77 bb 47 ff 10 38 7f b4 09 b8
       0.0050450205 -0.0037742676 3.457002e-05 -3.2831445e-05
000320 ac f0 4b 39 e1 f5 48 38 6a fa 09 b8 34 56 7a 3c
       0.00019449246 4.791271e-05 -3.289656e-05 0.0152793415
000330 8a 92 3b 3c de e2 05 bc 8f f7 1d bc 8f 3d 41 b8
       0.011448512 -0.008171765 -0.009641542 -4.6072117e-05
000340 33 8e c9 3c 66 11 51 ba f6 c0 68 b7 d4 41 98 3b
       0.024603939 -0.000797531 -1.3873205e-05 0.004646519
000350 45 ef d5 38 7e 4c de b9 34 83 2b 3c b0 3a 9f bb
       0.00010201199 -0.0004240013 0.010468293 -0.004859291
000360 85 c7 4d b8 68 12 ee b7 45 99 74 38 37 ec fc 37
       -4.9061626e-05 -2.8380382e-05 5.8316877e-05 3.0150737e-05
000370 c8 cc 32 3a 54 8d aa 3b 02 81 0b 39 74 5f 53 38
       0.0006820676 0.005204836 0.00013304132 5.0395218e-05
000380 ad d9 9c b9 ed e5 d6 bb 9f 4d 0c bc ef 19 1b b9
       -0.0002991682 -0.006558171 -0.008563428 -0.00014791613
000390 ec 06 79 3c c5 f9 f4 ba db ea af 3a 69 f3 dc 37
       0.015199404 -0.001869016 0.0013421433 2.633939e-05
0003a0 53 3f 41 3a b0 f2 60 36 c2 51 1b 3c d2 5c 2a 3a
       0.0007371802 3.3519864e-06 0.009479942 0.00064988167
0003b0 47 60 84 3c 2b e5 42 3b 1e 83 dc 37 f9 47 ca 3c
       0.01615919 0.0029738646 2.62871e-05 0.024692522
0003c0 20 98 9c bb 3a b2 3d ba 5e 76 51 3c e4 1a e7 39
       -0.004778877 -0.00072363357 0.012784569 0.00044079788
0003d0 f7 2c 67 38 69 e8 2c ba 04 55 65 3c 73 43 cf b7
       5.511657e-05 -0.0006595911 0.01399732 -2.4707731e-05
0003e0 b1 2c 7f 3a 06 62 12 b9 b0 ae bf 39 95 5a fd 3a
       0.00097341376 -0.00013960162 0.0003656051 0.0019329364
0003f0 30 b7 dd b9 82 0f d1 bb 59 20 5c bb 17 53 57 bb
       -0.0004228889 -0.0063800225 -0.0033588617 -0.0032855922

action_parameters_output_layer.bias f4 [27]
000000 f4 7f 69 3d a8 c1 a4 3d 32 28 2a 3c 3f ed c8 bb
       0.05700679 0.080447495 0.01038556 -0.0061317976
000010 72 74 8a 3d 02 c1 79 3d 27 b5 b7 3b af 6f 16 3b
       0.067604914 0.060975082 0.005606312 0.0022954752
000020 c8 93 6a 3d 72 0c 37 3d 10 6f f0 3c 2c 13 65 3d
       0.05726984 0.044689603 0.029349834 0.055926487
000030 2f 75 3e b8 eb ac ce ba 5d c1 e8 3b 6b ff 33 3d
       -4.5408666e-05 -0.0015768086 0.007103129 0.043944757
000040 4f 2c 67 ba e7 95 b3 3d 9c 2f b6 3b cd 4d 68 bb
       -0.0008818553 0.08768826 0.0055598747 -0.0035446764
000050 81 c1 39 3d d0 ea ef 3a d0 77 0d 3c 1c f4 e8 b9
       0.045350555 0.0018304233 0.008634523 -0.00044432364
000060 22 73 b4 ba f4 6d ad 3b c6 10 48 3d
       -0.0013767222 0.0052926484 0.04884412

action_parameters_passthrough_layer.weight f4 [27, 3]
000000 00 00 00 00 00 00 00 00 00 00 00 00 00 00 00 00
       0.0 0.0 0.0 0.0
000010 00 00 00 00 00 00 00 00 00 00 00 00 00 00 00 00
       0.0 0.0 0.0 0.0
000020 00 00 00 00 00 00 00 00 00 00 00 00 00 00 00 00
       0.0 0.0 0.0 0.0
000030 00 00 00 00 00 00 00 00 00 00 00 00 00 00 00 00
       0.0 0.0 0.0 0.0
000040 00 00 00 00 00 00 00 00 00 00 00 00 00 00 00 00
       0.0 0.0 0.0 0.0
000050 00 00 00 00 00 00 00 00 00 00 00 00 00 00 00 00
       0.0 0.0 0.0 0.0
000060 00 00 00 00 00 00 00 00 00 00 00 00 00 00 00 00
       0.0 0.0 0.0 0.0
000070 00 00 00 00 00 00 00 00 00 00 00 00 00 00 00 00
       0.0 0.0 0.0 0.0
000080 00 00 00 00 00 00 00 00 00 00 00 00 00 00 00 00
       0.0 0.0 0.0 0.0
000090 00 00 00 00 00 00 00 00 00 00 00 00 00 00 00 00
       0.0 0.0 0.0 0.0
0000a0 00 00 00 00 00 00 00 00 00 00 00 00 00 00 00 00
       0.0 0.0 0.0 0.0
0000b0 00 00 00 00 00 00 00 00 00 00 00 00 00 00 00 00
       0.0 0.0 0.0 0.0
0000c0 00 00 00 00 00 00 00 00 00 00 00 00 00 00 00 00
       0.0 0.0 0.0 0.0
0000d0 00 00 00 00 00 00 00 00 00 00 00 00 00 00 00 00
       0.0 0.0 0.0 0.0
0000e0 00 00 00 00 00 00 00 00 00 00 00 00 00 00 00 00
       0.0 0.0 0.0 0.0
0000f0 00 00 00 00 00 00 00 00 00 00 00 00 00 00 00 00
       0.0 0.0 0.0 0.0
000100 00 00 00 00 00 00 00 00 00 00 00 00 00 00 00 00
       0.0 0.0 0.0 0.0
000110 00 00 00 00 00 00 00 00 00 00 00 00 00 00 00 00
       0.0 0.0 0.0 0.0
000120 00 00 00 00 00 00 00 00 00 00 00 00 00 00 00 00
       0.0 0.0 0.0 0.0
000130 00 00 00 00 00 00 00 00 00 00 00 00 00 00 00 00
       0.0 0.0 0.0 0.0
000140 00 00 00 00
       0.0

action_parameters_passthrough_layer.bias f4 [27]
000000 00 00 00 00 00 00 00 00 00 00 00 00 00 00 00 00
       0.0 0.0 0.0 0.0
000010 00 00 00 00 00 00 00 00 00 00 00 00 00 00 00 00
       0.0 0.0 0.0 0.0
000020 00 00 00 00 00 00 00 00 00 00 00 00 00 00 00 00
       0.0 0.0 0.0 0.0
000030 00 00 00 00 00 00 00 00 00 00 00 00 00 00 00 00
       0.0 0.0 0.0 0.0
000040 00 00 00 00 00 00 00 00 00 00 00 00 00 00 00 00
       0.0 0.0 0.0 0.0
000050 00 00 00 00 00 00 00 00 00 00 00 00 00 00 00 00
       0.0 0.0 0.0 0.0
000060 00 00 00 00 00 00 00 00 00 00 00 00
       0.0 0.0 0.0
