RL4E2E/results/galaxy/2.1k1/actor.pt (torch, 20671 bytes, 4 tensors)

layers.0.weight f4 [128, 30]
000000 9e e2 97 3d f0 c5 02 3f dd 2f 7a 3a 0e 09 b8 be
       0.07416271 0.5108328 0.00095438753 -0.35944408
000010 dd 9f 2b 3d 34 e7 e1 be c2 f3 63 be 8b 3a c8 3d
       0.041900504 -0.44121706 -0.22260955 0.09776791
000020 a1 78 0c 3d be 51 7c be 9a b9 05 3e 20 a0 c4 3e
       0.03429473 -0.24640557 0.13059083 0.38403416
000030 77 76 fb 3d 70 30 80 3e 7a 88 70 be 73 9e a1 be
       0.12278455 0.25036955 -0.23489562 -0.315662
000040 e6 52 82 3d c4 39 be 3e 4b 7a 59 3d 63 9f 97 be
       0.06363468 0.37153447 0.053095143 -0.2961379
000050 ff aa 48 be 3f e4 3f 3e 9f e5 56 3e e5 42 12 3e
       -0.1959648 0.18739413 0.20986031 0.1428333
000060 64 4b 5c be 88 67 b1 be 65 2d 2e be b5 d0 13 3c
       -0.21513134 -0.346493 -0.17009504 0.009021928
000070 8d 72 82 be 85 d1 ac be 31 5f 86 be 89 eb df be
       -0.2547802 -0.337536 -0.262445 -0.43734387
000080 98 68 3c be 63 1d 4f 3e 81 5a 5b be ca 43 01 be
       -0.18399274 0.20226054 -0.21421243 -0.12623516
000090 e0 3d 11 be 0d 90 c2 3c 42 17 0b bd c4 49 11 3d
       -0.1418376 0.02375033 -0.033957727 0.03547074
0000a0 70 10 14 be 30 cf 74 be 72 9b 08 3d 91 22 d3 3e
       -0.14459395 -0.23907161 0.03335137 0.4123731
0000b0 03 0f 58 3e 7d f0 8c 3c de e3 54 be 80 de fd bd
       0.21099477 0.017204517 -0.2079005 -0.12395954
0000c0 c4 b4 2a 3c aa 4c d7 be 5d b2 c3 3e 66 b8 87 3c
       0.010419074 -0.42050678 0.38222018 0.01656742
0000d0 0d 7e 52 3e 69 ff 27 3d d5 59 4a 3d bf 85 60 be
       0.20555897 0.041015062 0.049402077 -0.2192602
0000e0 87 a0 13 3e 31 3b 94 be e1 40 43 bd b1 55 b8 bd
       0.14416705 -0.2895141 -0.047669295 -0.09000719
0000f0 ca 68 4b bf 69 8a cf 3d dc d2 b7 3e e6 f4 a4 be
       -0.7945677 0.101338215 0.3590306 -0.32218093
000100 86 64 b3 3d 47 0e e2 be 0a 18 2b bf 68 6e 20 3e
       0.08759408 -0.44151518 -0.66833556 0.15667117
000110 1c 24 9d be 6a e9 99 3e 8e e5 a2 be ff 2d 60 bd
       -0.30691612 0.30060893 -0.3181576 -0.054731365
000120 a1 5a 06 3f f7 37 dd 3e 5d df 54 be 89 37 d6 3e
       0.5248204 0.4320676 -0.20788331 0.41839245
000130 d2 6d 8f be 9d aa 75 3d e2 d0 73 be ac 7f 79 3e
       -0.28013474 0.059977163 -0.23810151 0.24365109
000140 da f2 26 3e 25 fa 0e bd 64 24 3a 3e c6 65 8b 3d
       0.16303578 -0.034906525 0.18177944 0.06806521
000150 82 fd 18 be 16 2d 9d bc d7 b0 8e 3e 55 2f a9 bd
       -0.14940456 -0.019186538 0.27869293 -0.08260981
000160 ae 2a 62 be 7a c7 c0 bd e1 42 e2 bb 11 7a 36 bf
       -0.22086594 -0.09413047 -0.0069049452 -0.7128001
000170 a6 8c 02 3e 72 df 92 3e 62 31 88 3e 58 5a ad 3c
       0.12748966 0.286861 0.26600176 0.021161243
000180 c5 b3 eb 3e b8 89 2b 3f e4 30 3c 3d 3b 16 8b 3e
       0.4603559 0.6700702 0.045945063 0.27165398
000190 be 40 63 3e 03 c2 2e 3e 19 e5 16 3e 8f 28 e7 3e
       0.22192666 0.17066197 0.14735831 0.4514813
0001a0 d1 84 19 3f da 33 e9 3e 08 f2 3e 3d 58 37 b9 3d
       0.59968287 0.45547372 0.046617538 0.09043759
0001b0 d1 d6 0f 3e 04 08 16 be 99 91 d8 3e 8b 71 96 3e
       0.1404679 -0.14651495 0.42298582 0.293835
0001c0 2f 82 18 3e bc ba 19 3f 1a f1 06 be 8b 13 a0 3e
       0.14893411 0.6005056 -0.1317791 0.3126491
0001d0 71 f5 bc 3e 84 d4 19 3d 08 3b 13 3f 90 92 62 3d
       0.36906007 0.037556186 0.5751195 0.055315554
0001e0 54 d7 e0 3e 8d f5 a1 bd f8 e7 b0 bc 3d 52 4b 3d
       0.43914282 -0.07908163 -0.021594986 0.049638975
0001f0 26 6a ae 3e 81 71 a7 be a9 f1 b1 be 67 b5 78 3e
       0.3406536 -0.32703784 -0.34754685 0.2428795
000200 0b 72 4b 3e 0f 16 8a be 0d 61 20 bd 59 e3 9f bd
       0.19867723 -0.26969954 -0.039155055 -0.07807035
000210 4f aa 36 be a8 84 09 bf 8d f2 20 3d 45 99 24 3e
       -0.17838405 -0.5371804 0.039293814 0.16074093
000220 64 dd 54 be 10 80 1d 3e df fe b2 bd f4 6c 5e 3e
       -0.20787579 0.15380883 -0.08740019 0.2172125
000230 da 99 49 be fb 30 33 be 8b cc b5 3d 25 e5 b6 be
       -0.19687596 -0.17499153 0.08876904 -0.35721698
000240 ec 0b 42 be 27 55 d1 bd 5d 6e 31 be ab 2e 92 3d
       -0.1894986 -0.1022132 -0.17327257 0.071378075
000250 a6 49 98 be e0 d8 1c be d6 6f 91 be 7d ea a8 bd
       -0.2974369 -0.15317106 -0.28405637 -0.0824785
000260 39 4a 8a be af de fc bb 24 f7 af 3e bd c6 40 be
       -0.27009752 -0.0077169756 0.3436824 -0.18825813
000270 3c 5d 92 bc 35 52 c9 be ce 29 66 3e 6e 95 17 be
       -0.017866723 -0.3932053 0.22476885 -0.14803097
000280 e4 a5 5c 3c fe ab 06 3f 09 c7 06 bd ad 75 2e be
       0.013467286 0.5260619 -0.03290466 -0.17037077
000290 87 04 ac 3e 19 9a b9 3d fe 58 aa bd 53 09 cb be
       0.33597204 0.09062595 -0.08317755 -0.3965555
0002a0 c9 12 b8 be 1f 89 03 be 7a 87 b6 bd 9e 6e 43 3e
       -0.35951832 -0.12845276 -0.08912559 0.19085166
0002b0 ba 10 92 3e 01 51 3c 3e f0 2d e4 bd e0 90 8a 3e
       0.28528386 0.18390276 -0.111415744 0.27063656
0002c0 06 33 c8 be 6c 70 f4 be 6b 40 a1 3e ab bc 0d be
       -0.39101428 -0.4774202 0.3149446 -0.13841502
0002d0 14 1d 1a bc 73 6f 18 3f fa 83 d4 bf 3e 19 d0 be
       -0.009406347 0.5954506 -1.6602776 -0.40644258
0002e0 1c ce ae be d9 47 2e 3e 02 a0 29 3e 4e 28 41 bf
       -0.34141624 0.17019595 0.16564944 -0.75452125
0002f0 79 88 a7 3d 35 6b c4 3e a8 7a 01 bc 8a 19 24 3d
       0.08180327 0.38363042 -0.007902779 0.04006342
000300 ed 89 30 3f d2 d4 5f be 4f 80 45 3d 77 45 f9 3e
       0.6896046 -0.21858528 0.048218068 0.4868581
000310 38 14 62 3e 3b 9d df 3d eb a1 38 3d 6c d5 f5 3d
       0.22078025 0.10918661 0.045076292 0.120035976
000320 49 12 88 be 9f 01 87 3e a5 91 f1 3e 74 dc c8 3d
       -0.2657645 0.26368424 0.4718143 0.09807673
000330 84 87 e2 3e 11 88 f9 3d d6 ad 05 3f 0a 23 6f 3f
       0.44244015 0.12184156 0.5221838 0.9341284
000340 9e 88 34 3f 90 4e a2 3d 40 6e 33 be 54 42 fa bd
       0.7052096 0.07925141 -0.17522526 -0.12219682
000350 e7 6c c9 3e c3 9d 2d bf ce 44 4a be e5 12 9a 3c
       0.39340898 -0.6781885 -0.1975281 0.018807838
000360 07 bc e3 bb 31 0d ce 3e e1 9e 36 bf 07 d9 99 3e
       -0.006949905 0.4024444 -0.7133618 0.3004839
000370 66 60 6e bc 4f e7 68 be 71 26 40 3e 33 be 3d be
       -0.01454935 -0.22744487 0.18764664 -0.18529586
000380 43 a9 e9 3e a1 cf 3a 3c 27 7c 36 be 16 ab 1b 3f
       0.4563695 0.011402042 -0.17820798 0.6080793
000390 ef 61 d8 3e a8 43 ed 3e b0 fe 8e 3e 8b d1 2c 3d
       0.42262217 0.4634068 0.27928686 0.042192023
0003a0 90 db 01 3f b1 4e 34 be 02 04 11 3e e6 b8 b3 3d
       0.5072565 -0.17608143 0.14161685 0.08775501
0003b0 00 c8 e5 bb 20 82 34 bd 23 8e a8 3e b1 3b 46 be
       -0.0070123672 -0.04406941 0.32920942 -0.19358708
0003c0 e5 aa 00 bd 6c 29 4b be a3 86 9a bd 7c 9d e0 bd
       -0.031412978 -0.1984002 -0.07545211 -0.10967538
0003d0 b1 c2 56 be 36 bc f8 bd 77 53 aa 3e db 62 c8 be
       -0.20972706 -0.121452734 0.33266804 -0.3913792
0003e0 d0 fc 44 3e e4 21 83 bc bc c3 db 3d a5 db 0c 3e
       0.19237065 -0.016007371 0.10730693 0.13755663
0003f0 94 67 9e 3d 05 b3 fe 3d 5b e4 47 be e7 6d 8f bd
       0.077346 0.12436489 -0.19520704 -0.07003384

layers.0.bias f4 [128]
000000 55 fb bf 3f 00 00 00 00 3d d3 e2 3b 12 3d a7 3f
       1.4998575 0.0 0.006922154 1.3065512
000010 71 c1 a3 3f 00 00 00 00 48 d0 b4 3f e9 07 3f 3e
       1.2793409 0.0 1.4126062 0.18655361
000020 00 00 00 00 e9 83 f8 bf 53 01 ba 3f 80 0e 3d bd
       0.0 -1.9415256 1.4531654 -0.046156406
000030 79 16 b8 3f 66 24 b5 3f 68 b9 3c 3e 32 e0 a3 3f
       1.4381858 1.4151733 0.18430102 1.2802794
000040 ce e4 dc bf 61 ce af 3f 00 00 00 00 7f 95 e6 3f
       -1.7257326 1.3734857 0.0 1.8014373
000050 ab 0c a6 3f 4c 40 db bf 54 12 d5 3f 29 4f a3 3e
       1.2972616 -1.7128997 1.6646218 0.31896332
000060 7a f6 b2 3f 41 f8 c2 3f 1b b7 b9 3f 93 04 b7 3f
       1.3981469 1.5232011 1.4509004 1.4298271
000070 11 73 c7 bf d8 45 cb bf 89 9a 83 3d a0 c6 d8 3f
       -1.558199 -1.588069 0.064259596 1.6935616
000080 00 00 00 00 00 00 00 00 00 00 00 00 7b 5c c4 3f
       0.0 0.0 0.0 1.5340723
000090 67 c4 eb bf 45 11 c9 3f 00 00 00 00 c5 51 b1 3f
       -1.8419312 1.5708395 0.0 1.3853079
0000a0 3a d5 ee bf e2 4f aa 3f ae de c1 3f bc cf f1 bf
       -1.8658822 1.3305628 1.5146081 -1.889152
0000b0 00 00 00 00 04 ee d8 bf 18 25 83 3e 00 00 00 00
       0.0 -1.6947637 0.25614238 0.0
0000c0 b4 75 d1 3f 24 ab a9 3f 4f 9b b2 3f 00 00 00 00
       1.6364045 1.3255353 1.3953646 0.0
0000d0 8d bf 8d 3e aa ec d2 bc 7b f6 a5 3f fc 47 c8 3f
       0.27685204 -0.025747616 1.2965845 1.5646968
0000e0 8d eb 12 3e 32 23 b5 3f de ad bf 3f 04 c4 ef bf
       0.14347668 1.4151366 1.4974935 -1.8731694
0000f0 9c 4d a6 3e 44 1c ce 3f 66 e1 ed 38 15 91 00 c0
       0.32481086 1.6102376 0.000113430244 -2.008855
000100 23 70 b7 3f aa f6 c4 3f a4 0f ad 3f 55 76 c2 3f
       1.4331096 1.5387776 1.3520398 1.5192362
000110 e4 40 c4 3f 86 fe 1e bd cc 7b 43 3e b6 04 91 3f
       1.5332303 -0.03881695 0.19090194 1.1329563
000120 1c 38 cd 3f 21 ed bf 3f d0 3a bb bf f7 e9 7f 3e
       1.6032748 1.4994241 -1.4627323 0.24991594
000130 00 00 00 00 d2 56 aa 3f 3b 02 d5 3f fb 2d b7 3f
       0.0 1.3307745 1.6641306 1.4310907
000140 59 96 cd 3f 21 2b 14 c0 d2 d1 80 3f 5d 60 77 bd
       1.6061507 -2.3151324 1.0064032 -0.060394634
000150 7e a9 ca bf f8 20 cc 3e 00 00 00 00 00 00 00 00
       -1.5832975 0.39868903 0.0 0.0
000160 00 00 00 00 b5 f9 e3 3f f9 9b e9 bf 9d f5 c1 3f
       0.0 1.781058 -1.8250724 1.515308
000170 e6 57 d6 bf 0f 32 02 40 cf bc e6 bf 86 4d c1 3f
       -1.6745574 2.0343053 -1.802637 1.5101783
000180 ae 7d aa 3f 3d 8d fe bf 4b 72 ad 3f 7d 5b b4 3f
       1.3319604 -1.9886853 1.3550504 1.409042
000190 19 09 3c 3e 68 87 b1 3f 0b f9 cb 3f 7a 29 ce bf
       0.18362845 1.3869448 1.5935377 -1.6106408
0001a0 00 00 00 00 ef 18 9b 3f 50 a8 5e bd 15 a2 d7 3f
       0.0 1.2116984 -0.054359734 1.6846339
0001b0 4d ce b7 3f da f1 15 c0 8b 11 71 3f 01 a1 bd 3f
       1.4359833 -2.3428864 0.94167393 1.481476
0001c0 de 98 01 c0 b8 94 f9 bf 3d 1c ac 3f 67 42 ec bf
       -2.0249553 -1.949851 1.3446118 -1.8457764
0001d0 00 00 00 00 ed 53 d3 3f e8 19 21 3d ef 76 8b bc
       0.0 1.6509987 0.039331347 -0.017024485
0001e0 1c 19 bf 3f 76 75 af 3f 39 54 b0 3f 3a 73 c2 3f
       1.4929538 1.3707721 1.3775703 1.5191414
0001f0 00 00 00 00 11 3a 4c 3f fc c2 68 3e ab 33 dd 3f
       0.0 0.797761 0.2273063 1.7281393

layers.1.weight f4 [6, 128]
000000 36 e8 61 be 7b e0 a9 bb 38 80 0e bf fc 82 3e bf
       -0.22061238 -0.005184231 -0.55664396 -0.74418616
000010 e4 83 15 be 59 3c 4e bd 47 1b 94 bf b7 7e 72 bf
       -0.14601094 -0.05035052 -1.1570824 -0.947246
000020 86 cb 96 bd d9 9d 8a 3e 61 ed 92 bd d0 f2 17 3d
       -0.07363038 0.27073553 -0.07174183 0.0370968
000030 72 7e 7b be 91 21 9e be 56 10 1a 3f 94 2d 12 be
       -0.24559954 -0.30884984 0.60181177 -0.14275199
000040 70 32 14 3e 2d 1c b4 be 9b ec 8d 3c d7 ff 0e bf
       0.14472365 -0.35177746 0.017324736 -0.5585913
000050 ac 27 aa bf e4 54 f4 3d c6 86 08 bf bd b7 3c bf
       -1.3293357 0.11930254 -0.5333065 -0.7371786
000060 5b 32 2b be f9 b2 c5 be 6e 2b 7d be ea f3 cf be
       -0.16718428 -0.38613108 -0.24723598 -0.4061578
000070 b4 cb 0d 3e b2 36 3d 3d f9 35 2f bf 85 13 07 bf
       0.13847238 0.04619474 -0.6844173 -0.5276416
000080 f5 65 15 3d b5 2a 91 bd 99 fd 90 bd c7 eb a3 be
       0.036474187 -0.07088224 -0.0707962 -0.3201582
000090 06 dc 48 3e 2d 9e 26 be e4 a5 59 bc 04 aa f8 bd
       0.19615182 -0.16271277 -0.01328418 -0.12141803
0000a0 18 f2 58 3e f8 7c f4 bd 1b 8a f3 bd 5e b1 6b 3e
       0.21186101 -0.119378984 -0.11891576 0.23016879
0000b0 9b 97 16 bd af 09 59 3e 27 63 15 bf 70 57 f8 bc
       -0.036765676 0.211951 -0.5835442 -0.030315131
0000c0 af ca 0a be 00 e2 d8 bd 39 b1 08 bf ca 3f 89 bd
       -0.1355388 -0.10589981 -0.5339542 -0.0670162
0000d0 9b 64 87 be 57 9b 5a 3d 6e e3 04 bf e7 b5 e0 be
       -0.26443943 0.0533708 -0.5190953 -0.4388878
0000e0 3d 6f a9 be b2 66 c4 bf c6 a1 62 be e4 95 b9 3e
       -0.3309268 -1.534384 -0.22132024 0.3624717
0000f0 de 9a b2 be 37 9f bd be e0 86 86 3d e4 7e 76 3e
       -0.3488378 -0.37035534 0.06568694 0.24071842
000100 37 93 99 be 37 a7 14 bf 00 b3 e3 bd 1e 32 7f be
       -0.2999513 -0.5806765 -0.11118126 -0.24921462
000110 e8 8c e6 be 9c 2e 38 bf e2 ab b0 be 61 54 18 bf
       -0.45029378 -0.7194612 -0.34506136 -0.5950375
000120 68 b1 fa be 30 d8 a8 be 45 45 b2 3d 80 f5 c6 be
       -0.48963475 -0.32977438 0.08704618 -0.38859177
000130 a4 53 a0 3d 25 91 f3 be a9 3a 89 bf 28 8c 83 be
       0.07828453 -0.47571674 -1.0721027 -0.25692868
000140 ea 08 27 be 7c 59 0e 3f 75 c4 2d bf 96 21 e2 3c
       -0.16311994 0.5560529 -0.67877895 0.027603906
000150 3b 5a f0 3d ae 18 3e bf 5d af 13 bd 18 36 78 3d
       0.1173596 -0.7425641 -0.03605591 0.060598463
000160 fa bc 52 3c 03 7b 07 bf 64 c7 b5 3e dd 45 46 be
       0.012862438 -0.52922076 0.35503685 -0.19362588
000170 78 fc 57 3e 41 60 bc bd 8b 11 15 3e 78 f1 c0 be
       0.21092403 -0.091980465 0.14557473 -0.37684226
000180 ee b6 27 be 27 c3 cc 3e 67 bb 0c bf a3 5a ec be
       -0.16378376 0.3999264 -0.54973453 -0.461629
000190 da 96 5f be 26 67 0d be 15 e2 36 be 48 ad dd 3d
       -0.21834889 -0.1380888 -0.17859681 0.108240664
0001a0 cc fe 3a 3d 89 75 ec be 61 7f 87 3b ef f7 b2 bd
       0.04565315 -0.46183422 0.004135058 -0.08738696
0001b0 73 70 36 bd 5f 72 de 3e e6 fb 46 bf cd 64 8a be
       -0.044540834 0.43446633 -0.77728117 -0.2703003
0001c0 e4 a6 8e 3e 8e 4e b8 3e ba 5e 2e be b8 50 a1 3e
       0.27861702 0.35997432 -0.17028323 0.31506896
0001d0 ee 94 3c 3d f3 e4 5d bf 6f 0e d8 3e f0 39 54 3d
       0.046040468 -0.86677474 0.42198512 0.051813066
0001e0 2b 7f ef be b6 9a 94 be 97 b7 26 be 31 6a f1 be
       -0.4677671 -0.29024285 -0.16280971 -0.4715133
0001f0 a6 38 88 3b 97 e8 2e bf 32 20 03 bf 03 ac 09 bf
       0.0041571436 -0.68323654 -0.51221 -0.53778094
000200 8f ad 03 be e6 37 45 bd 27 b2 9e bd cc d3 61 be
       -0.12859176 -0.048149012 -0.077488236 -0.2205345
000210 9e 4a b0 bd dd a5 91 3d 39 1c d7 be 35 85 2a be
       -0.08607982 0.07111714 -0.4201372 -0.16652377
000220 7f dc 33 bb 8b 34 d3 bd 3e 1c a8 bd f4 c6 88 3c
       -0.0027444658 -0.10312756 -0.08208512 0.01669643
000230 cc 66 7a be 88 8f 5e be 57 c1 32 be 1c f5 7e bd
       -0.24453276 -0.2173444 -0.17456566 -0.062245473
000240 f5 71 23 be a3 41 7e be 01 b9 64 3d a0 53 48 be
       -0.1596144 -0.24829726 0.055840496 -0.1956315
000250 ac 34 62 bf a7 4c d4 bd f5 b1 4a be f4 6b 43 be
       -0.8836162 -0.10366183 -0.19794448 -0.1908415
000260 cb 5c 33 be 8c bc 59 be 41 a5 c5 bd c5 e3 9e be
       -0.17515866 -0.21263331 -0.0965066 -0.3103315
000270 14 d8 e7 bc 9a 91 43 be 53 a9 4f 3d fd 06 9d be
       -0.028301276 -0.19098511 0.05069859 -0.30669394
000280 78 c0 32 bd 25 03 ab 3c b0 51 a5 bc 1d 72 53 be
       -0.043640584 0.020875523 -0.020180553 -0.20649
000290 22 c2 0c be 69 65 a8 bd f5 39 05 bd d4 9a 88 bd
       -0.13745931 -0.082224675 -0.032525975 -0.06670156
0002a0 3c fe 38 bc fe 38 78 bd 6c d9 d3 bd 2e d6 1c be
       -0.011291083 -0.060601227 -0.10344204 -0.15316078
0002b0 35 dd 43 3c 68 da f3 bd 97 23 67 be 86 c9 4a 3c
       0.011954595 -0.11906892 -0.2257217 0.0123771485
0002c0 38 63 41 be b2 53 20 be de a9 ec be c9 31 a0 bd
       -0.18885505 -0.15656927 -0.46223348 -0.07821996
0002d0 f4 f4 d0 be 8d df 08 bd e3 a4 07 bf 37 74 31 be
       -0.40811884 -0.03341632 -0.5298597 -0.17329489
0002e0 62 40 dd be 22 63 22 bf 0e 1c fa bd 24 27 6b bd
       -0.43213183 -0.63432515 -0.12212382 -0.057410374
0002f0 94 97 ac be 31 68 2e be 50 02 a0 bd c2 19 0d bc
       -0.33709395 -0.17031933 -0.07812941 -0.008612098
000300 6f 43 af be 58 63 38 bf f1 fc ee bd 22 03 7a bd
       -0.34231135 -0.72026587 -0.116693385 -0.061038144
000310 4d d4 21 be 89 53 c4 3c e5 10 c5 be 8b ba c8 be
       -0.15803643 0.023965614 -0.38489452 -0.3920482
000320 6d ec 51 be 95 98 c2 be 7e e5 e5 bd 91 6e 66 be
       -0.20500346 -0.38007036 -0.11225413 -0.22503115
000330 92 b5 89 3d 4c b5 74 be 93 a2 fa be 87 17 32 be
       0.06724085 -0.23897284 -0.4895216 -0.17391787
000340 14 68 e1 bd 1d b7 0a be 5d 53 3c bf 74 ba d7 3b
       -0.110061795 -0.13546415 -0.735647 0.0065835062
000350 49 81 8b bb 7b 9c c2 be 83 b2 e1 3c c6 87 86 3d
       -0.0042573554 -0.3801001 0.027550941 0.065688655
000360 9b da 4e 3d bc 66 6b be 5c e6 08 be 32 02 77 bc
       0.050501447 -0.22988409 -0.13369125 -0.015076207
000370 68 a4 39 be cb d4 b5 bd de 91 9d bd 8c 24 ad be
       -0.18129122 -0.08878478 -0.076938376 -0.33816946
000380 f6 ed 91 bc 69 19 0c be a9 1d cc be 0d dc 7f be
       -0.017813664 -0.13681568 -0.3986638 -0.24986286
000390 04 99 95 be f7 7c e0 bd 82 1c be bd c0 95 c2 bc
       -0.29218304 -0.10961335 -0.09282781 -0.023753047
0003a0 6b 76 9c 3a b5 7d d1 be c8 1a 07 bd 2b 16 17 be
       0.0011937147 -0.4091622 -0.032984525 -0.1475455
0003b0 bd 3f 37 be df 75 81 bd 50 4a bb be 34 d9 2e be
       -0.17895408 -0.0632131 -0.36580133 -0.17075044
0003c0 80 8b df bd f8 a3 06 be 2a 13 bd bd b9 85 30 be
       -0.109152794 -0.13148487 -0.09232171 -0.17238511
0003d0 87 64 af 3d 72 3e da be 34 2a b9 bd de 27 45 3a
       0.08564096 -0.42625767 -0.09041253 0.0007520894
0003e0 69 d3 9b be ad e2 63 be 16 43 50 be da be 9e be
       -0.3043473 -0.22254439 -0.20338091 -0.31004983
0003f0 74 10 65 3c 17 ea 86 bd a0 3c 94 be 1a 18 69 be
       0.0139809735 -0.06587618 -0.28952503 -0.227631

layers.1.bias f4 [6]
000000 bc 21 9b bf 0d 8b 96 be 00 00 00 00 00 00 00 00
       -1.211967 -0.29402962 0.0 0.0
000010 00 00 00 00 00 00 00 00
       0.0 0.0
