RL4E2E/results/collected_results/2.0k1/episode_501/actor_param.pt (torch, 18853 bytes, 6 tensors)

layers.0.weight f4 [128, 3]
000000 bb 3c 91 3d d2 63 f6 be f5 e8 f3 3e 40 3a 95 be
       0.070916615 -0.48123032 0.4763867 -0.29146004
000010 6c e1 13 3f 8b 0d 34 bf cf f7 8c 3d 93 c3 b4 3e
       0.5776584 -0.70333165 0.06883203 0.3530546
000020 e8 00 12 3f b3 f8 a0 3d a3 18 0a be e6 66 03 3e
       0.5703263 0.078599356 -0.1348596 0.12832221
000030 19 5a 82 3f e4 22 fc bd 6e 8d e3 be 2e 20 0a bf
       1.0183746 -0.12311342 -0.4444384 -0.5395535
000040 be 72 c4 3e 4a 5e 35 be dc 06 8c 3e 39 d3 ee 3f
       0.3836879 -0.1771175 0.27348983 1.865821
000050 70 27 a8 3e 64 91 02 40 17 0a c4 3e 82 f9 9c 3f
       0.32842588 2.040124 0.38288948 1.2263644
000060 3c 41 84 be 86 d7 3a bf 52 23 27 bf 66 e7 c4 bf
       -0.2583102 -0.7298511 -0.6528827 -1.5383117
000070 01 07 f0 3e 45 48 da 3d 33 18 e5 bf f8 52 53 3f
       0.46880344 0.106583156 -1.789801 0.82548475
000080 3a 32 fd 3e 88 3c 86 bf 44 ab 4c 3d 42 96 2d 3f
       0.49452382 -1.0487223 0.04996802 0.678074
000090 65 cf aa 3e f6 24 13 bf 17 db 12 be b4 f2 20 3d
       0.33361354 -0.5747827 -0.14341389 0.03929396
0000a0 51 ae 8b 3e 9e 80 1c 3f 91 82 38 bd e1 39 8b 3f
       0.2728143 0.61133754 -0.045046393 1.0877038
0000b0 b2 f7 0c 3f 77 57 72 bf 73 4a 9a bf 2c da 7c bd
       0.55065453 -0.9466471 -1.205397 -0.061731502
0000c0 eb 83 2c bf 99 75 ee bf 02 cd 79 bf 2f 93 b2 3f
       -0.6738879 -1.8629638 -0.9757844 1.3951167
0000d0 a3 3a c4 3f 47 6c 33 bf 99 4a a4 3f 0a 28 08 bf
       1.5330395 -0.70087093 1.2835265 -0.53186095
0000e0 ca 12 08 be 3e d3 42 3f 29 f8 58 3f c0 ab 2e be
       -0.13288417 0.7610358 0.8475366 -0.17057705
0000f0 ad fe c4 be 87 b5 0f be 33 d9 38 be 1a de 94 bd
       -0.38475552 -0.14034091 -0.18051605 -0.07268925
000100 ea 81 b1 bf 0d 40 c5 3e 0e b3 97 3f bd 6f 3c bf
       -1.3867772 0.3852543 1.1851518 -0.73608
000110 54 ac 80 3e 76 46 38 bf c7 50 73 be 5e 10 dc 3e
       0.25131476 -0.71982515 -0.23761283 0.42981237
000120 58 b5 a6 3d 79 ce 79 be aa ad d2 3f fe 1f 39 be
       0.08140057 -0.2439517 1.6459248 -0.1807861
000130 eb ab cf be e6 1e d9 bf 41 11 cd 3e 57 3b 01 bf
       -0.4056085 -1.6962554 0.40052226 -0.5048117
000140 58 ad d0 3e 9f e1 1b 3f d1 ca 08 bf 41 4d f7 bf
       0.4075725 0.60891145 -0.53434473 -1.9320451
000150 5b a1 80 3a 6c a9 3f 3f 3c 25 8d bf fe 93 10 bf
       0.0009813713 0.7486789 -1.1026988 -0.5647582
000160 44 4a 2a 3d b5 04 3d 3f fe 7b 0b 3f fc 2e af 3d
       0.04157473 0.7383531 0.5448607 0.085538834
000170 53 eb 91 be b3 16 31 3f 7b cc ae 3e 9b bb 9d be
       -0.2849985 0.6917526 0.3414038 -0.30807194
000180 d8 ed 6a bd 0f b0 74 be 4b 67 06 40 f4 84 9c bf
       -0.05735573 -0.23895286 2.1000545 -1.2228074
000190 e7 98 30 c0 d1 2a c0 bf 60 59 b8 bf 6e a0 ae be
       -2.7593324 -1.5013067 -1.4402275 -0.34106773
0001a0 d6 a0 46 3e b3 38 ce bf 72 98 03 3d 6f cb c3 bf
       0.19397292 -1.6111053 0.032127805 -1.5296458
0001b0 9c a0 b4 3e 0b 1f 29 bf 89 db ba 3e 52 12 8e bf
       0.35278785 -0.6606299 0.36495617 -1.1099341
0001c0 81 80 03 3f 93 07 23 3f a1 3a 84 bf 9d ad 9b 3f
       0.51367956 0.6368343 -1.0330392 1.2162358
0001d0 35 67 83 3e a2 14 b7 3e 46 06 83 3f ba 59 9e 3f
       0.25664678 0.3575793 1.023629 1.2371132
0001e0 1a 81 88 be e3 9c 74 bf ae 16 8d bf b1 eb 52 3e
       -0.26660997 -0.9555189 -1.1022546 0.20597722
0001f0 84 c5 ec 3e bd 86 87 be e7 7b 77 3c a6 dc 78 3f
       0.46244442 -0.26469985 0.015105224 0.9721168
000200 cf e1 98 be fa 9c 2c 3f 8d b8 ef be 3d 30 d6 bd
       -0.29859778 0.6742703 -0.4682049 -0.104584195
000210 9e 76 be 3e 9b 94 d4 be ef 02 b5 3f d5 7b 26 3d
       0.37199873 -0.41519627 1.414152 0.04064544
000220 2d d2 2b be ed e6 7b bf 57 4a 1b 3f 96 6a c2 be
       -0.16779394 -0.9839924 0.6066031 -0.37971944
000230 99 6c e1 3f fb 85 c5 3c 81 1b 05 3c da 2b 6e bf
       1.7611266 0.024111738 0.008124233 -0.9303566
000240 81 f5 12 3f a8 e0 1f 3e 12 39 ec 3e 68 43 54 3e
       0.5740586 0.15613043 0.4613729 0.20728838
000250 3c 07 bb be 29 dd 52 bf 05 fa d4 3e 00 e4 8b bf
       -0.36528957 -0.82368714 0.41597 -1.0928955
000260 ae 97 a3 3f 5c 7b bb be 3a 73 8a 3e cd 1f 98 3f
       1.2780664 -0.36617553 0.27041036 1.1884705
000270 62 43 d2 be 33 28 fc bd a8 70 89 3f 22 08 02 bf
       -0.41067034 -0.12312355 1.0737505 -0.5079366
000280 f6 36 b2 be 7b 7d 8a be b6 59 d8 3e 8c f9 16 3f
       -0.34807557 -0.2704886 0.42255944 0.5897453
000290 7a 15 be 3f df f2 d8 3d aa 66 e9 be 45 f4 34 3f
       1.4850304 0.10593199 -0.4558614 0.70685226
0002a0 b8 03 78 3f 5f 9f 69 3e b7 a5 9f 3f 68 9b 62 be
       0.96880674 0.22814701 1.2472447 -0.22129595
0002b0 3b 30 5d 3f 99 64 9d 3e 52 a0 bf bf 03 99 e1 bc
       0.8640172 0.30740812 -1.4970801 -0.027538782
0002c0 d5 34 9d 3e 14 be 42 3b ca 47 90 bf 63 66 b5 3e
       0.3070437 0.0029715346 -1.1271908 0.35429677
0002d0 12 dc a3 3e 45 d0 5b bf f7 3d ed 3e 23 d1 01 40
       0.32003838 -0.8586467 0.46336338 2.0283897
0002e0 86 00 e7 bd 9a 79 a3 be 3e 2f 84 bc d3 c7 83 3d
       -0.11279397 -0.31928712 -0.016135808 0.06434598
0002f0 46 04 2a 3f c5 9a 49 3f 42 7f 97 3f 16 62 61 3e
       0.6641277 0.78751785 1.1835711 0.22010073
000300 1f 64 3b 3f 4e 4e 69 3f cc a8 8a be f7 b6 05 bf
       0.7319965 0.9113511 -0.27081907 -0.5223231
000310 c9 c4 49 be 25 62 7e bf b8 f2 37 bf a8 72 0d bf
       -0.19703974 -0.99368507 -0.71854734 -0.55253077
000320 9f 15 b5 3e a9 3a db bf b8 ec e5 3d 0d 38 38 bf
       0.35368058 -1.7127277 0.11226791 -0.71960527
000330 86 bd be 3e e6 c8 87 be cd 60 3d bf 8f 15 12 bf
       0.3725397 -0.2652046 -0.7397583 -0.57064146
000340 48 d0 bf 3f ad 26 85 bf a8 9b 37 3f 6e a0 c9 3e
       1.4985437 -1.0402428 0.7172189 0.3938021
000350 89 b4 7c 3f c2 04 37 3e 2b 0a 97 3c 78 2e 47 bf
       0.98712975 0.17872909 0.018437466 -0.7780528
000360 e5 20 e7 bf cc bc 89 bd 04 8d 07 be f7 9c ce 3e
       -1.8056914 -0.06725463 -0.13237387 0.4035413
000370 b5 d8 79 3f 7e 76 66 bf f4 ae 94 bb e2 44 09 3f
       0.97596294 -0.90024555 -0.0045374576 0.5362073
000380 27 ff 91 bd 3b 0b b5 bf 88 45 0f 3e aa 23 95 be
       -0.071287446 -1.4144052 0.13991368 -0.29128772
000390 89 91 50 be 27 ec 83 3e b1 9e 7f bd 44 2d c9 be
       -0.20368017 0.25766107 -0.0624072 -0.39292347
0003a0 35 c9 21 3f 4d cb 52 bf 0f d4 62 3d 19 cd e7 be
       0.6319764 -0.8234146 0.055378016 -0.45273665
0003b0 fe 9d 6f bf 68 54 a1 bd 7f b4 84 bf 31 08 18 be
       -0.9360045 -0.07877427 -1.0367583 -0.14846875
0003c0 c4 f9 75 3e ca b8 df be da a3 8e 3e 96 0b 37 3f
       0.2402106 -0.4369567 0.27859384 0.71502054
0003d0 8f 13 8f be 94 11 ab 3c 7e e4 86 bf 88 87 b5 3e
       -0.2794461 0.020882405 -1.053848 0.35454965
0003e0 84 58 85 3f bf e4 a5 be 89 6c f0 be ea e3 8d bf
       1.0417638 -0.32401082 -0.46957806 -1.1085179
0003f0 f2 8b dc 3e 82 a9 47 be 05 6a 93 3f bc 0e f5 bd
       0.4307552 -0.19498256 1.151673 -0.11965701

layers.0.bias f4 [128]
000000 e1 bd 9c 3d a9 76 52 bc 6b 48 49 3e 1b 28 7d be
       0.07653404 -0.012845674 0.19656532 -0.2472233
000010 59 22 4a be 5e bb 0e 3c ff aa 43 3e 56 74 40 3e
       -0.19739665 0.008711664 0.19108199 0.18794379
000020 00 00 00 00 bb c7 13 3d b0 b8 c0 3c be cb 19 3b
       0.0 0.03607915 0.023525566 0.0023467387
000030 56 b1 4f be b9 95 47 3e 69 e0 85 3e 00 00 00 00
       -0.20282492 0.19490708 0.26147774 0.0
000040 00 00 00 00 65 d0 20 3e 56 b9 50 be ff 0a 3f 3e
       0.0 0.15704496 -0.203832 0.18656538
000050 00 00 00 00 f6 b7 14 3e 5c af 4e be 62 32 ec 3b
       0.0 0.145233 -0.20184082 0.0072081545
000060 20 d6 3e 3e 00 00 00 00 a3 f1 4b be 9d e2 3e be
       0.1863637 0.0 -0.19916396 -0.18641134
000070 37 4c 84 3c 5b 40 c7 3c 1a b4 5c be e8 93 30 bd
       0.016149623 0.02432268 -0.21553078 -0.043109804
000080 8d 19 39 3e 00 00 00 00 d3 df 63 3d 00 00 00 00
       0.18076153 0.0 0.055633377 0.0
000090 3a 20 58 be ad fe 06 bc 30 99 dc 3c 89 72 44 3e
       -0.21106043 -0.00823943 0.026928514 0.19184317
0000a0 00 00 00 00 79 d1 4f 3e 4a 10 42 3e 48 cc 51 be
       0.0 0.20294751 0.18951526 -0.20488083
0000b0 6b bf 44 3e 05 b2 b2 3d 36 6d 41 3e 69 46 a9 3d
       0.19213645 0.08725361 0.18889317 0.08265383
0000c0 a9 cf 4f 3e 38 09 43 be 57 9c dc 3d 68 da 28 3e
       0.2029406 -0.19046485 0.10772007 0.16489565
0000d0 3e 39 f4 3d 00 00 00 00 1e 97 44 3e 4c b3 46 3e
       0.119249806 0.0 0.19198272 0.19404334
0000e0 4f d4 49 3e 35 3a 4c 3e ae f0 84 3d d7 96 01 3e
       0.19709896 0.19944079 0.064912185 0.12655197
0000f0 e1 0b 4e be 14 ad 4a be e2 cd 63 3e f1 42 47 3e
       -0.20121719 -0.19792587 0.22246507 0.1945913
000100 f6 fc 42 3e 00 00 00 00 67 d7 d2 3b 00 00 00 00
       0.1904181 0.0 0.0064343694 0.0
000110 11 e3 4b be af b9 45 3d 15 64 48 3e 37 73 4c be
       -0.19910838 0.048272785 0.19569428 -0.19965826
000120 00 00 00 00 ea e4 77 3d 64 ad 3e 3e f8 54 6c 3c
       0.0 0.060521044 0.18620831 0.014424555
000130 02 15 ee 3c 55 56 83 3c 0a ad f6 3d 00 00 00 00
       0.029062752 0.016032377 0.12044723 0.0
000140 07 6c 5f be 17 2f 52 be 57 02 28 3d 00 00 00 00
       -0.21818553 -0.20525776 0.041017856 0.0
000150 41 7d 48 3e 92 54 09 3e 07 29 57 3e e2 00 44 3e
       0.1957903 0.13411167 0.21011744 0.19140962
000160 ac 47 32 3e b4 ed 49 be db 9c 50 be e6 d5 46 3e
       0.17410153 -0.19719583 -0.20372336 0.19417533
000170 9e 33 49 3e ac a0 49 3e f9 2d 39 3c 73 cd 3e 3e
       0.19648597 0.19690198 0.011302465 0.1863306
000180 93 6f 4a be 5d 33 51 be 69 85 04 3e c3 4a 49 3e
       -0.19769125 -0.2042975 0.12941517 0.19657426
000190 49 b7 5a be 37 79 4a be 96 31 55 be eb 5c 08 3c
       -0.2135898 -0.19772802 -0.20819697 0.008322935
0001a0 00 9d a4 3c a2 19 01 3d dd aa 5d 3d df a1 33 be
       0.020094395 0.031518586 0.054118026 -0.17542218
0001b0 74 ba 37 3e 84 d4 52 3e 65 a7 4b be b1 e8 4b be
       0.1794222 0.20588881 -0.19888075 -0.19912983
0001c0 b1 d0 03 3d fa 5a 4d be e3 9b 21 3c 78 c0 8f 3c
       0.032181446 -0.20054236 0.009863826 0.017547831
0001d0 00 00 00 00 0e 47 48 3e c0 79 f1 bc b8 1f 4e be
       0.0 0.19558355 -0.029477 -0.20129287
0001e0 68 56 48 3e 59 73 37 3e 00 00 00 00 3d 3a 41 3e
       0.19564211 0.17915095 0.0 0.18869872
0001f0 b0 63 bc 3c 30 2c 38 3e 00 00 00 00 b0 46 fa 3c
       0.022996753 0.17985606 0.0 0.030551285

action_parameters_output_layer.weight f4 [27, 128]
000000 3b 39 7b b9 bb 1b 93 3b 0d c3 b0 ba 63 51 54 b8
       -0.00023958545 0.0044893897 -0.0013485864 -5.0620536e-05
000010 9b 07 70 38 43 04 7d 3b ee c6 e7 b9 15 34 8c 38
       5.7227542e-05 0.0038607277 -0.00044207968 6.685421e-05
000020 b5 85 f2 38 80 15 03 bc 80 d9 ba bb d6 49 9c 39
       0.00011564364 -0.0080007315 -0.0057021976 0.0002980965
000030 7f d7 85 39 fe 31 10 bb b2 a9 3f bb f5 4c f7 36
       0.00025528294 -0.0022002454 -0.0029245433 7.3701326e-06
000040 53 fd 01 38 5c 8d de b6 ea 57 06 b8 47 5b 53 38
       3.0991923e-05 -6.632572e-06 -3.2029966e-05 5.039133e-05
000050 78 2f c3 37 3e de 4e bc ae 28 4e 38 4b 37 41 ba
       2.3267916e-05 -0.012626229 4.9152113e-05 -0.0007370605
000060 4a 49 fb ba 55 83 16 38 5e af b4 38 7a 59 21 3a
       -0.0019171622 3.58851e-05 8.6157335e-05 0.00061549956
000070 c9 23 32 3d c0 b1 91 3a 2e 57 9b 38 05 f7 0d 39
       0.04349116 0.0011115596 7.4072144e-05 0.0001353883
000080 27 61 90 3c b7 e8 25 38 74 56 3d ba f1 12 09 b9
       0.01762445 3.9555798e-05 -0.00072226604 -0.00013072394
000090 6e 9f 1e b9 60 7e 64 bb fd ad f5 bb 16 33 a8 b9
       -0.00015127446 -0.0034865364 -0.0074975477 -0.0003208152
0000a0 54 df d7 b8 b8 34 eb 38 ac b5 a0 ba de 78 42 b8
       -0.00010293597 0.00011215493 -0.0012261174 -4.636577e-05
0000b0 0d bf df b9 d1 87 cc 3b 99 ea 86 b9 30 70 51 3c
       -0.00042676218 0.0062417765 -0.0002573326 0.012783095
0000c0 ae 30 b9 b8 32 bd 47 3a 07 9f 8b b9 25 5f fc bb
       -8.830555e-05 0.000761944 -0.0002663063 -0.007701772
0000d0 14 24 fd 39 70 2b 11 b7 cf 9e d1 b9 94 1d 14 ba
       0.000482828 -8.652787e-06 -0.00039981908 -0.00056501594
0000e0 92 8c b1 b9 5d 8a 27 3b f7 a8 dc bb 84 bb 1a 3c
       -0.00033864804 0.0025564649 -0.0067340094 0.009444121
0000f0 40 e1 f0 b7 8a 95 f6 37 ea 2a 81 3b c5 ed 90 37
       -2.871512e-05 2.939512e-05 0.0039418833 1.7276858e-05
000100 02 4e c7 38 a6 cb 81 39 02 cc c0 ba 66 cf 9e 38
       9.5035895e-05 0.00024756527 -0.0014709237 7.572658e-05
000110 2a 96 ca 39 9c 13 d0 ba f0 4c 91 b5 41 da 6a 3a
       0.00038640323 -0.0015874985 -1.0825734e-06 0.0008958914
000120 12 fe 55 b8 88 d0 9a 39 8a a2 46 bb e1 4e 23 3c
       -5.101978e-05 0.00029528537 -0.0030309283 0.009967537
000130 5c 94 8a b9 9c b4 1c 3c fa 7c 10 3c 9e 29 ca b8
       -0.00026431947 0.009564545 0.008818859 -9.6398624e-05
000140 f9 1f 94 b8 ea c9 1b b8 84 8b c2 ba bf 45 66 38
       -7.063145e-05 -3.7142927e-05 -0.0014842604 5.490123e-05
000150 14 7c 84 b9 97 bb d1 3c 83 63 7a b9 98 36 88 bb
       -0.00025269447 0.025602145 -0.00023878929 -0.0041568987
000160 9c 89 bd bb eb 99 40 39 4e 90 a0 38 ce e7 2b b9
       -0.0057842266 0.00018367886 7.6562734e-05 -0.00016394185
000170 ee bb d9 b7 c0 88 a9 35 4a 92 5b 3c d2 6a 16 38
       -2.5955927e-05 1.2631281e-06 0.013401577 3.586227e-05
000180 fe b9 8a b8 71 b0 a3 39 54 17 33 ba b5 26 49 38
       -6.6149965e-05 0.00031221242 -0.0006831784 4.7958183e-05
000190 46 17 cb 39 7b 78 67 39 f8 76 84 3b 30 22 d7 b6
       0.00038736517 0.00022074759 0.0040425025 -6.4114793e-06
0001a0 06 bd 30 3a ee 23 ee 3a 62 9b 48 3c 8a fe c5 38
       0.0006742034 0.0018168667 0.012244077 9.4411036e-05
0001b0 6f 57 97 bb 44 4f aa b9 97 eb 32 b8 4c 8a 49 39
       -0.004618577 -0.00032483984 -4.2657917e-05 0.00019220373
0001c0 34 5a 3a 36 f9 91 0d 39 a4 44 85 bb 2f a6 10 bc
       2.7768665e-06 0.00013501187 -0.0040670205 -0.008828684
0001d0 3c 99 06 b9 b4 cf 9a b9 2b 2d b2 bb bd d7 93 39
       -0.0001283632 -0.0002952792 -0.0054375133 0.00028198762
0001e0 fc 90 a0 b6 17 55 b0 38 c6 df 2a 39 40 e7 cf 37
       -4.78525e-06 8.408183e-05 0.00016295825 2.4784007e-05
0001f0 e2 65 27 3c e1 90 b0 b8 25 02 44 38 62 e1 dc bb
       0.010217162 -8.41932e-05 4.673204e-05 -0.006740735
000200 38 2e e5 b9 c8 aa ed ba 78 8c 73 3b 81 eb da ba
       -0.0004371272 -0.0018132562 0.0037162583 -0.0016702266
000210 95 64 68 b9 7e df 05 3b 17 a4 22 3b d9 b9 fe 39
       -0.00022162714 0.0020427401 0.0024817043 0.00048585123
000220 bb 7a a4 38 70 e9 09 3c 8e fd 03 3c 1c ba 98 bb
       7.84299e-05 0.008417472 0.008056058 -0.004660858
000230 b4 de 91 ba 55 7a a2 3b 43 20 42 3d 7d a6 ec 38
       -0.0011128993 0.004958431 0.04739405 0.00011284368
000240 2c 8a 1d 38 c9 81 a1 39 82 c8 8d b9 1a ec 04 3a
       3.75604e-05 0.0003080501 -0.00027043006 0.0005070582
000250 65 3d 40 39 94 2c 62 3c 6d be c5 b9 9d 00 56 bb
       0.00018333418 0.013804574 -0.00037716646 -0.0032654174
000260 b9 21 42 3b 88 93 14 39 2c 28 18 ba 53 8b b4 ba
       0.002962215 0.0001416934 -0.0005804326 -0.0013774432
000270 b2 43 ea bc 35 bb 15 bc e8 98 a9 b9 3e a0 66 39
       -0.028596733 -0.009138872 -0.00032348116 0.00021994204
000280 96 cc 61 3c 1b a1 38 b8 37 2b 2d 3c af 6c 3a 38
       0.013781687 -4.401906e-05 0.010569385 4.4447075e-05
000290 2e 74 71 ba 42 72 09 bc fa 08 99 bc 1a 17 ee 3a
       -0.00092107325 -0.008389058 -0.018681038 0.0018164844
0002a0 63 52 54 b7 90 97 79 3a 8b 29 0e 3c ad a6 3d ba
       -1.2655367e-05 0.0009521181 0.008676897 -0.00072346145
0002b0 2a 47 63 3a 74 81 ee 3b c4 82 27 3a 68 ab 18 bb
       0.0008669967 0.0072786156 0.000639003 -0.0023295525
0002c0 5e 32 04 3a 32 ed 0f bb 0a cc 4e b9 d8 ac 06 3c
       0.00050429057 -0.0021961448 -0.00019721701 0.00821992
0002d0 88 54 fb 3b 8f 37 c9 b8 81 db c2 3a 46 e3 56 3a
       0.007669989 -9.5947755e-05 0.0014866443 0.00081973185
0002e0 78 58 c2 39 1d 9c 2b 3d 63 e9 04 3c bb f4 14 3c
       0.00037068478 0.041896928 0.008112284 0.009091551
0002f0 fb c0 94 ba 6e e5 82 b8 94 bc d6 37 b5 15 5f 3a
       -0.0011349017 -6.241618e-05 2.5598601e-05 0.00085100095
000300 f5 8b dc 39 6b d6 15 b9 76 8a ca ba 88 8e 2a b8
       0.00042065946 -0.00014289624 -0.0015452642 -4.06639e-05
000310 a0 f8 a0 ba f2 a1 0c 3c 89 1c 1a 3a 4d 57 e9 ba
       -0.0012281127 0.008583533 0.0005878886 -0.0017802507
000320 ad dc 93 b7 54 c7 de 39 be c6 78 3c c4 77 42 3c
       -1.7626526e-05 0.0004249165 0.015184103 0.011869375
000330 21 92 19 bc f7 de 06 bb d2 2c f9 3b cc af cd b6
       -0.009373219 -0.0020579675 0.00760422 -6.1299415e-06
000340 f7 af 7b ba ac 27 a6 b9 6c 40 65 bc 1d 1e 99 37
       -0.0009601111 -0.00031691545 -0.01399241 1.8253044e-05
000350 15 dd 33 3a e2 06 c8 3c f1 0a ad 3a a6 c0 e8 3b
       0.0006861252 0.024417344 0.0013202113 0.0071030436
000360 37 c9 f3 3b 99 1b 18 ba c5 a5 cc b9 04 b7 48 3a
       0.007439758 -0.0005802452 -0.0003903342 0.0007656666
000370 0a 0b e9 39 70 71 dd 3a 80 8c 4c 3c d8 a5 62 39
       0.00044449448 0.0016894769 0.01248467 0.00021614821
000380 20 ed 3d ba 37 32 49 ba de b6 37 3c 3e 7d 71 3a
       -0.0007245112 -0.0007675024 0.0112130325 0.0009212083
000390 55 a1 47 ba 5e 36 e3 b9 3d d9 22 bb 9e ad 2b b9
       -0.0007615288 -0.0004333732 -0.0024848722 -0.00016372508
0003a0 bb e6 ab bb 5c 1f 19 bc 09 6d 15 bb b9 ef dc ba
       -0.005246011 -0.009345856 -0.0022800586 -0.0016856111
0003b0 d8 b3 d3 3b d8 c0 28 3a 54 c9 e3 b8 d4 71 4a b9
       0.006460648 0.00064374274 -0.00010861704 -0.00019306625
0003c0 7a d1 f3 ba d7 99 b6 ba b2 3e ca bb e5 7c 55 bc
       -0.0018601858 -0.0013931346 -0.0061720246 -0.013030265
0003d0 69 c7 b7 38 9c 60 36 3a ff b2 44 bc d4 4e 60 b9
       8.763263e-05 0.0006957145 -0.012005567 -0.0002139167
0003e0 89 1b 68 3a 36 8a fc 39 d4 31 1b b8 9c 19 07 39
       0.0008854201 0.0004816816 -3.7001286e-05 0.00012884144
0003f0 8f 2a e7 3a ca 70 8c 39 e7 ae 0e b9 04 d1 23 bc
       0.0017636585 0.00026786915 -0.00013607331 -0.009998564

action_parameters_output_layer.bias f4 [27]
000000 c9 ac 3e 3c a0 9f e0 3d 4e c2 ca 3b 25 a7 ee 3d
       0.011637875 0.10967946 0.0061877137 0.11652974
000010 56 6a 44 3b 2c 27 44 3b fa c2 f4 3d ce 8e 2b 3e
       0.0029970608 0.0029930575 0.11951251 0.16753694
000020 5e 1e 1b ba 56 3f 08 3e e6 d1 88 b8 d2 69 25 3e
       -0.0005917306 0.1330541 -6.524082e-05 0.16153648
000030 50 05 e2 3d 55 7b be 3d 29 66 bd b8 98 cd de 3d
       0.110361695 0.093008675 -9.031251e-05 0.10879058
000040 f7 b9 23 3e 79 8b 01 3e bf a1 25 3d 2a c6 b7 39
       0.15988909 0.12650861 0.040437456 0.00035052124
000050 a6 56 ac 3a 0a a0 12 3d f7 8a 01 3c 38 e7 2b 3e
       0.0013148382 0.035797156 0.007906667 0.16787422
000060 1d 1b 31 3e 74 bb d5 3d 6b 77 83 3c
       0.17295499 0.104361445 0.016048154

action_parameters_passthrough_layer.weight f4 [27, 3]
000000 00 00 00 00 00 00 00 00 00 00 00 00 00 00 00 00
       0.0 0.0 0.0 0.0
000010 00 00 00 00 00 00 00 00 00 00 00 00 00 00 00 00
       0.0 0.0 0.0 0.0
000020 00 00 00 00 00 00 00 00 00 00 00 00 00 00 00 00
       0.0 0.0 0.0 0.0
000030 00 00 00 00 00 00 00 00 00 00 00 00 00 00 00 00
       0.0 0.0 0.0 0.0
000040 00 00 00 00 00 00 00 00 00 00 00 00 00 00 00 00
       0.0 0.0 0.0 0.0
000050 00 00 00 00 00 00 00 00 00 00 00 00 00 00 00 00
       0.0 0.0 0.0 0.0
000060 00 00 00 00 00 00 00 00 00 00 00 00 00 00 00 00
       0.0 0.0 0.0 0.0
000070 00 00 00 00 00 00 00 00 00 00 00 00 00 00 00 00
       0.0 0.0 0.0 0.0
000080 00 00 00 00 00 00 00 00 00 00 00 00 00 00 00 00
       0.0 0.0 0.0 0.0
000090 00 00 00 00 00 00 00 00 00 00 00 00 00 00 00 00
       0.0 0.0 0.0 0.0
0000a0 00 00 00 00 00 00 00 00 00 00 00 00 00 00 00 00
       0.0 0.0 0.0 0.0
0000b0 00 00 00 00 00 00 00 00 00 00 00 00 00 00 00 00
       0.0 0.0 0.0 0.0
0000c0 00 00 00 00 00 00 00 00 00 00 00 00 00 00 00 00
       0.0 0.0 0.0 0.0
0000d0 00 00 00 00 00 00 00 00 00 00 00 00 00 00 00 00
       0.0 0.0 0.0 0.0
0000e0 00 00 00 00 00 00 00 00 00 00 00 00 00 00 00 00
       0.0 0.0 0.0 0.0
0000f0 00 00 00 00 00 00 00 00 00 00 00 00 00 00 00 00
       0.0 0.0 0.0 0.0
000100 00 00 00 00 00 00 00 00 00 00 00 00 00 00 00 00
       0.0 0.0 0.0 0.0
000110 00 00 00 00 00 00 00 00 00 00 00 00 00 00 00 00
       0.0 0.0 0.0 0.0
000120 00 00 00 00 00 00 00 00 00 00 00 00 00 00 00 00
       0.0 0.0 0.0 0.0
000130 00 00 00 00 00 00 00 00 00 00 00 00 00 00 00 00
       0.0 0.0 0.0 0.0
000140 00 00 00 00
       0.0

action_parameters_passthrough_layer.bias f4 [27]
000000 00 00 00 00 00 00 00 00 00 00 00 00 00 00 00 00
       0.0 0.0 0.0 0.0
000010 00 00 00 00 00 00 00 00 00 00 00 00 00 00 00 00
       0.0 0.0 0.0 0.0
000020 00 00 00 00 00 00 00 00 00 00 00 00 00 00 00 00
       0.0 0.0 0.0 0.0
000030 00 00 00 00 00 00 00 00 00 00 00 00 00 00 00 00
       0.0 0.0 0.0 0.0
000040 00 00 00 00 00 00 00 00 00 00 00 00 00 00 00 00
       0.0 0.0 0.0 0.0
000050 00 00 00 00 00 00 00 00 00 00 00 00 00 00 00 00
       0.0 0.0 0.0 0.0
000060 00 00 00 00 00 00 00 00 00 00 00 00
       0.0 0.0 0.0
