RL4E2E/results/collected_results/2.0k1/episode_501/actor.pt (torch, 20755 bytes, 4 tensors)

layers.0.weight f4 [128, 30]
000000 a5 00 1c 3e c0 7e f6 be 92 17 3b 3f cb 8a 95 3e
       0.15234621 -0.48143578 0.7308284 0.29207453
000010 cb e5 53 bd a8 a7 d7 bb d0 d3 88 3e b5 04 47 3e
       -0.05173282 -0.0065812655 0.267241 0.1943539
000020 89 bd c8 3e 9f 46 40 3d e0 3d e5 3d 2c 48 9e be
       0.39207104 0.04694235 0.11193442 -0.30914438
000030 be e2 20 be cc 6d 2a be 23 86 66 3e 74 7b bc bd
       -0.15711495 -0.16643447 0.22512107 -0.09203234
000040 76 cb 04 be 47 38 3d 3d 56 67 8b be 9c 7f 2c 3e
       -0.12968239 0.04619625 -0.27227277 0.16845554
000050 c8 32 a7 3e b1 25 81 3e 4f 73 7f be 75 dd 47 be
       0.3265593 0.2522407 -0.2494633 -0.19518073
000060 0e 8e 40 3e cd 99 2c 3e 6f 24 04 3f d7 47 07 3e
       0.1880419 0.16855545 0.51618093 0.13210998
000070 0d 6e 99 3d f5 17 7a 3e 15 a8 83 3e 41 9e 73 be
       0.07491694 0.24423201 0.25714174 -0.23790838
000080 6f 6f 8d 3e fb ab 4c bc 8d 0c 25 3c a7 48 b7 3e
       0.2762408 -0.012492175 0.010073793 0.35797617
000090 08 38 6a 3e f6 ba 98 be d7 84 29 3e 57 34 06 3e
       0.22872937 -0.2983014 0.1655458 0.13105904
0000a0 56 ad 93 bd da 34 09 bd 4d fa 86 3e 09 cb a4 3c
       -0.072107956 -0.03349767 0.2636284 0.020116346
0000b0 00 ba 0c 3f 83 bc 8c 3e b4 31 90 3e 4d c2 09 be
       0.54971313 0.27487573 0.2816292 -0.13453026
0000c0 03 d2 a1 be 79 a0 87 3e 74 e5 cb bd eb fe e8 3e
       -0.3160554 0.26489618 -0.09955874 0.45506987
0000d0 2f f7 57 be 3d 78 54 3e 43 4c 12 3e 18 a7 a8 be
       -0.21090387 0.20748992 0.14286904 -0.32939982
0000e0 23 5a a4 be 1d ec e6 3c ea c5 2b 3e be 79 cd be
       -0.3210002 0.02818876 0.16774717 -0.40131944
0000f0 69 9a de 3b df de 42 3e 06 14 c3 bf 2c cc 4d bc
       0.0067933095 0.19030331 -1.5240486 -0.012560885
000100 7e d9 8b 3d 29 41 42 3e f9 b9 0e be c5 e8 de 3e
       0.06828593 0.18970169 -0.1393813 0.43536964
000110 07 74 0e bd 6b be 36 be 2f a8 7f be 09 c2 bc bd
       -0.03477862 -0.17846076 -0.249665 -0.09216697
000120 cd cc c2 3d b9 96 e0 bd 65 45 8d be a7 4e 0e be
       0.09511719 -0.10966248 -0.27592006 -0.13897191
000130 54 3c cc 3d 47 19 9c 3c 1c e2 f7 bd 4c d6 21 be
       0.09972444 0.019055022 -0.12103674 -0.15804404
000140 0b 28 47 3e 6c 73 a9 3d 0d b4 fb 3d a1 fe df 3e
       0.19448869 0.08273968 0.12290201 0.43748954
000150 3a 36 e0 be d9 8d da 3e 34 35 73 bd 4e 70 0d be
       -0.43791372 0.42686346 -0.05937691 -0.13812372
000160 6f 9d cc be 6c 88 42 3e 44 5e 1b bc e9 ed b4 3c
       -0.39963862 0.18997353 -0.009482924 0.0220861
000170 14 4b a8 be 79 2d 9f 3c a4 10 6e be 2e f0 e8 be
       -0.3286978 0.019430863 -0.23248535 -0.45495743
000180 1b a2 6c be 72 27 9a be c1 53 0f 3e b7 a5 75 be
       -0.23108713 -0.3010822 0.13996793 -0.23988996
000190 f6 44 cb bc 58 b5 ac 3d df ee a1 bd 35 dc 0c 3f
       -0.024813157 0.08433026 -0.07906889 0.5502351
0001a0 09 fe 1f 3e ee 90 65 be a2 b3 28 be 2c 40 03 3e
       0.1562425 -0.22418568 -0.16474774 0.12817448
0001b0 50 1a ce 3d 73 f4 48 3e 8d ff 87 3e 05 1c f9 bd
       0.100636125 0.196245 0.26562157 -0.121635474
0001c0 c1 e3 b1 bd c8 4f c4 3d 9a 49 84 3d 96 91 18 be
       -0.08686019 0.095855296 0.06459351 -0.14899287
0001d0 45 dd 79 3e 60 50 8b be d2 ec cd be dc d7 c7 3d
       0.24400814 -0.2720976 -0.40219742 0.09757969
0001e0 8b 41 18 3d f4 e4 ac be 25 ca 7b 3e e0 7b 19 bd
       0.03717188 -0.33768427 0.24588831 -0.037471652
0001f0 d5 75 53 bd c6 4b 12 3f ef 67 a4 bd 16 d6 2f bf
       -0.051626045 0.5714687 -0.08027636 -0.68686044
000200 6a b6 05 be 8a 3c 0d 3e aa 10 b7 bd 2f 48 57 3e
       -0.13057867 0.13792625 -0.08938725 0.2102363
000210 93 ee d7 bd 50 98 e2 be 8c e7 db 3e 4d 77 9b be
       -0.10543551 -0.4425683 0.42950094 -0.30364457
000220 b2 df 17 3f a4 25 a1 bd cd 09 d5 be 00 f1 49 3e
       0.59325707 -0.078685075 -0.4160904 0.1972084
000230 62 72 b2 3d 44 6b 7b 3e 29 25 b5 3d ee 54 91 be
       0.08713223 0.24552637 0.08844978 -0.2838511
000240 ce be 48 be b4 ae 74 be 17 59 a9 3d c4 a6 06 be
       -0.19604036 -0.23894769 0.08268946 -0.13149554
000250 11 87 2d bd cf ec 0f bd 69 a8 8d 3e 5c ee b6 be
       -0.042365137 -0.035137948 0.2766755 -0.3572873
000260 34 4e e6 3e a0 94 9a 3e 4a 82 71 3e 91 b2 ab be
       0.4498154 0.30191517 0.23584858 -0.33534673
000270 41 6f 06 3e da 2b 8e be d4 a0 f7 bd 7d 3c 87 be
       0.13128377 -0.2776783 -0.120912224 -0.26413336
000280 b0 46 df bd 7f c2 82 3d 3d fd b2 be cc 02 23 3c
       -0.109021544 0.063847534 -0.3495883 0.009949397
000290 76 46 94 3e 27 90 06 be f7 ed 0f be f6 cd 46 be
       0.28960007 -0.13140927 -0.1405562 -0.19414505
0002a0 26 41 ca 3d 70 0c e2 bd f7 a3 34 3e dc 07 98 bd
       0.09875707 -0.110375285 0.17640673 -0.07423374
0002b0 09 51 34 be b2 93 3d 3d 1e 3c 34 be e8 6e 62 bd
       -0.17609037 0.04628343 -0.17601058 -0.05528155
0002c0 c7 11 29 3f a9 33 bc 3d df 03 2b 3e 04 37 0d 3e
       0.6604275 0.09189541 0.16700695 0.13790518
0002d0 e2 68 d5 bd 0b 57 ba 3c d1 da 0a be 6b b3 6b 3e
       -0.104203954 0.022746583 -0.13560034 0.23017661
0002e0 14 98 02 bd cc 35 1e be 28 a9 72 bd 9d aa 96 be
       -0.031883314 -0.1545021 -0.05924335 -0.29427043
0002f0 e0 29 10 be e8 1c 08 be 5c b5 25 3d f1 5d 40 be
       -0.14078474 -0.13292277 0.04045616 -0.18785836
000300 44 a3 89 be ba 31 f5 be b7 88 65 3d 81 49 82 3e
       -0.26882374 -0.478895 0.056038585 0.25446704
000310 aa f6 af 3d 58 55 0d 3f 9d a5 1f bf b1 34 8b be
       0.08591969 0.5520835 -0.6236208 -0.27188638
000320 28 d8 c3 be 53 12 4b be 09 a9 a2 bd dc 41 8f 3e
       -0.38250852 -0.19831209 -0.07942397 0.27979934
000330 8f 30 23 3e 6a 02 19 3e ed 5d b1 bd 29 b0 5b 3e
       0.15936492 0.14942327 -0.08660493 0.21453919
000340 e8 a1 ea be 14 76 6a 3d d6 a5 58 3c c5 0e a3 3e
       -0.4582665 0.057241514 0.013223132 0.31847206
000350 dd 97 52 3d 1a 24 44 be ec 21 0e be 79 82 c8 be
       0.05141436 -0.19154397 -0.13880128 -0.39162043
000360 0b e6 c1 be f8 74 36 be 3c 39 fe 3d 16 aa db 3d
       -0.3787082 -0.17818058 0.1241326 0.10725801
000370 a6 5b 13 be 8c 1f 2b 3f d9 96 ef 3d 19 fa 3a be
       -0.1439043 0.6684501 0.11698694 -0.18259467
000380 c2 0a 4f 3e 92 fa 62 3e 34 37 93 bc 79 d9 65 bd
       0.20218948 0.22165897 -0.017970659 -0.0561156
000390 09 56 f5 3d 3b d8 03 bf 12 9e 23 bd 8f e2 a7 be
       0.119793005 -0.51501817 -0.03994567 -0.32790038
0003a0 d2 e3 55 3e b0 2a 4a 3d fa c3 22 3d 9a be a4 bd
       0.20887688 0.049357116 0.03973768 -0.08044167
0003b0 0c 88 09 3d ef 76 2c be 84 32 2d 3e 84 70 89 be
       0.03357701 -0.16842245 0.16913801 -0.26843655
0003c0 09 f1 9a 3e 41 51 4d 3e be 87 1e 3d 9a 85 99 be
       0.3026202 0.20050527 0.038703673 -0.29984742
0003d0 ef b9 89 3d 27 23 89 bd 0c 12 53 be 0f 3b 15 3e
       0.06724917 -0.06696158 -0.20612353 0.1457331
0003e0 e5 82 b5 3e 6e ed 19 bf cf ef a5 bd 4a fa 26 be
       0.35451427 -0.60127914 -0.081023805 -0.16306415
0003f0 08 52 44 be 9d a5 e7 bd e7 5b ab be 10 85 9b 3d
       -0.19171917 -0.11310885 -0.33468553 0.07593739

layers.0.bias f4 [128]
000000 11 df 6c bf 55 ad 39 bf 25 48 b3 3f 00 00 00 00
       -0.9252787 -0.7253011 1.4006392 0.0
000010 74 d7 aa bc 35 e4 44 bf 00 00 00 00 e7 23 29 3f
       -0.02085469 -0.76910716 0.0 0.6607041
000020 1e dc 2a bf 44 10 2f be f9 79 6f bf 9c f7 d4 bd
       -0.6674212 -0.17096049 -0.9354549 -0.1039879
000030 6f a8 34 bf a3 a9 a0 be 10 9b 5b bf 00 00 00 00
       -0.7056951 -0.31379423 -0.8578348 0.0
000040 73 d2 47 3f 24 07 1b 3c 94 2f 08 bf 78 3e 50 3f
       0.78055495 0.009462152 -0.531976 0.8134532
000050 f3 3b 50 3f 85 e8 36 3f 2e ee 61 3f 36 ac 5a 3f
       0.81341475 0.71448547 0.8825406 0.85419023
000060 94 53 55 3f e6 7a 5e bd 0e 24 02 be 32 14 41 bf
       0.83330655 -0.054316424 -0.12709066 -0.7542144
000070 47 f2 67 be bc 6d 52 3f 9f cf 98 bf fc 18 55 3f
       -0.22651015 0.8219869 -1.1938361 0.8324125
000080 00 00 00 00 a3 eb 84 3f d3 0f 32 3f 1d 84 92 bf
       0.0 1.0384411 0.69555396 -1.1446568
000090 00 00 00 00 19 22 87 3f d3 0f 32 3e ed f3 ba 3f
       0.0 1.0557281 0.17388849 1.460569
0000a0 c5 96 2a 3f 44 c3 86 3e 04 d9 7f bd be 80 80 3f
       0.66636306 0.2632085 -0.06246282 1.0039289
0000b0 a8 4b a0 3f 26 95 11 3f 03 46 5f bf 00 00 00 00
       1.2523088 0.5686821 -0.87216204 0.0
0000c0 2f 7e 2c 3d 06 4f 5c bf 6f 7d 82 3f c8 01 93 3b
       0.042112526 -0.8605808 1.0194529 0.0044862963
0000d0 db a5 04 bd f7 8f a7 3f 15 6e a4 bc d8 c4 2e 3f
       -0.032384735 1.309081 -0.020072022 0.6826911
0000e0 55 be 39 bf ef 30 49 bd c9 a2 37 bd ed 9a 2a bf
       -0.7255605 -0.049118932 -0.04483298 -0.6664265
0000f0 e0 dd 2c bf 64 13 2e bf d6 b7 43 3f 11 0d 4a 3f
       -0.67526054 -0.6799834 0.76452386 0.7892619
000100 e8 b6 8e bd 8c e1 b4 3e 00 00 00 00 b2 3a 3f bf
       -0.0696848 0.3532833 0.0 -0.74698937
000110 00 00 00 00 79 09 2b 3f 15 19 9d bc 0d 57 37 3f
       0.0 0.6681133 -0.019177 0.71617204
000120 40 0f ab 3d bb 4b 88 bd a4 38 4e bf 03 35 84 bf
       0.08352518 -0.066550694 -0.80555177 -1.0328678
000130 09 89 01 3e 00 00 00 00 78 60 5b 3f 00 00 00 00
       0.12649931 0.0 0.85694075 0.0
000140 b5 f7 6f be a4 cc 6c 3f 4a dc c9 bd c8 a0 3c bf
       -0.23434336 0.92499757 -0.0985647 -0.7368283
000150 a2 a7 39 3f 9a fa 4e 3f 00 00 00 00 74 b8 2f bf
       0.7252141 0.8085114 0.0 -0.6864083
000160 9b 6b b9 3f e9 84 5b bf 13 59 86 bd 00 00 00 00
       1.4485964 -0.8574968 -0.06559958 0.0
000170 37 19 cf 3f 07 db 3b 3f 00 00 00 00 d9 b2 56 bf
       1.617957 0.73381084 0.0 -0.8386665
000180 90 cc 40 bf 03 44 34 3f 3e a5 1d bf 00 00 00 00
       -0.7531214 0.7041628 -0.61580265 0.0
000190 d3 c0 70 3f 22 10 d0 be 01 65 31 3f 8c 08 90 bf
       0.94044226 -0.40637308 0.69294745 -1.1252608
0001a0 7e 01 38 3f c3 2f fc bc 00 00 00 00 19 74 3c bf
       0.71877277 -0.030784493 0.0 -0.7361465
0001b0 70 7a 27 bf 99 81 48 3f 9c 9a 8d bf fa fc f8 3e
       -0.654212 0.7832275 -1.1062808 0.48630506
0001c0 e8 35 8a 3f 01 92 7b 3f 25 75 fd bd 0a 75 b5 3e
       1.0797701 0.9826966 -0.12375859 0.35440856
0001d0 00 00 00 00 ff 55 a4 bc 00 00 00 00 3e 9a 50 3f
       0.0 -0.020060537 0.0 0.81485355
0001e0 00 00 00 00 75 3f 7e 3f e9 3d 1b 3f 00 00 00 00
       0.0 0.9931558 0.6064134 0.0
0001f0 4a 61 85 3f 8a 06 6c 3f 90 12 c0 3e ef bc ec 3b
       1.0420315 0.9219748 0.37514162 0.007224671

layers.1.weight f4 [6, 128]
000000 46 28 dc 3d 0f 82 81 3d d8 2d 8a bf 15 73 48 bd
       0.10749869 0.06323635 -1.079524 -0.048937876
000010 06 cd 0a bb c9 f9 8b 3d 57 80 a8 3d fa dd 6e bd
       -0.0021179332 0.06834752 0.08227604 -0.058317162
000020 e9 ad cd 3d c7 56 bb 3e 92 16 a0 3d 53 21 19 3e
       0.10042936 0.36589643 0.07816805 0.14954118
000030 87 93 ae 3d e2 e0 af 3c 53 2e 9b 3d 9a da 21 bd
       0.08524232 0.021469537 0.07577195 -0.039515115
000040 4b 14 7d bd a4 56 66 3e 13 4d d2 3c 82 46 2b be
       -0.06178693 0.22493988 0.025671517 -0.16726115
000050 2e 1b 0b bd 43 59 ad bd a0 23 05 be ac 44 0e be
       -0.033961467 -0.08464291 -0.13001871 -0.13893384
000060 90 6b 2b be c1 b5 2b bc 09 b1 b4 3e f7 7e 1a 3e
       -0.1674025 -0.010480345 0.35291317 0.15087496
000070 b4 50 2e 3c 08 88 42 be 22 81 f3 3d 57 1e 0f be
       0.010639358 -0.18997204 0.118898645 -0.13976417
000080 08 86 00 3d 25 48 d2 be c1 0f 61 bd f5 ad d0 3e
       0.031377822 -0.41070667 -0.054946665 0.4075772
000090 42 cb 35 3d 59 25 5e bd 61 31 33 be e7 c5 a6 bf
       0.044383295 -0.054234836 -0.17499305 -1.3029145
0000a0 9e 8a 91 bd e2 c4 4e be f3 a7 9d 3e df 85 eb be
       -0.07106517 -0.20192292 0.30792198 -0.46000573
0000b0 73 b6 34 bf 78 49 8e bf 98 2c e9 3c 24 92 98 bd
       -0.70590895 -1.1116171 0.028463647 -0.07449749
0000c0 a3 eb 4d bd bd ba 46 3e 5e 6b cb be c1 0c 08 3e
       -0.05027355 0.19407173 -0.39730352 0.13286115
0000d0 94 f0 00 bb db 3b 0b bf b1 0a a7 bd 38 1a 51 bd
       -0.0019674646 -0.5438821 -0.08156336 -0.051050395
0000e0 9e c0 11 3d de b4 6e bd 96 28 0a bd 81 89 c3 3d
       0.035584085 -0.058277957 -0.033730112 0.09547711
0000f0 3c d7 4c 3d 22 d0 49 3d 65 0d 02 be 98 8f a1 be
       0.05000995 0.049270757 -0.12700422 -0.31554866
000100 88 8c 07 3f 12 e9 98 be 0a ce 77 bc 59 3b 13 3e
       0.5294881 -0.2986532 -0.015124807 0.14378108
000110 56 be 7e 3b ba f8 6a bd e9 c1 6f 3c 7c da c5 bd
       0.0038870773 -0.05736611 0.014633634 -0.09660813
000120 70 4d 2b 3e c4 63 bf 3b a2 db c9 3c 4e 17 07 3e
       0.16728759 0.0058407504 0.024640862 0.13192484
000130 b9 90 b3 bc 05 7f b0 3c e3 1e f3 bd 07 e8 c0 bc
       -0.021919595 0.021544943 -0.118711255 -0.02354814
000140 27 97 ad 3e 6b ae b6 bd 3d d8 a2 3e b7 21 97 3d
       0.33904383 -0.08919986 0.31805602 0.073794775
000150 cc ee b2 bd 3e 02 5f be 8e 11 ea 3c c8 60 46 3d
       -0.08736953 -0.21778199 0.028572824 0.04843214
000160 38 f3 28 bf 60 43 49 3e bb 3a ae 3e 75 5e b1 3d
       -0.6599612 0.19654608 0.34029183 0.086605944
000170 db ea ba bf 9a 68 8b bd 46 a0 6d bd 20 0f 1b 3e
       -1.4602922 -0.068070605 -0.058014177 0.15142488
000180 f3 ee c7 3d f2 84 94 bd 63 c1 92 3d aa ac 20 bc
       0.09762373 -0.0725192 0.07165792 -0.009806791
000190 c6 48 41 be f6 6e 01 3c b9 57 c0 bd 32 1f 27 3e
       -0.18875417 0.00789999 -0.09391732 0.16320494
0001a0 b2 29 c8 bd dd 64 57 3d cb a2 52 3d 45 94 df 3d
       -0.09773578 0.052586425 0.051424783 0.10916952
0001b0 05 db 82 3d fe a1 c8 bd 75 39 17 3e 83 81 ee bc
       0.06389431 -0.097965226 0.14768012 -0.02911449
0001c0 70 93 9f be 30 ec 03 bf 2b ec e8 3e 8e 79 0d bf
       -0.31167173 -0.5153227 0.45492682 -0.552636
0001d0 1f 76 96 bd 09 cd b9 bc 45 6b 9e bc 1e 0b 06 be
       -0.073467486 -0.022680776 -0.01933826 -0.13090178
0001e0 f3 58 8b bd 28 07 f6 be 76 6d 73 bd df 60 9c bc
       -0.06804075 -0.48052335 -0.059430562 -0.01908916
0001f0 fe 82 3d bf d9 61 b5 be e8 67 a0 be be 4d c4 bd
       -0.74028003 -0.35426214 -0.31329274 -0.09585141
000200 4b 3d 2b 3b 62 bc ce 3d 69 9d e2 be db 5b 87 bc
       0.0026129063 0.10094525 -0.4426072 -0.016523292
000210 f4 47 18 3e ea 60 ae 3d 04 07 dd bc 86 51 96 bd
       0.14871198 0.08514579 -0.026980884 -0.07339768
000220 7b 39 3e bd 0d 12 16 be 27 b5 9c 3d 79 08 28 be
       -0.046441536 -0.14655323 0.076517396 -0.16409482
000230 ec d8 cd bc 5d b5 3a bd 23 bd 9a b9 a3 12 89 bc
       -0.02512785 -0.045583118 -0.00029514087 -0.01673252
000240 47 41 1c be 8a 29 6a bd 48 d3 c7 bc 00 26 76 3c
       -0.15259276 -0.05716852 -0.024392739 0.015023708
000250 35 07 9e bc c7 18 43 bd f5 2a 4f bd f0 6d ad 3c
       -0.019290546 -0.04763105 -0.050578076 0.021170586
000260 b2 04 8a bc a4 b2 95 bd c6 c4 44 bd 3a 3e 01 3e
       -0.016847942 -0.073094636 -0.04803922 0.12621394
000270 e3 3c 07 bd 6c 3b 78 be 1c e5 4e 3d ad fc a2 bc
       -0.03301705 -0.24241418 0.050511464 -0.019895876
000280 df 42 a3 3c 09 13 57 be 1e 66 99 bc 84 8c 0a 3e
       0.019929348 -0.21003355 -0.018725451 0.13530165
000290 e6 a4 af bd 68 37 dd bc 5a 64 56 bd 53 80 a6 be
       -0.08576374 -0.027003959 -0.052341796 -0.3251978
0002a0 05 39 db 3c 4b be 0e bd 79 a8 ca be 50 f2 79 be
       0.026760587 -0.034849446 -0.3958166 -0.24408841
0002b0 ff 30 c6 be c0 ef 71 3d 97 16 50 3c 28 86 06 3d
       -0.38709256 0.059066534 0.012700698 0.032842785
0002c0 53 94 33 3d 7a bf 61 3c da 13 b5 be 2e c8 96 3d
       0.043842625 0.013778562 -0.35366708 0.073624
0002d0 f8 fe 50 bc cf e0 9d be 2b 73 c2 bb d6 bf 37 3c
       -0.012756102 -0.30835578 -0.0059341392 0.011215171
0002e0 27 f9 37 bd 6a 12 77 bd c8 2e 2c bd 52 7f dd bc
       -0.044915345 -0.060320295 -0.0420368 -0.02703825
0002f0 3c ed 8f bc a0 a8 c5 3d bf 5e 1c 3d dc ea 39 be
       -0.017569177 0.09651303 0.038176294 -0.18155998
000300 b8 80 af 3d fa e9 a9 3d c1 95 97 3d c2 b8 4e bc
       0.08569473 0.082965806 0.0740161 -0.012617292
000310 df 40 75 bd 70 35 83 bd ee 48 5f 3d b6 41 63 3d
       -0.05987632 -0.06406677 0.05451291 0.05548259
000320 88 11 9f bd d1 8a 86 3d 8b 23 1d 3c bf 8e 33 3d
       -0.07767016 0.06569446 0.009590994 0.043837305
000330 e0 48 0b be 4f ca 20 bd 28 fc 02 be 75 a5 9d bc
       -0.13602018 -0.039255437 -0.12791502 -0.019243935
000340 f4 2a 03 be 26 e6 e2 3c 93 ab 99 3c 13 ce b1 3d
       -0.12809354 0.027697634 0.01875857 0.08681884
000350 00 fa a3 3d c7 d0 33 be 13 cf 6b bd 7a 8e d5 3d
       0.08006668 -0.17560111 -0.05757053 0.10427566
000360 53 88 6f be 8e 25 a3 3d 95 3e 7c 3b 18 17 67 3d
       -0.23391847 0.07966147 0.003848945 0.05641851
000370 f9 dd 0a bf 18 b8 00 bb c7 df 67 3d 64 74 b2 3d
       -0.54244953 -0.0019640978 0.056609895 0.08713606
000380 23 23 c8 3d 61 6e c8 3c b8 e2 f3 bc e5 0a 91 3d
       0.09772327 0.024466695 -0.029771194 0.07082156
000390 33 5f 63 be 57 b9 6f bd 08 c0 89 bd d7 c7 ad 3d
       -0.22204284 -0.058526363 -0.0672608 0.08485382
0003a0 de a3 63 3c 6d 6d 11 bd 61 27 88 bd a6 8f 81 bc
       0.013894049 -0.035504747 -0.06648136 -0.015815567
0003b0 01 85 6b bd b0 1b 1d 3d 5c a9 6f 3c 9d 5f c4 3d
       -0.05749989 0.038356483 0.014627781 0.09588549
0003c0 28 c5 96 be 7f 4f 67 be e1 b9 88 bd 60 eb d2 3d
       -0.29447293 -0.22588919 -0.066760786 0.102988005
0003d0 85 4d 80 bd c5 0f 71 3d 36 20 99 bc 60 57 d0 bd
       -0.06264786 0.05885293 -0.018692117 -0.101729155
0003e0 b6 a0 fd 3c fe e9 7c be c0 b7 75 bc 22 36 34 bd
       0.030960422 -0.24698636 -0.014997423 -0.043996938
0003f0 19 06 12 bf b7 c1 2b be 13 ec c5 3d 6f f2 b4 3d
       -0.57040554 -0.16773115 0.09664168 0.08835303

layers.1.bias f4 [6]
000000 77 0b 2b bf 7c f6 c5 bd 00 00 00 00 00 00 00 00
       -0.6681437 -0.09666154 0.0 0.0
000010 00 00 00 00 00 00 00 00
       0.0 0.0
