RL4E2E/results/pptod/2.1k1/episode_500/actor.pt (torch, 20755 bytes, 4 tensors)

layers.0.weight f4 [128, 30]
0.06679308 0.56818074 0.0929521 -0.4027272 0.024589172 -0.33863997 -0.11845291 0.23004295
-0.07233254 -0.35898897 0.06986138 0.58264685 0.12961896 0.105137184 -0.28403014 -0.42504296
0.023648968 0.3725748 0.05000059 -0.33550245 0.0050236117 0.3468501 0.12097715 0.20332536
-0.25820097 -0.290366 -0.24693045 -0.05917638 -0.22471786 -0.22497192 -0.262445 -0.43734396
-0.18399273 0.20226043 -0.21421243 -0.12623517 -0.1418376 0.02375033 -0.033957727 0.035470746
-0.14459395 -0.23907171 0.03335137 0.4123731 0.21099477 0.017204517 -0.2079005 -0.12395954
0.010419074 -0.42050678 0.38222018 0.01656742 0.20555897 0.041015092 0.04940207 -0.2192602
0.14416705 -0.2895141 -0.04766929 -0.09000719 -0.25808924 0.8534233 0.67874354 -0.6367341
0.14180498 -0.35671452 -0.38636386 -0.029589994 -0.49996832 0.11843413 -0.015221325 1.0042877
0.2897104 0.11396617 -0.40598458 0.655784 -0.5005364 0.23750728 -0.3166615 0.2609553
0.13776341 0.2563931 -0.4747019 0.5296023 -0.32827136 -0.67219996 0.18624747 -0.21023469
-0.63095784 -0.5007936 0.07062972 -0.76467216 0.07538899 -0.14800139 -0.025430445 -0.27973533
0.44085783 0.6142612 0.15636218 -0.3237463 -0.15946516 0.10966721 -0.014668227 0.04706356
0.13154852 0.36941713 -0.876836 -0.10162341 -0.08806775 -0.29646534 0.64494497 0.38386762
-0.3155578 0.4353003 -0.20988798 -0.06658001 -0.017111395 -0.3381719 0.0825419 0.22701648
0.43172657 -0.028943226 0.053741887 0.020246668 0.33793598 -0.1887791 -0.24170329 0.38954535
0.12139947 -0.3139112 -0.028039938 0.13287696 -0.14067408 -0.6623403 0.03344558 0.11275836
-0.20412385 0.17728604 -0.026828906 0.22839895 0.019228483 0.0060253846 0.05902121 -0.25197932
-0.1923393 -0.031061461 -0.19088988 0.073781595 -0.23097984 -0.010944097 -0.28405637 -0.08247851
-0.27009752 -0.0077169756 0.3436825 -0.18825813 -0.017866679 -0.3932053 0.22476885 -0.14803098
0.013467286 0.5260619 -0.032904703 -0.17037077 0.33597207 0.09062594 -0.0831776 -0.3965555
-0.35951832 -0.12845278 -0.08912557 0.19085166 0.28528383 0.18390277 -0.11141569 0.27063656
-0.39101452 -0.4774202 0.3149446 -0.13841537 0.009135448 0.66733646 -1.3971796 0.018958092
-0.32675612 0.58156896 -0.06609906 -0.45611906 0.5286652 0.59650064 -0.06570466 -0.042384647
0.7689823 0.03674253 0.2656321 0.14748964 0.24039619 0.2956258 -0.040098596 0.5881961
0.17366368 0.2426845 0.41397518 0.22238328 0.47049823 0.294422 0.5466802 0.65995246
0.88514006 0.5251281 0.0006642052 0.05060392 0.035293456 -0.36704412 -0.28643975 0.03818798
0.062208697 0.038145717 -0.45343125 0.2411117 -0.2671376 0.16851145 -0.24813585 -0.42502385
-0.08270423 -0.00035302987 -0.5675349 0.10805168 0.033349127 0.13941126 -0.35298178 -0.3416213
-0.007499975 -0.26354304 -0.12880626 -0.1489265 0.02009176 -0.15128025 -0.29277977 -0.15072635
-0.03141295 -0.1984002 -0.07545208 -0.10967536 -0.20972703 -0.121452734 0.332668 -0.39137924
0.19237065 -0.016007371 0.10730694 0.13755663 0.07734604 0.12436489 -0.19520706 -0.07003375
00000000: cfca 883d 4b74 113f ac5d be3d 4232 cebe
00000010: 3b6f c93c 3862 adbe 7097 f2bd 6190 6b3e
00000020: 1523 94bd 67cd b7be 7c13 8f3d 5828 153f
00000030: d5ba 043e 2a52 d73d 666c 91be 3b9f d9be
00000040: 7bbb c13c 20c2 be3e 6bcd 4c3d fac6 abbe
00000050: 1c9d a43b 5696 b13e dec2 f73d 8634 503e
00000060: eb32 84be daaa 94be 56db 7cbe ef62 72bd
00000070: 701c 66be 0a5f 66be 315f 86be 8ceb dfbe
00000080: 9768 3cbe 5c1d 4f3e 815a 5bbe cb43 01be
00000090: e03d 11be 0d90 c23c 4217 0bbd c649 113d
000000a0: 7010 14be 37cf 74be 729b 083d 9122 d33e
000000b0: 030f 583e 7df0 8c3c dee3 54be 80de fdbd
000000c0: c4b4 2a3c aa4c d7be 5db2 c33e 66b8 873c
000000d0: 0d7e 523e 71ff 273d d359 4a3d bf85 60be
000000e0: 87a0 133e 313b 94be e040 43bd b155 b8bd
000000f0: 4624 84be f379 5a3f 23c2 2d3f 0201 23bf
00000100: 5335 113e 49a3 b6be 7cd1 c5be b766 f2bc
00000110: d9fb ffbe 988d f23d dd62 79bc 808c 803f
00000120: ec54 943e 1867 e93d 36dd cfbe 76e1 273f
00000130: 2723 00bf 1c35 733e 7521 a2be ef9b 853e
00000140: da11 0d3e f545 833e 210c f3be 0494 073f
00000150: 2f13 a8be 4c15 2cbf a8b7 3e3e c347 57be
00000160: 7486 21bf 0234 00bf 51a6 903d 8ec1 43bf
00000170: 8b65 9a3d ad8d 17be 8253 d0bc 7839 8fbe
00000180: 1eb8 e13e 3940 1d3f 681d 203e 13c2 a5be
00000190: d64a 23be 3499 e03d 0153 70bc b8c5 403d
000001a0: a8b4 063e 3e24 bd3e 5378 60bf ef1f d0bd
000001b0: dd5c b4bd 4eca 97be 1d1b 253f 4c8a c43e
000001c0: cb90 a1be aedf de3e e0ec 56be 1a5b 88bd
000001d0: 322d 8cbc de24 adbe ba0b a93d 0277 683e
000001e0: 440b dd3e 581a edbc 7420 5c3d 57dc a53c
000001f0: f205 ad3e 4f4f 41be 1181 77be 7d72 c73e
00000200: 49a0 f83d f8b8 a0be 03b4 e5bc e610 083e
00000210: de0c 10be 228f 29bf 3cfe 083d dbed e63d
00000220: d805 51be 798a 353e 4bc8 dbbc 6ae1 693e
00000230: 0d85 9d3c 9770 c53b 39c0 713d 6f03 81be
00000240: 98f4 44be 9b74 febc a378 43be ce1a 973d
00000250: fb85 6cbe df4e 33bc d66f 91be 7eea a8bd
00000260: 394a 8abe afde fcbb 27f7 af3e bdc6 40be
00000270: 245d 92bc 3552 c9be ce29 663e 6f95 17be
00000280: e4a5 5c3c feab 063f 15c7 06bd ad75 2ebe
00000290: 8804 ac3e 189a b93d 0459 aabd 5309 cbbe
000002a0: c912 b8be 2089 03be 7887 b6bd 9e6e 433e
000002b0: b910 923e 0251 3c3e e92d e4bd e090 8a3e
000002c0: 0e33 c8be 6c70 f4be 6b40 a13e c2bc 0dbe
000002d0: d9ac 153c 90d6 2a3f c8d6 b2bf 004e 9b3c
000002e0: 944c a7be b4e1 143f f25e 87bd 7088 e9be
000002f0: 9a56 073f 44b4 183f 2a90 86bd 869b 2dbd
00000300: 06dc 443f 567f 163d ee00 883e 8607 173e
00000310: 6b2a 763e 445c 973e 6d3e 24bd 0594 163f
00000320: e4d4 313e 4982 783e 8ef4 d33e 71b8 633e
00000330: 25e5 f03e 7bbe 963e 3cf3 0b3f a5f2 283f
00000340: 8a98 623f cc6e 063f 0e1e 2e3a 0e46 4f3d
00000350: df8f 103d 35ed bbbe 3ba8 92be 006b 1c3d
00000360: 8cce 7e3d af3e 1c3d 2428 e8be fce5 763e
00000370: 42c6 88be 448e 2c3e 5317 7ebe ba9c d9be
00000380: d660 a9bd de16 b9b9 f849 11bf 334a dd3d
00000390: 1899 083d d3c1 0e3e 07ba b4be fde8 aebe
000003a0: 5ac2 f5bb 1def 86be cae5 03be 3080 18be
000003b0: 7a97 a43c 36e9 1abe 3be7 95be 0258 1abe
000003c0: deaa 00bd 6c29 4bbe 9f86 9abd 7a9d e0bd
000003d0: afc2 56be 36bc f8bd 7653 aa3e dc62 c8be
000003e0: d0fc 443e e421 83bc bec3 db3d a5db 0c3e
000003f0: 9a67 9e3d 05b3 fe3d 5ce4 47be db6d 8fbd

layers.0.bias f4 [128]
1.5979501 0.0 0.93025476 1.6354848 1.2669907 0.0 1.6852033 2.0438933
0.0 -1.7818934 1.5074968 0.061385937 1.4720638 0.9338716 -0.043200575 1.2789602
-1.746622 1.4247034 0.0 1.5326566 1.8964972 -1.6770661 1.7792059 1.6597067
1.3993258 1.6298956 1.4909871 1.1476873 -1.7036356 -1.7211044 1.8092715 1.4950501
0.0 0.0 0.0 1.098591 -1.7584369 1.3245562 0.0 1.3832654
-1.7124342 1.3596834 1.543043 -1.791835 0.0 -1.6207224 0.92030674 0.0
1.6149249 1.271409 1.2796444 0.0 0.67980516 0.25320256 1.3250087 1.4293659
-0.038974807 -0.06643682 1.5314658 -1.6900016 0.8090107 1.6217216 0.056199487 -1.8851207
1.511476 1.6519296 1.3729824 1.4849529 1.5285248 0.09406542 1.787841 1.2971461
1.646901 1.5910077 -1.4982705 1.8825676 0.15119115 1.6083852 1.8896742 1.5295765
1.6694293 -2.0208633 1.5311421 -0.02721571 -1.6558647 1.9697709 0.0 0.0
0.0 1.2413936 -1.8146544 1.2715894 -1.7774794 2.009576 -1.7079976 1.559632
1.3059918 -1.7918004 1.3297038 1.38883 0.0 1.3888037 1.5857999 -1.6268562
-0.022080071 1.1141388 -1.3853533 1.7300928 1.4086835 -2.015237 1.3888937 1.4784145
-1.8867719 -1.9244839 1.3458415 -1.8222929 0.0 1.4865786 1.8167373 -0.015869807
1.7263732 1.4328084 1.3781397 1.5216577 0.0 1.6452631 0.7607318 1.7725661
00000000: a189 cc3f 0000 0000 2d25 6e3f 9157 d13f
00000010: c02c a23f 0000 0000 beb4 d73f 26cf 0240
00000020: 0000 0000 1515 e4bf a8f5 c03f d26f 7b3d
00000030: 966c bc3f 3612 6f3f 16f3 30bd f8b4 a33f
00000040: 4f91 dfbf ae5c b63f 0000 0000 172e c43f
00000050: 6cc0 f23f 1aaa d6bf 05bd e33f 4571 d43f
00000060: 1c1d b33f 6ba0 d03f aad8 be3f 6be7 923f
00000070: bb10 dabf 264d dcbf 3596 e73f cd5d bf3f
00000080: 0000 0000 0000 0000 0000 0000 a19e 8c3f
00000090: 7614 e1bf 0f8b a93f 0000 0000 d70e b13f
000000a0: 0b31 dbbf 1b0a ae3f 6f82 c53f d95a e5bf
000000b0: 0000 0000 d573 cfbf 3999 6b3f 0000 0000
000000c0: dcb5 ce3f 88bd a23f 63cb a33f 0000 0000
000000d0: b607 2e3f c4a3 813e e399 a93f 76f5 b63f
000000e0: 0ca4 1fbd 0710 88bd 1207 c43f f951 d8bf
000000f0: 531b 4f3f 9394 cf3f 6f31 663d a34b f1bf
00000100: 0c78 c13f 6e72 d33f e3bd af3f f012 be3f
00000110: b3a6 c33f 5fa5 c03d f9d7 e43f e208 a63f
00000120: a7cd d23f 24a6 cb3f 54c7 bfbf faf7 f03f
00000130: dad1 1a3e 91df cd3f d8e0 f13f 2ac9 c33f
00000140: dcaf d53f d355 01c0 77fc c33f 7bf3 debc
00000150: 60f3 d3bf 7421 fc3f 0000 0000 0000 0000
00000160: 0000 0000 fce5 9e3f 9846 e8bf 71c3 a23f
00000170: 7284 e3bf e59c 0040 aa9f dabf 05a2 c73f
00000180: bd2a a73f b759 e5bf bc33 aa3f 2ec5 b13f
00000190: 0000 0000 52c4 b13f 7efb ca3f d33c d0bf
000001a0: 44e1 b4bc 1a9c 8e3f 4253 b1bf ae73 dd3f
000001b0: be4f b43f a5f9 00c0 45c7 b13f b03c bd3f
000001c0: be81 f1bf 7d55 f6bf 8944 ac3f e540 e9bf
000001d0: 0000 0000 3548 be3f d98a e83f 6601 82bc
000001e0: ccf9 dc3f 4466 b73f e266 b03f aec5 c23f
000001f0: 0000 0000 fb97 d23f 52bf 423f 72e3 e23f

layers.1.weight f4 [6, 128]
-0.27540302 -0.005184233 -0.6277787 -0.97781587 -0.147579 -0.05035052 -1.1181725 -0.753792
-0.07363038 0.23866951 -0.0923164 0.6843634 -0.25554276 -0.3295649 -0.013226867 -0.14884959
0.15213697 -0.36348084 0.017324738 -0.5343582 -0.7446113 0.11322321 -0.6010356 -0.8127421
-0.17742123 -0.4089802 -0.27430472 -0.36333197 0.19013779 0.052833963 -0.43774736 -0.5552454
0.03647419 -0.070882246 -0.0707962 -0.28960273 0.21707334 -0.10371088 -0.013284184 -0.12677573
0.21271358 -0.13245812 -0.12615043 0.24106035 -0.036765676 0.20289393 -0.48829153 -0.030315131
-0.13733357 -0.10127242 -0.4960923 -0.0670162 -0.62192863 0.80733216 -0.67629427 -0.3806769
-0.0042624986 0.012767089 -0.2477192 0.3196974 -0.6727884 -0.39355335 0.7772676 0.2108585
-0.28917828 -0.63813716 -0.123251855 -0.25182882 -0.43764398 0.39768124 -0.6625598 -0.684273
-0.48515517 -0.3179342 0.106316976 -0.5464306 0.7246833 -0.4229312 -1.0275239 -0.32617235
-0.19494444 0.45006198 -0.42674816 0.053384837 0.15401755 -0.7936956 -0.03605591 0.06059847
0.0128624365 -0.45008725 0.34113246 -0.17124131 0.26642054 -0.07689201 0.18306065 -0.28333804
-0.15337162 0.31838018 -0.61536366 -0.49423185 -0.020708568 -0.14667085 -0.18714654 0.11578444
0.023538634 -0.3610759 0.97334844 -0.08997903 -0.04547297 0.3342585 -0.6350263 -0.27558622
0.30881166 0.36178213 -0.18162611 0.3443679 0.046040468 -0.6829033 -1.417359 0.05204075
-0.47234204 -0.3062014 -0.17260873 -0.442518 0.004157141 -0.50004095 -0.35252354 -0.5867748
-0.03798895 -0.048149012 -0.077488236 0.20070712 -0.009280586 0.07111714 -0.6437773 -0.33815703
-0.002744466 0.035586104 0.0041808593 0.01669643 -0.26528803 -0.5051048 0.040092565 0.023092195
-0.07902551 -0.37010124 0.0558405 -0.11048979 -0.50874853 0.0018210196 -0.29459238 0.18455943
-0.0961934 -0.19177118 -0.017232865 0.024758205 0.047587145 -0.10579375 -0.3753886 -0.133342
-0.043640584 0.020875521 -0.020180553 0.07779769 -0.0009785594 -0.007933641 -0.032525975 0.016736995
0.092581876 0.02012892 -0.020883948 -0.02333162 0.011954598 -0.054843478 0.02757568 0.01237715
-0.12487344 -0.08372592 -0.46292934 -0.07821996 -0.03435127 -0.03341632 -0.46264067 -0.26142973
-0.066337615 -0.011975914 -0.058299545 0.06060073 0.02134838 -0.10976167 -0.07812941 0.06355556
-0.42287877 -0.6549197 -0.031793877 0.0002141364 -0.30482203 0.023965612 -0.4622747 -0.61820763
-0.3754838 -0.44901064 -0.046203557 -0.26045406 0.06724086 -0.26315188 -0.5626214 -0.13350949
-0.022451533 -0.068360925 -0.07662462 0.0065835044 0.06710729 -0.6422409 0.027550943 0.06568865
0.050501443 -0.09192386 -0.015614899 0.06965288 -0.10624639 -0.039445367 -0.011507146 -0.51183945
0.05600639 -0.032789573 -0.80054086 -0.11173979 -0.024368085 -0.02985105 -0.026229588 0.05185033
0.0011937171 -0.16537006 -0.119362324 -0.07129811 -0.09461682 0.04266679 -0.64531505 -0.08299086
-0.029168319 -0.035469417 -0.008526627 -0.04274995 0.08564096 -0.6430758 -0.052490965 0.0007520914
-0.5528138 -0.33926255 -0.11647482 -0.3903638 0.01398097 -0.4313836 -0.039581854 -0.24274372
00000000: a001 8dbe 80e0 a9bb 1bb6 20bf 2452 7abf
00000010: f31e 17be 593c 4ebd 4720 8fbf 83f8 40bf
00000020: 86cb 96bd c865 743e 6110 bdbd 7132 2f3f
00000030: 80d6 82be bbbc a8be 80b5 58bc 076c 18be
00000040: cbc9 1b3e 291a babe 9cec 8d3c b3cb 08bf
00000050: d99e 3ebf 92e1 e73d 78dd 19bf de0f 50bf
00000060: e9ad 35be da65 d1be ab71 8cbe a606 babe
00000070: 7bb3 423e 6d68 583d 6c20 e0be 9024 0ebf
00000080: f665 153d b62a 91bd 99fd 90bd cf46 94be
00000090: 7948 5e3e 5f66 d4bd e8a5 59bc 7fd1 01be
000000a0: 97d1 593e 1aa3 07be 942d 01be 86d8 763e
000000b0: 9b97 16bd 6dc3 4f3e 5901 fabe 7057 f8bc
000000c0: 2ca1 0cbe ea67 cfbd cfff fdbe ca3f 89bd
000000d0: b736 1fbf 52ad 4e3f 9f21 2dbf 15e8 c2be
000000e0: 6eac 8bbb 0d2d 513c 1aaa 7dbe 61af a33e
000000f0: dc3b 2cbf d37f c9be 02fb 463f 4aeb 573e
00000100: 2d0f 94be f55c 23bf 786b fcbd b5ef 80be
00000110: df12 e0be e09c cb3e 859d 29bf 842c 2fbf
00000120: 4266 f8be 45c8 a2be b7bc d93d e0e2 0bbf
00000130: d884 393f 708a d8be e785 83bf 1000 a7be
00000140: 849f 47be 866e e63e bc7e dabe 0faa 5a3d
00000150: c7b6 1d3e a32f 4bbf 5daf 13bd 1a36 783d
00000160: f8bc 523c d671 e6be eaa8 ae3e e259 2fbe
00000170: 4668 883e 8f79 9dbd 4074 3b3e af11 91be
00000180: 730d 1dbe ba02 a33e 7988 1dbf f50b fdbe
00000190: 04a5 a9bc e230 16be 58a3 3fbe 6420 ed3d
000001a0: 18d4 c03c f1de b8be 5d2d 793f ed46 b8bd
000001b0: dd41 3abd ee23 ab3e 1591 22bf a319 8dbe
000001c0: 901c 9e3e 823b b93e 32fc 39be fd50 b03e
000001d0: ee94 3c3d c0d2 2ebf 056c b5bf ae28 553d
000001e0: d1d6 f1be 6ec6 9cbe 58c0 30be b891 e2be
000001f0: a038 883b af02 00bf f77d b4be e036 16bf
00000200: 4d9a 1bbd e637 45bd 27b2 9ebd 2b86 4d3e
00000210: 990d 18bc dda5 913d 97ce 24bf eb22 adbe
00000220: 80dc 33bb bcc2 113d 97ff 883b f4c6 883c
00000230: d5d3 87be 8c4e 01bf 1a38 243d d82b bd3c
00000240: 20d8 a1bd e97d bdbe 02b9 643d 7948 e2bd
00000250: 583d 02bf 47af ee3a d0d4 96be 26fd 3c3e
00000260: 0c01 c5bd aa5f 44be f02b 8dbc b8d1 ca3c
00000270: bdea 423d 65aa d8bd ef32 c0be ce8a 08be
00000280: 78c0 32bd 2403 ab3c b051 a5bc 6554 9f3d
00000290: 0143 80ba 1afc 01bc f539 05bd 061c 893c
000002a0: 919b bd3d 68e5 a43c d014 abbc f421 bfbc
000002b0: 38dd 433c 8ea3 60bd 64e6 e13c 88c9 4a3c
000002c0: a5bd ffbd 7f78 abbd 1305 edbe c931 a0bd
000002d0: ebb3 0cbd 8ddf 08bd 3ddf ecbe 1eda 85be
000002e0: 04dc 87bd a036 44bc 81cb 6ebd 7938 783d
000002f0: cce2 ae3c baca e0bd 5002 a0bd 6b29 823d
00000300: 9183 d8be d1a8 27bf 4c3a 02bd cd89 6039
00000310: a211 9cbe 8853 c43c 45af ecbe db42 1ebf
00000320: 6a3f c0be b9e4 e5be f13f 3dbd 3c5a 85be
00000330: 93b5 893d d8bb 86be f507 10bf b6b6 08be
00000340: 47ec b7bc d000 8cbd 5eed 9cbd 70ba d73b
00000350: 8c6f 893d e669 24bf 84b2 e13c c587 863d
00000360: 9ada 4e3d 9442 bcbd a2d5 7fbc 2ba6 8e3d
00000370: b597 d9bd 7791 21bd 7888 3cbc e907 03bf
00000380: f566 653d 5c4e 06bd 3ff0 4cbf d5d7 e4bd
00000390: 949f c7bc 308a f4bc 6fdf d6bc 0361 543d
000003a0: 8076 9c3a c556 29be 3c74 f4bd be04 92bd
000003b0: 77c6 c1bd 5fc3 2e3d 5e33 25bf 1df7 a9bd
000003c0: 66f2 eebc 6148 11bd 44b3 0bbc 921a 2fbd
000003d0: 8764 af3d 9ea0 24bf c400 57bd 0028 453a
000003e0: 3585 0dbf d2b3 adbe 5a8a eebd c4dd c7be
000003f0: 7010 653c 50de dcbe 9520 22bd cf91 78be

layers.1.bias f4 [6]
-1.2012146 -0.24050735 0.0 0.0 0.0 0.0
00000000: 66c1 99bf 8f47 76be 0000 0000 0000 0000
00000010: 0000 0000 0000 0000
