RL4E2E/results/pptod/2.1k1/episode_500/actor_param.pt (torch, 18853 bytes, 6 tensors)

layers.0.weight f4 [128, 3]
0	0x3e5b0b73	0.21391086
1	0xbd9b7c3d	-0.07592056
2	0x3fd8b930	1.6931515
3	0x3eb22071	0.34790376
4	0x3f72b858	0.94812536
5	0x3f252c9e	0.64521205
6	0x3d5de939	0.054177497
7	0xbeab2018	-0.33422923
8	0xbf8bef18	-1.0932341
9	0x3fbc90a8	1.4731646
10	0xbf8c52fa	-1.0962822
11	0xbe899579	-0.2687185
12	0xc0088c74	-2.1335726
13	0xbe9e67c8	-0.30938554
14	0xbef17753	-0.4716135
15	0x3e317958	0.17331445
16	0x3ebdf992	0.3710447
17	0xbf684a21	-0.9073811
18	0xbf01ce96	-0.5070585
19	0xbf4b7747	-0.7947888
20	0x3eb5b17a	0.35486966
21	0x3f6b0799	0.9180847
22	0xbf81fb16	-1.015475
23	0x3f63025e	0.8867549
24	0xbf64c5b6	-0.8936418
25	0x3f592488	0.8482137
26	0x3f0b45b2	0.5440322
27	0x3e8705ca	0.26371604
28	0x3e1e316f	0.15448545
29	0xbe5f8d8d	-0.21831341
30	0xbeaf4445	-0.34231773
31	0xbf38fcf3	-0.7226097
32	0x3e14b166	0.14520797
33	0x3f48ed7b	0.78487366
34	0x3f0925ec	0.5357349
35	0x3e1c4ca7	0.15263616
36	0x3f881a5d	1.0633045
37	0xbfc4c893	-1.537371
38	0x3f58b8f0	0.8465719
39	0x401d08c3	2.4536598
40	0x3e4f6138	0.2025193
41	0x3dc89838	0.097946584
42	0x3f8a8b97	1.082385
43	0x3f2589e9	0.6466356
44	0xbf97749f	-1.1832465
45	0xbe9e7c51	-0.3095422
46	0x3e0bf626	0.13668117
47	0x3f0e4ea9	0.55588776
48	0x3fcf203d	1.6181713
49	0x3de69f28	0.112608254
50	0xbe44c217	-0.19214664
51	0x3fb05d4c	1.3778472
52	0x3f073fba	0.52831614
53	0x3f55c2ac	0.8350017
54	0xbf31a93d	-0.6939886
55	0x3f9f8285	1.2461706
56	0x3f94138c	1.1568465
57	0x3f375733	0.7161743
58	0xbe15320e	-0.14569876
59	0x3b016f27	0.001975009
60	0x3e4eb610	0.20186639
61	0xbeab2ee7	-0.3343422
62	0xbfe2538a	-1.7681744
63	0xbef8fd13	-0.4863058
64	0x3f0e92d2	0.5569278
65	0x3ef4d8f3	0.4782177
66	0xbeef0ddb	-0.46690258
67	0xbf2b61d4	-0.6694615
68	0xbf0458bc	-0.516979
69	0x3d7d9710	0.061911643
70	0x3d2b671f	0.04184639
71	0x3f2069a1	0.62661177
72	0x3f4f761a	0.81039584
73	0x3f4ea59e	0.8072146
74	0x3f32cd44	0.6984446
75	0xbe340a23	-0.17581992
76	0x3f1944ff	0.59870905
77	0xbec3b58a	-0.3822444
78	0xbee4174d	-0.44549027
79	0xbf127ece	-0.5722474
80	0x3fb720fd	1.4306942
81	0xbf235118	-0.63795614
82	0x3fac44ca	1.3458493
83	0x3f7b9752	0.9827777
84	0x3dc4dd0e	0.09612475
85	0x3ea70861	0.3262358
86	0xbe8ab4eb	-0.27091154
87	0x3f1527d5	0.58263904
88	0x3f480831	0.781375
89	0x3faff839	1.3747627
90	0x3ceaf94a	0.028683323
91	0xbe7fcdff	-0.24980925
92	0xbcd76d4e	-0.026297238
93	0x3f2ceeb6	0.67551744
94	0xbf2d5c2c	-0.6771877
95	0xbf6dd2e3	-0.9289991
96	0x3f5814fc	0.8440702
97	0xbd1707ad	-0.036872555
98	0xbfb772a2	-1.4331858
99	0xbf72b4b8	-0.94807005
100	0x3f9629e3	1.1731533
101	0xbe7d49c5	-0.24735172
102	0xbcb144fd	-0.021639341
103	0x3f1c9b90	0.6117487
104	0x3f299eff	0.66258234
105	0xbee02542	-0.43778425
106	0x3f1c3e82	0.6103288
107	0xbe69673c	-0.22793287
108	0xbef919fe	-0.48652643
109	0x3f363386	0.7117237
110	0x3ebebd00	0.3725357
111	0xbe34a0d8	-0.17639482
112	0xbf89f2c7	-1.0777215
113	0xbf959f77	-1.168929
114	0x4013b489	2.307894
115	0xbe075e21	-0.13219501
116	0x3f7943a2	0.97368824
117	0xbf3725ef	-0.7154226
118	0xbf70333c	-0.9382818
119	0xbe71615a	-0.23572293
120	0xbedb7742	-0.42864424
121	0x3f614cac	0.88007617
122	0x400701e5	2.1094906
123	0xbedcbc09	-0.4311221
124	0xbfdaecd0	-1.710352
125	0x3fc2b62d	1.5211846
126	0x3f79d0e2	0.97584355
127	0xbecd3f0d	-0.40087166
128	0x3d018615	0.03162201
129	0x3f759606	0.9593204
130	0x3f9fcb56	1.2483928
131	0x3f0abc1b	0.54193276
132	0x3f454a42	0.77066433
133	0xbea2576f	-0.31707332
134	0x3f97c50a	1.1857007
135	0x3f19eb13	0.6012432
136	0xbdd56b97	-0.10420912
137	0xbf5b5eea	-0.856917
138	0x3d9b0b3f	0.075705044
139	0x3e94bd22	0.29050547
140	0xbf4609e0	-0.7735882
141	0xbf5a3dfe	-0.8525084
142	0xbf0f9519	-0.5608688
143	0xbf8f462c	-1.119329
144	0x3f997bca	1.1990902
145	0xbe08fa5c	-0.13376755
146	0x3d1113c2	0.035419233
147	0xbfa4ef70	-1.288557
148	0x3f8fd30c	1.1236281
149	0x3ed1de6f	0.40990016
150	0x3edbf122	0.42957407
151	0x3f8ea956	1.1145427
152	0xbdb76148	-0.08954102
153	0x3ebe05f0	0.37113905
154	0xbf494846	-0.78625906
155	0x3f150be7	0.58221287
156	0x3ecc0547	0.39847776
157	0xbf3c0789	-0.73449
158	0x3f494698	0.7862334
159	0x3e86b62d	0.26310864
160	0x3f4971cc	0.78689265
161	0x3ef5fc81	0.48044208
162	0xbcfbd62f	-0.03074178
163	0x3f296a0a	0.6617743
164	0xbf0ea16d	-0.55715066
165	0x3d609163	0.05482615
166	0x3f1626fd	0.5865324
167	0x3c951f6f	0.018203465
168	0xbfa7f7e9	-1.3122531
169	0xbe0fb226	-0.14032802
170	0x3f91572a	1.1354725
171	0xbf4a2813	-0.789674
172	0xbebe17ae	-0.3712744
173	0xbf16653c	-0.5874822
174	0xbe7bdf4b	-0.24596898
175	0xbf01cffb	-0.5070798
176	0xbfbe6b46	-1.4876487
177	0x3f45e61d	0.7730425
178	0x3f6e0481	0.9297562
179	0x3ea5d0a5	0.32385746
180	0x3ecf9a78	0.40547538
181	0x3dbcc17a	0.0921659
182	0xbdd1eb0d	-0.102499105
183	0x3ec12615	0.37724367
184	0xbfb263b6	-1.3936679
185	0x3e012d69	0.12614979
186	0x3e309182	0.17243007
187	0x3ed9f991	0.42573217
188	0x3f4abd5d	0.79195195
189	0x3edfac0a	0.43685943
190	0xbe8e611d	-0.27808467
191	0x3e3dac95	0.18522866
192	0x3f69c877	0.9132151
193	0x3bae4a61	0.0053189253
194	0xbf6c8667	-0.9239258
195	0x3e96ea10	0.2947545
196	0x3e892c9e	0.26791853
197	0x3f13d78b	0.5775077
198	0xbf7b27a5	-0.9810737
199	0xbf273106	-0.6530918
200	0x3dd05046	0.10171561
201	0x3ca347f4	0.01993177
202	0x3ecaf8f4	0.3964306
203	0xbf022596	-0.508386
204	0xbdc070cd	-0.09396515
205	0x3f978c04	1.1839604
206	0x3f8fce52	1.1234839
207	0x3dc7000a	0.09716804
208	0x3ea5edd8	0.32408023
209	0xbfeeec1f	-1.8665808
210	0x3f7ef2c3	0.99589175
211	0xbed623ba	-0.41824132
212	0xbeb2aad5	-0.3489596
213	0xbedbfa6f	-0.42964503
214	0xbf78ff70	-0.97264767
215	0xbfe90680	-1.8205109
216	0x3f9719ae	1.1804712
217	0xbf8effec	-1.1171851
218	0x3ea47fa9	0.32128647
219	0xbd25ed20	-0.040509343
220	0xbfdf9ad8	-1.746913
221	0xbf864749	-1.0490505
222	0x3f5ef92b	0.8709895
223	0x3d86196b	0.06547817
224	0xbf357fd4	-0.70898175
225	0xbe82b48b	-0.25528368
226	0x3f138391	0.5762263
227	0x3f92ba59	1.1463119
228	0xbf7b61e7	-0.9819626
229	0x3e77dcd2	0.2420533
230	0x3e08b518	0.13350332
231	0x3deacdba	0.114650205
232	0xbff29898	-1.8952818
233	0xbece8d69	-0.40342262
234	0x3d352328	0.04422298
235	0xbf9a5026	-1.2055709
236	0x3e9449d7	0.28962585
237	0x3f1bb4e7	0.6082291
238	0x3f8c53c0	1.0963058
239	0xbf2291a8	-0.63503504
240	0xbd364f75	-0.04450937
241	0x3f79bb15	0.9755109
242	0x3e785cca	0.24254146
243	0x3e9c680b	0.30548128
244	0xbf785f4d	-0.9702042
245	0xbeb82489	-0.35965374
246	0x3f91a315	1.1377894
247	0x3fd9316f	1.6968211
248	0xbf18586e	-0.59509933
249	0xbf9f0eaf	-1.2426356
250	0xbee8dc3b	-0.45480523
251	0x3ee2c5b9	0.44291475
252	0xbf9a9c6f	-1.207899
253	0xbef99319	-0.4874504
254	0xbf22f261	-0.6365109
255	0x3f380226	0.7187828

layers.0.bias f4 [128]
0	0x3e120024	0.14257866
1	0x3e0b8398	0.13624418
2	0xbde27474	-0.11057368
3	0xbddf5252	-0.10904373
4	0x00000000	0.0
5	0xbdf02c01	-0.11727143
6	0x3ccc1fd7	0.024917526
7	0xbc3b6215	-0.011436959
8	0x3c1b1c4a	0.009467194
9	0xbd69c93e	-0.057076685
10	0x3cb13abf	0.021634458
11	0x3db2fd93	0.08739772
12	0xbd65bdfd	-0.05608939
13	0x3c997564	0.018732734
14	0xbd51a500	-0.051182747
15	0x3b375b53	0.0027978017
16	0x3ca2a612	0.01985458
17	0x3dce2264	0.10065153
18	0x3cb234fe	0.021753784
19	0xbcbb180a	-0.022838611
20	0xbe1dd0e0	-0.1541171
21	0xbca7059d	-0.020388419
22	0x00000000	0.0
23	0x3e1c6aab	0.15275066
24	0x3de88649	0.11353738
25	0x3d76f636	0.0602934
26	0x3d4b383a	0.04961417
27	0x3cc28c8f	0.023748664
28	0x3ce8ad5b	0.028402975
29	0x3e0b2974	0.13590032
30	0xbe310ca9	-0.17289986
31	0xbe1c5451	-0.15266539
32	0xbe1a4a63	-0.15067439
33	0x3c8967dc	0.016773157
34	0x3e6ec7db	0.23318426
35	0x3d262e18	0.040571302
36	0xbc4f8d5f	-0.012667983
37	0x00000000	0.0
38	0x3d72e507	0.05930045
39	0x00000000	0.0
40	0x3e0e81a4	0.13916641
41	0x3d3f0215	0.046632845
42	0xbaed2341	-0.0018092172
43	0x3de7d581	0.113200195
44	0x3dbeb7ac	0.093123764
45	0xbe1d4885	-0.15359695
46	0xbdedb405	-0.116066016
47	0x00000000	0.0
48	0x3c0037e3	0.007825824
49	0x3d07fd5f	0.033200618
50	0x3de0ee18	0.10982913
51	0xbc7f4899	-0.0155812735
52	0x3cfb8635	0.030703643
53	0x3e121cf0	0.14268851
54	0x3e0800af	0.13281511
55	0x3e0b7ba5	0.13621385
56	0x3d3180be	0.04333567
57	0x00000000	0.0
58	0x00000000	0.0
59	0x3ddb2fc1	0.10702468
60	0xbc6f339d	-0.014599708
61	0xbe00d395	-0.12580712
62	0x3e17aace	0.1481125
63	0xbcf49a19	-0.029858636
64	0xbded51fe	-0.115879044
65	0x3e0c2fe3	0.13690142
66	0x3d42c77f	0.047553536
67	0x3d60a39e	0.054843538
68	0x3e56bc94	0.20970374
69	0xbe0be7d1	-0.1366265
70	0xbdd0b0d8	-0.1018998
71	0x00000000	0.0
72	0xbd9a77b2	-0.07542361
73	0x00000000	0.0
74	0xbddfccfe	-0.10927771
75	0x3e043cdd	0.12913842
76	0xbc58a0af	-0.013221904
77	0xbdcd3dc7	-0.10021549
78	0x3d1fce43	0.039015066
79	0x3d3ec898	0.04657802
80	0x3e4c8fd4	0.19976741
81	0xbe1de03d	-0.15417571
82	0x3d9d8b83	0.076926254
83	0xbc34a86e	-0.011026485
84	0x00000000	0.0
85	0xbe245bb6	-0.1605061
86	0x3e034e26	0.1282278
87	0x3d6850dd	0.056717742
88	0x00000000	0.0
89	0x00000000	0.0
90	0xbd4c9dc8	-0.04995516
91	0x00000000	0.0
92	0x3e109bda	0.14121953
93	0x3e26cfd9	0.16290225
94	0x3db6fc42	0.08934833
95	0x00000000	0.0
96	0xbdfb7faf	-0.12280213
97	0x3d3f5875	0.04671522
98	0x3d6a73de	0.057239406
99	0xbc1b849d	-0.009492067
100	0x3d9c7e97	0.076413326
101	0xbe3d6a35	-0.18497546
102	0x3e0d7e7d	0.13817783
103	0x00000000	0.0
104	0x3e02c849	0.12771715
105	0x3d35d8e6	0.044396304
106	0x3e13d4b4	0.14436609
107	0x3dd6132c	0.104528755
108	0x3bc34cb8	0.0059600733
109	0x3e083968	0.13303149
110	0x00000000	0.0
111	0x3e2bc067	0.16772614
112	0x3d0afbc7	0.03393152
113	0x3e5fbee2	0.2185016
114	0x3c2b2e27	0.010448015
115	0x3d7b60ed	0.061371733
116	0x00000000	0.0
117	0xbe27f1ba	-0.16400805
118	0x3dd13c26	0.102165505
119	0x00000000	0.0
120	0x3d75ef4e	0.06004267
121	0xbc360f75	-0.011112084
122	0x3cdbc03b	0.026825061
123	0x3e15b550	0.14619946
124	0x3d8e494c	0.06947574
125	0x3d479421	0.04872525
126	0x3d0bd9c1	0.034143213
127	0x3d32cc1d	0.04365169

action_parameters_output_layer.weight f4 [27, 128]
0	0x3a435afd	0.0007452218
1	0x3946002e	0.00018882818
2	0xbc34c5f8	-0.011033528
3	0x3845e3ff	4.7180798e-05
4	0xb920b74b	-0.00015327071
5	0xb9bc8c5f	-0.0003596274
6	0xbc77ff0d	-0.015136492
7	0x39cbfcb8	0.00038907467
8	0xbc0a9d26	-0.008460319
9	0xb828ef83	-4.0277384e-05
10	0xbc408d9b	-0.011752511
11	0x3870fa22	5.7453413e-05
12	0x3986ad43	0.00025687562
13	0x393d89da	0.00018075798
14	0xb9241330	-0.00015647407
15	0x3bb6b753	0.005576053
16	0x38827cca	6.222127e-05
17	0x39966bd7	0.00028690576
18	0x3a193eb0	0.0005845828
19	0x38816ceb	6.171487e-05
20	0xba5b6b1d	-0.0008370148
21	0xbbef1d51	-0.007297196
22	0xb9386834	-0.00017586426
23	0x3a2e4d82	0.0006649123
24	0xb9042575	-0.00012602455
25	0xbb4a2d5f	-0.0030849797
26	0x3ccc5825	0.024944374
27	0xbb30d57a	-0.002698271
28	0xb9acca96	-0.00032957335
29	0xb84b7d0a	-4.8515423e-05
30	0x3a7d1ee3	0.00096557866
31	0xb91a9a99	-0.00014744177
32	0xb9480d91	-0.0001907854
33	0x3a62f07b	0.000865705
34	0x3a79a5c7	0.0009523299
35	0xba4dbea4	-0.0007848537
36	0xbc294d83	-0.010333422
37	0xb8d0d0a4	-9.957075e-05
38	0x395aada6	0.00020854789
39	0x38af60ea	8.362702e-05
40	0x3cbce731	0.02305946
41	0x3c83e717	0.016101403
42	0x37fad40b	2.9901063e-05
43	0xb8abc338	-8.190278e-05
44	0x39bedf13	0.00036405827
45	0x36203318	2.3871598e-06
46	0xbaad9927	-0.0013244495
47	0xb9192110	-0.00014603534
48	0x38d2e5cb	0.000100563826
49	0xbc04f568	-0.00811515
50	0xb90d2fb9	-0.00013464586
51	0x39a369b9	0.00031168552
52	0x39a07724	0.00030606345
53	0x388429bc	6.302024e-05
54	0x3d25d526	0.040486477
55	0xb9b75f4c	-0.00034975482
56	0xbbd8ce49	-0.006616388
57	0xb9019057	-0.0001235617
58	0xb7599dcf	-1.2970951e-05
59	0x38d2929d	0.00010040889
60	0x39518319	0.00019980631
61	0x3958cc13	0.00020675389
62	0x39bccd15	0.00036010952
63	0x38f9c7d7	0.00011910468
64	0x373ecf5b	1.1373161e-05
65	0x392b93fc	0.0001636296
66	0xbc334a07	-0.010942942
67	0xbd01e54e	-0.031712823
68	0xbc17710a	-0.009243259
69	0xbbe6f638	-0.0070483945
70	0x392fe0cc	0.00016773044
71	0xb874823f	-5.8295434e-05
72	0x38dbcf88	0.000104813895
73	0xb82eaacd	-4.1643903e-05
74	0xb932cfcc	-0.00017052813
75	0x3cd74c08	0.026281372
76	0xbbbb3595	-0.0057131746
77	0xbaf3c293	-0.0018597416
78	0x3b529c5e	0.003213666
79	0xb9077f90	-0.00012922124
80	0xbce55222	-0.027993266
81	0x38a12724	7.684369e-05
82	0xb6ede220	-7.089475e-06
83	0xbc8f1374	-0.01746533
84	0x37c0fd1c	2.3006047e-05
85	0x38ed5983	0.000113177135
86	0x3b382fe0	0.0028104708
87	0x3c335e44	0.010947768
88	0x37b0e199	2.1085887e-05
89	0x3815a2af	3.567588e-05
90	0x39024238	0.00012422435
91	0xb7d87fbb	-2.5808686e-05
92	0x392f4934	0.00016716571
93	0x3a5025b1	0.0007940187
94	0x39141c5b	0.00014124943
95	0xb835462a	-4.321911e-05
96	0xb7e66f76	-2.747004e-05
97	0x3bc592a2	0.006029443
98	0xbbfe781b	-0.0077657825
99	0x383b2385	4.4617354e-05
100	0xbb69ac02	-0.0035655503
101	0x39fcd1ff	0.00048221645
102	0x39dcfc00	0.00042149425
103	0x38a89e01	8.040295e-05
104	0x3962b741	0.00021621307
105	0xb94fd832	-0.00019821597
106	0x3c4e8eaf	0.012607261
107	0x39ae017e	0.00033188978
108	0xbc2fefb1	-0.010738299
109	0x3a257442	0.0006311574
110	0x3963ce40	0.00021725241
111	0x3c33646f	0.010949238
112	0x3b87df06	0.0041464595
113	0xbc9b1e06	-0.018935215
114	0x3ba8391b	0.0051337606
115	0x39b5fddd	0.00034712153
116	0x37b8054d	2.1936978e-05
117	0x38baab28	8.9010515e-05
118	0xbc1e9f60	-0.009681553
119	0x381606bb	3.5769055e-05
120	0x3a13dfbf	0.0005640946
121	0x38b8c7ca	8.811017e-05
122	0x399ded51	0.00030122188
123	0x3a141232	0.0005648463
124	0xba48403f	-0.0007638968
125	0xbb5a40ca	-0.0033302777
126	0x3c58f878	0.013242833
127	0x3bd0161f	0.0063502933
128	0x39b5ebd9	0.0003469873
129	0x39f70e02	0.00047121948
130	0xbb66ef19	-0.0035237728
131	0x3915605d	0.00014245645
132	0xb72abe07	-1.0177034e-05
133	0xb8991df9	-7.301191e-05
134	0x3a8c460f	0.0010702031
135	0xb8298e4e	-4.042527e-05
136	0x3b31b83d	0.0027117871
137	0x39521944	0.00020036573
138	0xbb972c75	-0.004613454
139	0x38f6ebca	0.00011774113
140	0xb79e4b9d	-1.8870278e-05
141	0x394df62f	0.00019642034
142	0x38fc97c3	0.00012044564
143	0xb9e4685a	-0.00043565297
144	0x37159a05	8.9169525e-06
145	0x38c63bd0	9.452517e-05
146	0xbb9afcb7	-0.004729833
147	0xb7f87d72	-2.9622319e-05
148	0x3a943ecc	0.0011310219
149	0xba90a47d	-0.001103535
150	0xb8a14f07	-7.691798e-05
151	0x39e3731a	0.0004338257
152	0x398437cc	0.00025218574
153	0x3b0cc5c9	0.0021480194
154	0xbad945ee	-0.0016576627
155	0xbba365e5	-0.004986512
156	0x38f51882	0.00011687075
157	0x396566dc	0.0002187746
158	0xb9629fd0	-0.00021612574
159	0xb892b9d9	-6.996439e-05
160	0xb88d4996	-6.7371104e-05
161	0x3b8e7d3a	0.0043484243
162	0x3a936684	0.0011245762
163	0x3b871a74	0.0041230265
164	0xba8b787d	-0.0010640767
165	0x3879506a	5.9441118e-05
166	0x399ec113	0.0003027996
167	0xb9324d25	-0.00017004141
168	0x3a7e61c7	0.0009703901
169	0x3b8573bc	0.0040726345
170	0xb7161496	-8.94549e-06
171	0x398b98d9	0.00026626026
172	0x393c4151	0.0001795341
173	0x390bbfc5	0.00013327513
174	0x3a62e2a9	0.0008654991
175	0x38199b3c	3.6622616e-05
176	0xb8351576	-4.317375e-05
177	0x3b97e352	0.004635253
178	0x39592089	0.00020706853
179	0x3942ca55	0.00018576656
180	0x38cf491c	9.884147e-05
181	0x39c18f4f	0.00036918602
182	0x3d108bca	0.035289563
183	0x3a11e553	0.0005565483
184	0x3c237cb4	0.009978462
185	0x37bf77b3	2.2824714e-05
186	0x3826cecd	3.9770082e-05
187	0x3994fc91	0.00028416936
188	0x39a1c5e3	0.0003085575
189	0xb8014fb1	-3.0830215e-05
190	0x39e7c6bb	0.0004420782
191	0xb87d71bc	-6.0425824e-05
192	0xb8b118b4	-8.444619e-05
193	0x391a989c	0.00014743436
194	0xbc82358c	-0.015894674
195	0x3c7daada	0.015482629
196	0xba3a70d8	-0.0007112152
197	0xba3c1ea9	-0.00071761996
198	0x394e9791	0.00019702154
199	0xb809b47f	-3.2831445e-05
200	0x3973ea33	0.00023261532
201	0x3848f5ea	4.791274e-05
202	0x397b49d3	0.00023964727
203	0xbb6544d7	-0.0034983659
204	0xbcb4c752	-0.0220677
205	0xbae5a2af	-0.0017519797
206	0xbcc24809	-0.02371599
207	0x39410832	0.00018408967
208	0x3bfb346c	0.0076661613
209	0xb8eb2347	-0.00011212244
210	0x39037bfe	0.00012539324
211	0xbc3d479a	-0.011552716
212	0x38d5ef45	0.00010201199
213	0x38b7f35f	8.7714514e-05
214	0xbcfbc99f	-0.030735789
215	0x3b7fb7cc	0.0039019464
216	0xb84dc785	-4.9061626e-05
217	0xb7ee1266	-2.8380378e-05
218	0x392893e8	0.00016076828
219	0x37fcec37	3.0150737e-05
220	0x399b7b89	0.00029655945
221	0x3a0f7768	0.000547281
222	0x38c1bd4e	9.238218e-05
223	0x38535f76	5.0395225e-05
224	0x369d0221	4.6792125e-06
225	0x3b8438b3	0.0040350794
226	0x3bd0ea2e	0.0063755726
227	0x3908bc17	0.0001304004
228	0xbb442a99	-0.0029932617
229	0x3906c670	0.0001285316
230	0x39959d95	0.00028536902
231	0x37dcf369	2.633939e-05
232	0x39c6863c	0.00037865515
233	0x3913719f	0.0001406134
234	0x3c7782d2	0.015106874
235	0x39b636df	0.00034754627
236	0xbce48eb7	-0.027900083
237	0x399d7964	0.00030035817
238	0x37dc831e	2.62871e-05
239	0xbaac6c25	-0.0013154788
240	0x3bbf74cd	0.005842781
241	0x3c26158f	0.010136976
242	0xbbf117ba	-0.0073575648
243	0x38b93e6f	8.8331166e-05
244	0x38672cf9	5.5116576e-05
245	0xb7e26450	-2.6988011e-05
246	0xbbb2e252	-0.0054591084
247	0xb7cf4374	-2.4707733e-05
248	0x38c1e6ab	9.2459224e-05
249	0x37b21e72	2.123343e-05
250	0x3955f41f	0.00020404205
251	0x39e3cdbb	0.00043450095
252	0x39b20623	0.00033955378
253	0x3aedcfae	0.0018143558
254	0xbae969b0	-0.0017807987
255	0x39d9e743	0.0004156177

action_parameters_output_layer.bias f4 [27]
0	0xbbdc3a47	-0.0067208144
1	0x3c54e581	0.012994171
2	0x3bec1b89	0.007205431
3	0x3d3ec32a	0.04657284
4	0xbb0fbd96	-0.002193307
5	0x3b145128	0.002263138
6	0x3a2ef87c	0.00066746003
7	0x3d002527	0.03128543
8	0x3d1f4342	0.0388825
9	0xbb948e95	-0.0045335987
10	0x3bd956d6	0.006632666
11	0x3c87ab87	0.016561283
12	0x3d8e0707	0.06934934
13	0xbc457e34	-0.012054015
14	0x3d842818	0.0645296
15	0x3c3384d5	0.010956963
16	0x3d0b2fbe	0.033981077
17	0x3beebcd0	0.007285692
18	0x3d2b2549	0.041783605
19	0x3c93a8cd	0.018024826
20	0x3d8e7a15	0.06956879
21	0x3ca78f62	0.020454112
22	0xbbc7bde4	-0.006095635
23	0xb7566e68	-1.27811e-05
24	0x3c37c6bc	0.011216816
25	0xba671343	-0.0008814821
26	0xbbeb82e2	-0.0071872333

action_parameters_passthrough_layer.weight f4 [27, 3]
0	0x00000000	0.0
1	0x00000000	0.0
2	0x00000000	0.0
3	0x00000000	0.0
4	0x00000000	0.0
5	0x00000000	0.0
6	0x00000000	0.0
7	0x00000000	0.0
8	0x00000000	0.0
9	0x00000000	0.0
10	0x00000000	0.0
11	0x00000000	0.0
12	0x00000000	0.0
13	0x00000000	0.0
14	0x00000000	0.0
15	0x00000000	0.0
16	0x00000000	0.0
17	0x00000000	0.0
18	0x00000000	0.0
19	0x00000000	0.0
20	0x00000000	0.0
21	0x00000000	0.0
22	0x00000000	0.0
23	0x00000000	0.0
24	0x00000000	0.0
25	0x00000000	0.0
26	0x00000000	0.0
27	0x00000000	0.0
28	0x00000000	0.0
29	0x00000000	0.0
30	0x00000000	0.0
31	0x00000000	0.0
32	0x00000000	0.0
33	0x00000000	0.0
34	0x00000000	0.0
35	0x00000000	0.0
36	0x00000000	0.0
37	0x00000000	0.0
38	0x00000000	0.0
39	0x00000000	0.0
40	0x00000000	0.0
41	0x00000000	0.0
42	0x00000000	0.0
43	0x00000000	0.0
44	0x00000000	0.0
45	0x00000000	0.0
46	0x00000000	0.0
47	0x00000000	0.0
48	0x00000000	0.0
49	0x00000000	0.0
50	0x00000000	0.0
51	0x00000000	0.0
52	0x00000000	0.0
53	0x00000000	0.0
54	0x00000000	0.0
55	0x00000000	0.0
56	0x00000000	0.0
57	0x00000000	0.0
58	0x00000000	0.0
59	0x00000000	0.0
60	0x00000000	0.0
61	0x00000000	0.0
62	0x00000000	0.0
63	0x00000000	0.0
64	0x00000000	0.0
65	0x00000000	0.0
66	0x00000000	0.0
67	0x00000000	0.0
68	0x00000000	0.0
69	0x00000000	0.0
70	0x00000000	0.0
71	0x00000000	0.0
72	0x00000000	0.0
73	0x00000000	0.0
74	0x00000000	0.0
75	0x00000000	0.0
76	0x00000000	0.0
77	0x00000000	0.0
78	0x00000000	0.0
79	0x00000000	0.0
80	0x00000000	0.0

action_parameters_passthrough_layer.bias f4 [27]
0	0x00000000	0.0
1	0x00000000	0.0
2	0x00000000	0.0
3	0x00000000	0.0
4	0x00000000	0.0
5	0x00000000	0.0
6	0x00000000	0.0
7	0x00000000	0.0
8	0x00000000	0.0
9	0x00000000	0.0
10	0x00000000	0.0
11	0x00000000	0.0
12	0x00000000	0.0
13	0x00000000	0.0
14	0x00000000	0.0
15	0x00000000	0.0
16	0x00000000	0.0
17	0x00000000	0.0
18	0x00000000	0.0
19	0x00000000	0.0
20	0x00000000	0.0
21	0x00000000	0.0
22	0x00000000	0.0
23	0x00000000	0.0
24	0x00000000	0.0
25	0x00000000	0.0
26	0x00000000	0.0
