RL4E2E/results/pptod/2.0k1/episode_3500/actor_param.pt (torch, 18917 bytes, 6 tensors)

layers.0.weight f4 [128, 3]
000000 ad 21 06 3e 5c c9 2c be ba 75 ca 3f 8e f8 4f 3e
       0.13098784 -0.16873688 1.5817177 0.2030966
000010 df f2 4c 3f 88 15 ff 3e 12 62 11 3d 87 76 7c be
       0.8005809 0.49821115 0.035493918 -0.2465459
000020 a1 c3 99 bf 62 8e 8f 3f c9 d7 bc bf 21 52 23 bf
       -1.2012826 1.1215327 -1.4753352 -0.63797194
000030 74 8c 08 c0 c7 67 9e be 53 77 f1 be 11 85 eb 3d
       -2.1335726 -0.3093855 -0.4716135 0.1149999
000040 13 04 bc 3e ed a4 72 bf 77 5e c8 be 24 9a 48 bf
       0.36721858 -0.94782907 -0.3913457 -0.783602
000050 af 94 e8 3e cc ea 1c 3f 37 93 a3 bf b1 b0 1a 3f
       0.45425937 0.6129577 -1.2779301 0.6042586
000060 07 ec bc be cf 36 87 3f fc 3e 48 3f 74 30 cc 3d
       -0.36898825 1.0563601 0.78221107 0.09970179
000070 af ef be 3d b1 d3 af be aa 3d ee bb 1f 22 81 bf
       0.0932306 -0.34341195 -0.0072705345 -1.0088538
000080 07 97 a5 3e d0 1c ed 3e 5f 8b 0a 3e e3 91 4d be
       0.32341787 0.46311045 0.13529728 -0.20075183
000090 4e a4 53 3f 64 37 e2 bf 0e fb 1a 3f 0d eb ff 3f
       0.82672584 -1.7673154 0.6053933 1.9993607
0000a0 e6 02 89 be 7b 12 b9 be ce 57 3f 3f f3 38 8e 3e
       -0.26760024 -0.36146912 0.74743354 0.27777824
0000b0 ea 50 c0 bf 60 73 13 bc f1 31 a7 3e ac 51 1b 3f
       -1.5024693 -0.0089996755 0.3265529 0.60671496
0000c0 63 ba 9a 3f 04 8d b9 be 4c d1 1d bf d5 16 6a 3f
       1.2088131 -0.362404 -0.61647487 0.9144109
0000d0 71 de 43 3d b1 d4 bd 3e f6 2a 88 be 73 ff a7 3f
       0.04781956 0.37076333 -0.26595277 1.3124832
0000e0 98 01 b7 3f fa 2b ad 3e ad 37 bd be ad 50 99 be
       1.4297361 0.33822614 -0.3695654 -0.29944363
0000f0 f3 58 0d 3e a9 dc df be 72 34 f1 bf 1d 51 15 bd
       0.13803463 -0.43723038 -1.884413 -0.03645431
000100 f3 a6 34 3f 01 13 1b 3f dd 0d ef be d4 61 2b bf
       0.70567244 0.6057587 -0.46690264 -0.6694615
000110 bd 58 04 bf d9 24 e0 3c b3 3f 89 bd 1b 6d 0a 3f
       -0.51697904 0.02736132 -0.06701603 0.5407273
000120 85 21 f3 3e f3 a0 df 3e cf 82 aa 3e 38 ea 36 3c
       0.4748651 0.43677482 0.33302924 0.011164241
000130 ec e4 3e 3f 29 d4 97 be a2 54 9a bd 6a 36 54 be
       0.7456806 -0.29654053 -0.07535674 -0.20723882
000140 ee 69 d4 3f ac b2 ab bd 28 1b cb 3f 53 1b 9e 3f
       1.6594827 -0.08383688 1.5867662 1.2352089
000150 1e 44 2f 3d a4 56 17 3e 2e 45 be be ab fc c5 3e
       0.04278957 0.14779145 -0.37162155 0.38669333
000160 e4 ca 1d 3f d4 0f 98 3f 52 6d ad 3c 82 44 20 be
       0.6163771 1.187983 0.021170292 -0.15651134
000170 ab 20 2b 3d 94 a5 d5 3e 30 97 6e bf b5 b6 96 bf
       0.0417792 0.4172789 -0.93199444 -1.1774508
000180 e8 31 13 3f b9 0d a0 be e6 57 db bf 38 60 50 be
       0.57498026 -0.3126047 -1.71362 -0.20349205
000190 6e e9 ca 3f 16 70 39 bd 27 e9 8d bc e9 b8 12 3f
       1.5852487 -0.04527291 -0.01732309 0.573134
0001a0 ab 40 2a 3f 81 7e 24 bc 08 a5 69 3f ae 49 75 be
       0.66504925 -0.0100399265 0.9126744 -0.23953888
0001b0 47 cd d7 bc 9e 5c 6a 3f 3c bb 10 3f d8 a0 34 be
       -0.026343001 0.9154757 0.56535697 -0.17639482
0001c0 c6 f2 89 bf 77 9f 95 bf 57 4b f5 3f 50 48 10 bf
       -1.0777214 -1.168929 1.9163617 -0.5636034
0001d0 b1 1e 13 3f ee 25 37 bf 3f 33 70 bf 4e 61 71 be
       0.57468706 -0.7154225 -0.93828195 -0.23572275
0001e0 76 13 0c be 9b b1 81 3f 3f 04 0f 40 73 8c 92 bc
       -0.13679299 1.0132326 2.2346342 -0.017889237
0001f0 08 ab dd bf d4 cd db 3f 02 2b 0c 3f c4 0f 56 bf
       -1.731782 1.7172189 0.54753125 -0.83617806
000200 93 5a c2 be 10 05 32 3f 68 d9 80 3f 28 c9 8d 3e
       -0.37959728 0.69538975 1.0066347 0.27692533
000210 8e 92 03 3f 7f 22 1b bf 43 0a 68 3f 9c 2e a9 3e
       0.513955 -0.6059951 0.9064066 0.33043373
000220 0b 1f 9a be 09 2a 8c bf e5 ff 88 3d 41 ad a1 3e
       -0.3010181 -1.0950328 0.06689433 0.31577495
000230 ec 1d 40 bf fe 3d 5a bf 0f 95 0f bf 2c 46 8f bf
       -0.7504566 -0.8525084 -0.5608682 -1.119329
000240 15 9f f0 3e 0c 7b 3d bf eb 24 1c bf 17 f0 a2 bf
       0.4699637 -0.7401588 -0.6099383 -1.272952
000250 ad d1 89 3f 8f ac fe 3e ec 3d 83 3e 97 a2 63 3f
       1.0767113 0.49741027 0.2563318 0.8891997
000260 c0 d8 91 be 3c 03 54 3e 2a 76 54 bf 27 e2 e7 3e
       -0.2848568 0.20704359 -0.82992804 0.45289728
000270 6b 1a 68 3e 6f 7a 59 bf 3f ad 24 3f 38 4f 06 3e
       0.22666328 -0.84952444 0.6432685 0.13116157
000280 71 14 0e 3f 95 67 97 3e 69 5d ea 3b 6d 5d 32 3f
       0.5549994 0.29571214 0.0071522486 0.69673806
000290 40 ea 02 bf 9a 49 c5 3c 37 db e9 3e 95 fe 6d bd
       -0.5113869 0.024082948 0.4567506 -0.058104116
0002a0 8e f5 30 bf f3 a1 0b 3e 6e 57 bc 3f 13 28 4a bf
       -0.69124687 0.13635997 1.4714181 -0.789674
0002b0 b3 17 be be 3b 65 16 bf 4b df 7b be fb cf 01 bf
       -0.37127456 -0.58748215 -0.24596898 -0.5070798
0002c0 46 6b be bf f6 43 e2 3e 5a c6 0c 3f ed 92 d0 bc
       -1.4876487 0.44192475 0.5499016 -0.025460685
0002d0 6e 57 eb 3d 98 f8 b7 bd 41 49 a5 be d2 61 88 3e
       0.11491285 -0.08982962 -0.3228245 0.2663713
0002e0 65 4b bd bf 32 4d 9a 3c ac 0d ab 3d 5f 6d 7b 3e
       -1.4788634 0.018835638 0.08352217 0.2455344
0002f0 69 68 24 3f 1d 4b 45 3e 98 c3 c2 be 1a cd 5e 3c
       0.6422182 0.19266935 -0.3803985 0.013598705
000300 9c 98 10 3f 3a a6 89 be ea ff 96 bf b4 43 36 3e
       0.56482863 -0.26884633 -1.1796849 0.17799264
000310 d2 ae a0 3d 9e cf d3 3e 7b 44 9f bf 01 7a 05 bf
       0.07845844 0.41369337 -1.2442774 -0.5213929
000320 db 95 22 3e 44 3a bd 3c 1a 73 02 3f 7a 30 e4 be
       0.15877478 0.023099072 0.5095688 -0.44568235
000330 96 86 04 bd 54 13 9c 3f fe a2 98 3f 80 1c 9f 3d
       -0.032354914 1.2193398 1.1924741 0.07769108
000340 64 a8 4f 3e 82 11 f4 bf 4d 96 21 3f 5e 73 50 bf
       0.2027908 -1.9067843 0.63119966 -0.81426036
000350 6c 48 39 bf 6f fa db be 6e ff 78 bf 80 06 e9 bf
       -0.7237613 -0.42964503 -0.97264755 -1.8205109
000360 60 ef 45 3f 6a 0b bb bf de 0c 6a bd 20 ed 25 bd
       0.7731838 -1.4612858 -0.057141177 -0.040509343
000370 d8 9a df bf 49 47 86 bf a6 e6 f9 3e 2d 74 85 be
       -1.746913 -1.0490505 0.48808783 -0.26065198
000380 59 90 81 bf 95 e0 43 bd cb 56 40 3f e5 38 9b 3f
       -1.0122176 -0.0478216 0.75132436 1.2126738
000390 5c 02 4b bf 61 3f b0 3e e4 85 98 3e 29 54 c1 3d
       -0.79300475 0.34423354 0.2978965 0.094398804
0003a0 0e 75 f9 bf 04 4f ee be 54 64 3d 3b e6 e6 94 bf
       -1.9488847 -0.4654466 0.0028898912 -1.1632965
0003b0 f1 a4 a9 3e d2 77 c4 3e e3 58 57 3f 31 16 5f bf
       0.33133653 0.38372666 0.84120005 -0.87143236
0003c0 7a 30 8e bc fb 07 80 3f 28 95 a3 3e 12 6a 4b 3e
       -0.0173571 1.0002435 0.31949735 0.19864681
0003d0 86 d9 81 bf f8 73 d5 be b9 8d 63 3f 5e b2 ba 3f
       -1.0144508 -0.4169004 0.88888127 1.4585683
0003e0 86 54 51 bf 09 2b 86 bf 5b c3 58 bd eb 74 15 3f
       -0.817696 -1.0481883 -0.05292068 0.5838153
0003f0 6f 9c 9a bf 19 93 f9 be 61 f2 22 bf aa 1f 06 3f
       -1.207899 -0.4874504 -0.6365109 0.52392066

layers.0.bias f4 [128]
000000 a0 81 9a 3e a9 35 b4 3e a6 b1 83 3d 5c 4f 44 bd
       0.3017702 0.3519719 0.06430368 -0.047927245
000010 00 00 00 00 f2 3c b4 be 41 92 df 3c 7d 12 13 bf
       0.0 -0.35202748 0.027291419 -0.57450086
000020 3a 00 bd 3e 67 7e 4a bf ec 86 9c bd 01 f8 4e 3f
       0.36914235 -0.79099125 -0.07642922 0.80847174
000030 20 61 cb be 43 fa a9 3e a9 ee 55 3e d6 7f 56 3f
       -0.39722538 0.33198747 0.20891823 0.8378881
000040 b3 d4 df 3e b5 e7 2f 3e 50 34 69 3f 6c ac 93 bf
       0.43716964 0.17178233 0.9109545 -1.1536994
000050 4f b2 f9 be 72 ad 9e 3f 00 00 00 00 16 1b 3e 3f
       -0.4876885 1.2396681 0.0 0.7426008
000060 4f 8f 29 3f df 09 30 3e fb fe 0c 3d d4 aa 46 3f
       0.66234297 0.17191266 0.034422856 0.77604413
000070 23 2a 63 3f 7e e3 9f 3d 07 e1 59 bf ab 37 b8 be
       0.8873617 0.078070626 -0.8510899 -0.3597997
000080 71 98 64 be 61 29 cb 3e 68 c0 4a 3f 7c 23 e7 3d
       -0.22323777 0.39680007 0.7919984 0.11286065
000090 78 67 59 3f 00 00 00 00 4a 60 81 3e 00 00 00 00
       0.84923506 0.0 0.25268775 0.0
0000a0 be 4f 5d 3f 24 11 44 be e8 08 93 be 93 39 35 3e
       0.864498 -0.19147164 -0.28717732 0.17697744
0000b0 21 c7 7a 3e 5e ee 51 bf a1 f9 4b be 00 00 00 00
       0.24490024 -0.82004344 -0.19919445 0.0
0000c0 af 2a a1 bf f6 1c 17 bd 0b cf 4b 3f 43 45 7b bf
       -1.2591151 -0.036892854 0.796128 -0.9815256
0000d0 b7 04 1e bf 58 46 86 3f 7d e3 75 3e 4b 64 80 3f
       -0.61725944 1.0490217 0.24012561 1.0030607
0000e0 ee f8 cd 3e 00 00 00 00 00 00 00 00 c0 40 2c 3f
       0.4022898 0.0 0.0 0.672863
0000f0 ae 10 73 bf b7 de 0a bf 06 ef 71 3f 28 87 88 bf
       -0.94947326 -0.54246086 0.94505346 -1.0666246
000100 ff de 57 bf d7 dc 45 3f 3b 14 54 3e 58 09 c5 3d
       -0.8432464 0.772901 0.20710842 0.09620923
000110 c9 b5 5d 3e 9c 8c 2e 3e 9a ca 0d be 00 00 00 00
       0.21651377 0.17045826 -0.13846818 0.0
000120 41 86 43 bf 00 00 00 00 41 c5 2f bf f3 ba 02 3f
       -0.7637673 0.0 -0.6866036 0.5106651
000130 d5 4f 53 3e f6 21 c9 bd 97 fd 00 3f 41 0a 10 3f
       0.20635922 -0.09820931 0.5038695 0.56265646
000140 82 cc 94 3e 21 c2 58 bf fa f3 52 3e 54 22 7e 3e
       0.29062277 -0.8467122 0.20600882 0.24817783
000150 00 00 00 00 37 fd 94 be 65 1e c3 3b 32 1a 6d 3e
       0.0 -0.29099438 0.005954551 0.23154524
000160 00 00 00 00 00 00 00 00 0d 97 c0 bb 00 00 00 00
       0.0 0.0 -0.0058773817 0.0
000170 64 c7 57 3e 45 4d 54 3f 5c 89 d4 3c 00 00 00 00
       0.21072155 0.82930404 0.025944404 0.0
000180 e7 29 80 bf 01 7c 9c 3e 26 04 9c 3d 8f 95 1d 3f
       -1.0012788 0.30563357 0.07617979 0.61556333
000190 38 19 c3 3e c7 38 8a bf 26 a7 a2 3e 00 00 00 00
       0.38105178 -1.0798577 0.3176815 0.0
0001a0 fe 6c 4d 3f a6 c2 50 3f c8 37 31 3f 0b 71 18 3d
       0.80244434 0.8154701 0.6922574 0.03721718
0001b0 fa 48 30 3e bb 43 2e 3f 00 00 00 00 7d 42 09 3f
       0.17215338 0.680721 0.0 0.5361708
0001c0 b8 8b 50 3e b0 f2 88 3e 16 93 a4 3d d1 e1 0c bf
       0.20365798 0.26747656 0.08035867 -0.5503207
0001d0 00 00 00 00 03 d5 81 bf b0 e9 89 3e 00 00 00 00
       0.0 -1.0143131 0.26936102 0.0
0001e0 a9 3a 68 bf 41 fa df 3e dc 1f 71 bf 61 72 55 3e
       -0.9071451 0.43745616 -0.9418924 0.20844413
0001f0 43 09 85 3e 37 9b 3f bd 2f 8b 3a 3e 84 35 4c 3e
       0.2598363 -0.046778884 0.18217157 0.1994229

action_parameters_output_layer.weight f4 [27, 128]
000000 06 82 08 ba 6b 23 c7 b9 7e 43 99 b9 dd a3 1a 3a
       -0.0005207363 -0.00037982626 -0.0002923272 0.00058990513
000010 4b b7 20 b9 d0 ea ae 3b ea 34 a0 3b f8 bc 10 ba
       -0.00015327071 0.0053380504 0.0048891203 -0.00055213226
000020 68 df 89 3d c6 8c 01 bc 47 b2 3d 3d 1a 7f 0c 3b
       0.067320645 -0.007907098 0.046312597 0.0021438063
000030 d0 9c 9c 38 25 70 b4 39 52 fa 29 3a e2 f0 f1 3c
       7.467868e-05 0.0003441583 0.0006484139 0.029533807
000040 88 7f 29 3a 20 8a 9f b7 9c fa 09 bc 3c 70 86 bb
       0.0006465842 -1.9018597e-05 -0.008421566 -0.004102735
000050 f5 d8 2b 3a 69 fa e9 3d 33 68 38 b9 31 d4 87 3c
       0.00065554614 0.11424715 -0.00017586425 0.016580673
000060 2a aa f4 39 fa 92 35 3b a6 fa 62 bb bc 56 b8 3c
       0.0004666609 0.0027706013 -0.0034634261 0.022502296
000070 e3 0f 14 3d 51 6f eb ba f0 ac 4d bd 68 55 fe 3a
       0.036147963 -0.0017962252 -0.050213754 0.0019404115
000080 d0 c2 e0 3a dc 8f 96 3d b3 5b 3a 3d 19 0b 8e ba
       0.0017147902 0.07351658 0.045497607 -0.0010837048
000090 fc 25 96 3d a4 d0 d0 b8 e8 17 24 39 f3 60 af 38
       0.07331464 -9.957075e-05 0.00015649165 8.3627085e-05
0000a0 df 1b f9 bc 95 ec bb bc 9f 3b cd b8 19 e9 47 ba
       -0.030408798 -0.02293996 -9.786267e-05 -0.0007625982
0000b0 18 ce d4 39 b5 72 81 39 0e 89 fa 3b 0d 21 19 b9
       0.00040589343 0.0002469026 0.0076457327 -0.0001460353
0000c0 c1 46 05 bb 7c ef 49 bd 2f bc 14 3b 4e 63 79 bb
       -0.0020336362 -0.049300656 0.0022695174 -0.0038053575
0000d0 c1 8a 09 bb 61 ec a9 3b 01 8d 74 bc c7 49 05 3d
       -0.0020987245 0.0051856493 -0.014926196 0.032541063
0000e0 96 02 ca 3c 57 90 01 b9 cf 9d 59 b7 bb c0 76 3a
       0.024659436 -0.0001235617 -1.2970951e-05 0.00094128744
0000f0 e9 97 f5 bb 23 c9 21 3a 58 60 c5 3b ca d2 e6 bb
       -0.0074949157 0.00061716343 0.006023448 -0.007044171
000100 da e1 45 ba b6 36 72 3b 56 e2 11 3e 42 2a ee bc
       -0.0007548608 0.003695888 0.14246497 -0.029072884
000110 da 20 26 3c 58 48 7f 3c 73 13 12 3a 3f 82 74 b8
       0.010139668 0.015581213 0.0005572356 -5.8295434e-05
000120 e0 ea 1f ba d1 aa 2e b8 55 2f 3d ba 34 29 8f bc
       -0.0006100368 -4.1643918e-05 -0.0007216831 -0.017475702
000130 f1 25 e1 bc 6e 1a 39 3c 5c 8f ba 3c 41 1a cc 3a
       -0.027483912 0.011297805 0.022773437 0.0015571789
000140 8b 12 82 bd ec 60 4b bb 5c 32 48 b9 ac 76 a1 bc
       -0.06351193 -0.0031033112 -0.00019092247 -0.019709907
000150 1b fd c0 37 de 5d 14 3b 8e ab 9e bc ea eb 99 bc
       2.3006045e-05 0.0022638957 -0.019368913 -0.01878925
000160 99 e1 b0 37 ad a2 15 38 0b c7 07 3a c6 7f d8 b7
       2.1085887e-05 3.5675872e-05 0.0005179501 -2.5808706e-05
000170 6c 24 ba ba 24 c9 34 3d 44 30 41 ba 2a 46 35 b8
       -0.0014201528 0.044137135 -0.0007369558 -4.321911e-05
000180 ac 01 25 bb bd d6 ca bc fa 96 41 bd 15 8f 4f 3b
       -0.0025177998 -0.024760598 -0.047263123 0.0031670977
000190 73 44 88 3d ee 47 99 bc 21 72 d6 b9 01 9e a8 38
       0.06653681 -0.018711057 -0.00040902293 8.040295e-05
0001a0 11 9b bb 3a b4 bd 61 3b 2e 5d 90 3b 7e c5 d3 b9
       0.0014313181 0.0034445347 0.004405639 -0.000403922
0001b0 f6 49 65 3e 88 6a b2 3d 40 ce 63 39 86 2b 7d 3c
       0.22391495 0.087117255 0.00021725241 0.015452271
0001c0 ba e3 62 bd 12 e6 42 bd ba a6 31 bc 8d 22 0b bb
       -0.05539296 -0.047582693 -0.010842973 -0.002123031
0001d0 4d 05 b8 37 43 4c 96 bb a8 67 5a bd bb 06 16 38
       2.1936978e-05 -0.004586728 -0.05332151 3.5769055e-05
0001e0 db 8e 91 bc 45 ad 80 3a b6 db 6d bb 8d 8e de ba
       -0.017768314 0.0009817263 -0.0036294288 -0.0016979739
0001f0 6b 92 1a 3b ca 12 5a bd 0e cd 19 3d d4 0a e4 3b
       0.0023585807 -0.053240575 0.03754907 0.0069592986
000200 3b 9f 00 bb 93 2c a2 39 5c ef 27 3c 4d 9c 73 36
       -0.0019626159 0.00030932258 0.010249939 3.63008e-06
000210 07 be 2a b7 1d b5 a4 b8 d5 d8 07 bd 21 3a d4 b9
       -1.0177034e-05 -7.8538644e-05 -0.03316577 -0.000404791
000220 08 cf 04 bd b0 d9 43 3b 76 a7 36 ba 32 44 4f ba
       -0.032424003 0.002988439 -0.00069677026 -0.0007906585
000230 64 45 fc b9 34 ff 1c 38 5b 85 c6 39 4d 83 a0 3c
       -0.00048116886 3.7430975e-05 0.0003786486 0.01959386
000240 db 62 4f b9 7c a3 85 b9 f1 5b 91 bc 2b 70 98 3a
       -0.00019777885 -0.00025489542 -0.017744036 0.0011630108
000250 31 85 4f bb 7e eb 08 bd 06 4f a1 b8 64 bc e3 bb
       -0.0031665082 -0.033427708 -7.6917975e-05 -0.006949948
000260 07 97 08 ba 23 13 bf 3a 54 36 d0 3c 08 81 e4 bb
       -0.0005210493 0.0014577847 0.02541653 -0.0069733895
000270 d4 cb 84 bb 6f 30 f2 38 42 19 cb bc ad 07 25 ba
       -0.0040526185 0.00011548481 -0.024792317 -0.0006295394
000280 60 73 01 39 7d f0 68 bd ad 94 96 3d a8 92 b3 3d
       0.00012345379 -0.056869972 0.073525764 0.08768207
000290 37 67 bb bc 6a 50 79 38 ce bf 9e 38 25 4d 32 b9
       -0.022876365 5.9441118e-05 7.5697535e-05 -0.00017004141
0002a0 3f 3b 16 3d 3a e2 82 bb 52 a8 96 b9 88 6c a7 39
       0.036677595 -0.0039942535 -0.00028735638 0.00031933584
0002b0 ca 16 0e ba 8b c7 84 3a f9 64 b5 bb 3c 9b 19 38
       -0.0005420266 0.0010130269 -0.0055357185 3.6622616e-05
0002c0 9e 48 a9 3a c2 b3 91 bb 82 e7 36 b9 85 c1 51 3a
       0.0012915318 -0.0044464776 -0.00017443116 0.0008001554
0002d0 11 e4 43 38 29 8a 43 bb 8d 64 04 bd 2e a0 7f bb
       4.6704026e-05 -0.0029836989 -0.032322455 -0.0039005387
0002e0 e6 51 48 bc b3 77 bf 37 ca ce 26 38 5e 25 f1 b9
       -0.012226557 2.2824714e-05 3.977007e-05 -0.00045994943
0002f0 48 8b 89 3b bb 93 21 bb f0 d3 8c bb 5b ae 1c 3a
       0.004197512 -0.0024654705 -0.004297726 0.0005976909
000300 59 4d 31 3a 17 9b f9 ba f1 c5 73 3a 6d 59 73 bc
       0.000676354 -0.0019043413 0.000929921 -0.014852864
000310 08 93 6d bb 9a 83 b2 3c 81 67 94 b8 7f b4 09 b8
       -0.0036250968 0.021791268 -7.076469e-05 -3.2831445e-05
000320 fe bd 00 b7 e1 f5 48 38 b2 30 83 3a aa cc 93 bc
       -7.6736305e-06 4.791271e-05 0.0010009019 -0.018041927
000330 9b b1 e3 ba b0 7e 78 3a b2 6b da bc 60 99 e3 39
       -0.0017371656 0.0009479327 -0.026662681 0.00043411087
000340 bf 59 06 bd d3 8e a5 ba aa 94 22 3a 2e 28 b6 bb
       -0.032800432 -0.0012631066 0.0006201962 -0.005558989
000350 45 ef d5 38 cd e8 1b ba 4d b3 4a bc 33 3f 18 bc
       0.00010201199 -0.0005947471 -0.01237185 -0.009292412
000360 85 c7 4d b8 68 12 ee b7 34 72 50 38 37 ec fc 37
       -4.9061626e-05 -2.8380382e-05 4.9697424e-05 3.0150737e-05
000370 e8 ae 04 3a 02 c9 40 bc 4f 93 aa 39 74 5f 53 38
       0.00050614635 -0.011766674 0.0003253468 5.0395218e-05
000380 f5 c4 84 3a c0 18 58 bb 45 91 9e ba 77 a3 d8 b9
       0.0010129499 -0.0032973737 -0.0012097737 -0.0004132052
000390 10 49 2d bd 64 c6 5a 3b b9 a1 a0 ba 69 f3 dc 37
       -0.042306006 0.003338241 -0.0012255228 2.633939e-05
0003a0 53 f2 8b ba d0 3e 14 ba f5 f8 00 ba e0 77 66 b8
       -0.0010677077 -0.0005655112 -0.000491991 -5.4947915e-05
0003b0 c2 71 4b be d1 f2 2a 3c 1e 83 dc 37 35 57 69 3d
       -0.19867614 0.0104338685 2.62871e-05 0.056967933
0003c0 45 d8 f1 3c 74 b4 c2 3c 0e e3 16 3e 03 ac c1 39
       0.02952207 0.023767687 0.14735052 0.00036939987
0003d0 f7 2c 67 38 f0 64 7c 39 64 3c d0 bb 73 43 cf b7
       5.511657e-05 0.00024070195 -0.0063548554 -2.4707731e-05
0003e0 c3 2e a6 3b cf 8d 4d b9 98 1f de 3a 3d 8d 5b ba
       0.0050714924 -0.00019603151 0.0016946672 -0.0008375233
0003f0 42 df 5d 3a 63 e0 57 bd 99 b4 92 3b bb 31 ac 3d
       0.0008463749 -0.052704226 0.0044770953 0.08407923

action_parameters_output_layer.bias f4 [27]
000000 32 e4 72 3e 9c cd 1b 3e 34 c4 ff 3d 97 32 27 3d
       0.23719862 0.15215153 0.12488595 0.04081973
000010 85 db 6b 3e 40 cd 3b 3e cd 13 1a 3e 9a 77 08 3e
       0.23032959 0.18340015 0.15046616 0.13326874
000020 dd 46 a9 3d 98 04 03 3e da ff 5b 3d 6f e7 4a 3c
       0.08265469 0.12794721 0.053710796 0.01238428
000030 3e df 63 3d f5 a0 8f 3e 5b 49 3f 3e 7e 32 87 3d
       0.055632822 0.28052488 0.18680327 0.066014275
000040 95 39 2a 3e 77 6f d6 3d aa af a3 3d 0d 91 58 3e
       0.16623528 0.10470479 0.0799249 0.21149082
000050 d5 27 0d 3e 0e 7c 03 3e 25 cf 1c 3e 3b 11 a3 3d
       0.13784726 0.12840292 0.15313394 0.07962271
000060 fb 0c 25 3e f6 0c 02 3e 2f 16 1e 3e
       0.16118233 0.12700257 0.1543815

action_parameters_passthrough_layer.weight f4 [27, 3]
000000 00 00 00 00 00 00 00 00 00 00 00 00 00 00 00 00
       0.0 0.0 0.0 0.0
000010 00 00 00 00 00 00 00 00 00 00 00 00 00 00 00 00
       0.0 0.0 0.0 0.0
000020 00 00 00 00 00 00 00 00 00 00 00 00 00 00 00 00
       0.0 0.0 0.0 0.0
000030 00 00 00 00 00 00 00 00 00 00 00 00 00 00 00 00
       0.0 0.0 0.0 0.0
000040 00 00 00 00 00 00 00 00 00 00 00 00 00 00 00 00
       0.0 0.0 0.0 0.0
000050 00 00 00 00 00 00 00 00 00 00 00 00 00 00 00 00
       0.0 0.0 0.0 0.0
000060 00 00 00 00 00 00 00 00 00 00 00 00 00 00 00 00
       0.0 0.0 0.0 0.0
000070 00 00 00 00 00 00 00 00 00 00 00 00 00 00 00 00
       0.0 0.0 0.0 0.0
000080 00 00 00 00 00 00 00 00 00 00 00 00 00 00 00 00
       0.0 0.0 0.0 0.0
000090 00 00 00 00 00 00 00 00 00 00 00 00 00 00 00 00
       0.0 0.0 0.0 0.0
0000a0 00 00 00 00 00 00 00 00 00 00 00 00 00 00 00 00
       0.0 0.0 0.0 0.0
0000b0 00 00 00 00 00 00 00 00 00 00 00 00 00 00 00 00
       0.0 0.0 0.0 0.0
0000c0 00 00 00 00 00 00 00 00 00 00 00 00 00 00 00 00
       0.0 0.0 0.0 0.0
0000d0 00 00 00 00 00 00 00 00 00 00 00 00 00 00 00 00
       0.0 0.0 0.0 0.0
0000e0 00 00 00 00 00 00 00 00 00 00 00 00 00 00 00 00
       0.0 0.0 0.0 0.0
0000f0 00 00 00 00 00 00 00 00 00 00 00 00 00 00 00 00
       0.0 0.0 0.0 0.0
000100 00 00 00 00 00 00 00 00 00 00 00 00 00 00 00 00
       0.0 0.0 0.0 0.0
000110 00 00 00 00 00 00 00 00 00 00 00 00 00 00 00 00
       0.0 0.0 0.0 0.0
000120 00 00 00 00 00 00 00 00 00 00 00 00 00 00 00 00
       0.0 0.0 0.0 0.0
000130 00 00 00 00 00 00 00 00 00 00 00 00 00 00 00 00
       0.0 0.0 0.0 0.0
000140 00 00 00 00
       0.0

action_parameters_passthrough_layer.bias f4 [27]
000000 00 00 00 00 00 00 00 00 00 00 00 00 00 00 00 00
       0.0 0.0 0.0 0.0
000010 00 00 00 00 00 00 00 00 00 00 00 00 00 00 00 00
       0.0 0.0 0.0 0.0
000020 00 00 00 00 00 00 00 00 00 00 00 00 00 00 00 00
       0.0 0.0 0.0 0.0
000030 00 00 00 00 00 00 00 00 00 00 00 00 00 00 00 00
       0.0 0.0 0.0 0.0
000040 00 00 00 00 00 00 00 00 00 00 00 00 00 00 00 00
       0.0 0.0 0.0 0.0
000050 00 00 00 00 00 00 00 00 00 00 00 00 00 00 00 00
       0.0 0.0 0.0 0.0
000060 00 00 00 00 00 00 00 00 00 00 00 00
       0.0 0.0 0.0
