RL4E2E/results/pptod/2.0k1/episode_3500/actor.pt (torch, 20755 bytes, 4 tensors)

layers.0.weight f4 [128, 30]
00000000: df96 393d a554 b53e 0a16 dc3b bb53 11bf
00000010: e65e 3cbe 3b3d 07bf fb14 d8be 3eb3 043e
00000020: 5490 debd c6a2 eabe 005e 8e3c 55f8 ee3e
00000030: 5858 0bbe 08e6 ca3d 9943 a9be dd6c 05bf
00000040: 6874 5bbd 91ee 363e a2f3 54be 7bed ebbe
00000050: e857 09be b6b6 4d3e a027 58bd fd0a 683e
00000060: e719 e4be 6d51 06bf 0510 d3be feff ccbd
00000070: bcc9 6fbe c31b ecbe 315f 86be 89eb dfbe
00000080: 9868 3cbe 631d 4f3e 815a 5bbe ca43 01be
00000090: e03d 11be 0d90 c23c 4217 0bbd c449 113d
000000a0: 7010 14be 30cf 74be 729b 083d 9122 d33e
000000b0: 030f 583e 7df0 8c3c dee3 54be 80de fdbd
000000c0: c4b4 2a3c aa4c d7be 5db2 c33e 66b8 873c
000000d0: 0d7e 523e 69ff 273d d559 4a3d bf85 60be
000000e0: 87a0 133e 313b 94be e140 43bd b155 b8bd
000000f0: d526 d5be fc47 583f c7f4 243f f78a 30bf
00000100: 5c21 243e 978d 1fbf 41af b6be f9d9 0c3e
00000110: 2cca 82be 1c44 763e d2b8 9abe 9b32 ed3c
00000120: 5547 72bc cc38 90be 245e aa3f c1ba 0d3f
00000130: 0b18 52bd 170b c03e 17fb 22be ecac 083f
00000140: 91d3 c33e e38a 333f c423 083e 2bd6 b73f
00000150: b466 46be 7448 a7be 6bc2 9bbe 0fdc ddbd
00000160: 9753 15be 6db4 08be 8791 bb3c 313f dcbe
00000170: feb8 8fbc 70f0 1e3e 42ba 883e 9b90 babd
00000180: 0a2b 35be 7534 523f b950 433e c330 ad3d
00000190: d349 a43e 2002 0a3f c8c1 503e 9e04 843e
000001a0: 5e46 f53e e8f4 c13e a7db 5cbe f2dd 02be
000001b0: 12e8 e23d cf0f 74be 20a6 3b3f a55d c73e
000001c0: 5f62 9ebb 2164 783f 5c97 44be 5f8e e23e
000001d0: 6396 0b3e 89a1 ac3c 8e8c 5b3f b363 b63c
000001e0: 4f51 bf3e 903c 08be 589b fcbd 587a f6bd
000001f0: 3ef6 173e ed2e abbe 26b6 1dbf 8496 203e
00000200: 0b94 06bb 6007 f0be 85c4 7bbd c4d9 acbd
00000210: fdba edbe 1db9 4fbf 9213 8d3d bd16 593c
00000220: e513 94be 9b51 8fbd 17f9 bdbe ff81 b13d
00000230: 05bd 6bbe 0d78 6ebe c746 7bbe ecc0 31be
00000240: 4fef e7be 020e babe 96df e1be 73bc 8e3d
00000250: 3b17 b8be a623 cabe b3f7 a0be 989f e9bd
00000260: 16d2 99be 43dc 35bc 9e7d a03e 70a0 30be
00000270: c919 07bd b48a d8be 2b19 473e b143 17be
00000280: 35b1 86bc a147 fe3e ed37 5abc ed8a 49be
00000290: 55a7 a83e fa09 d63d 373f 65bd ce9e bbbe
000002a0: 5223 c3be f229 22be a825 99bd 2602 5d3e
000002b0: c659 823e 72b1 2b3e dec4 dbbd 2de7 763e
000002c0: afdf c3be 7415 e8be 4790 913e dde8 2cbe
000002d0: 359d 4ebb 19e6 3d3f 564c 89bf 774c 62bd
000002e0: 495f ba3e fc45 b4be f31c 533f 7428 19bf
000002f0: 306f 033f a42d 263f 6f53 4cbf 2307 e8be
00000300: aa91 4e3f 1d80 773d 723b 4c3c 2eaa 90be
00000310: f4b6 8c3f 4aff f13d 5e77 343e cdb2 703f
00000320: 2e70 df3e d7bd 353f cd81 0c3f 25ca cf3e
00000330: 5e5f 873d 78d1 aa3e 6abf 023f cdbe 3ebe
00000340: f00b e53e f71b 923f 4650 b3bd 464a 7c3c
00000350: cd3a 983f 944a 73bc c7fd e7be 0618 823e
00000360: e661 053f 4cbc 79be d50e 42bf 0a05 843e
00000370: 36be 7abf ed57 35be dcb7 a9be 60ce 36bd
00000380: efd4 11be 81ba 46be c14b 8bbe 48a8 373f
00000390: 6f5b abbe 09ea 2d3d ee47 6bbe b225 5cbf
000003a0: a40e 023f a566 ac3f 75e5 d4bd 1f9a 08be
000003b0: 9a9e bbbd efde 50be 6f4a 3dbe 6474 0abd
000003c0: b1b8 80bd 6c29 4bbe 7e45 dbbd 4a27 fbbd
000003d0: 5c01 76be eb1c 1bbe 926f a03e e449 d4be
000003e0: 25d7 253e 12ac 10bd 5d57 9c3d 738d 073e
000003f0: e875 423d 0221 183e 10c5 58be 1372 cebd
0.045309898 0.3541614 0.0067164944 -0.5676839 -0.18395576 -0.52827805 -0.42203507 0.12959
-0.10867372 -0.4582731 0.017378807 0.46673837 -0.13607919 0.09907156 -0.33059385 -0.5211924
-0.05357781 0.17864443 -0.20796064 -0.4607962 -0.1341244 0.2008923 -0.052772164 0.22660442
-0.44551012 -0.52467996 -0.4122316 -0.10009764 -0.234168 -0.4611493 -0.262445 -0.43734387
-0.18399274 0.20226054 -0.21421243 -0.12623516 -0.1418376 0.02375033 -0.033957727 0.03547074
-0.14459395 -0.23907161 0.03335137 0.4123731 0.21099477 0.017204517 -0.2079005 -0.12395954
0.010419074 -0.42050678 0.38222018 0.01656742 0.20555897 0.041015062 0.049402077 -0.2192602
0.14416705 -0.2895141 -0.047669295 -0.09000719 -0.4163119 0.8448484 0.64436 -0.68962044
0.1602835 -0.62325424 -0.35680583 0.13755025 -0.2554487 0.24049419 -0.30219132 0.028954795
-0.014787515 -0.28168333 1.330998 0.5536309 -0.05129246 0.3750846 -0.15916096 0.5338886
0.3824735 0.701338 0.13294894 1.4362234 -0.19375116 -0.32672465 -0.30421767 -0.108329885
-0.14582668 -0.13350077 0.022896541 -0.4301696 -0.017544266 0.15521407 0.26704603 -0.091096126
-0.176922 0.82111293 0.19073762 0.08456566 0.32087573 0.5390949 0.20386422 0.25784773
0.47905248 0.3788216 -0.21568166 -0.12779978 0.1107942 -0.23834155 0.7330036 0.38938633
-0.004833504 0.97027785 -0.19198364 0.44249246 0.13631587 0.02107312 0.85761344 0.022264337
0.3736672 -0.13304353 -0.12334317 -0.12035054 0.14840028 -0.3343424 -0.6160606 0.15682417
-0.0020535018 -0.46880627 -0.061466713 -0.08439973 -0.46431723 -0.81141835 0.06888498 0.01325005
-0.28921428 -0.06997987 -0.37104103 0.08667373 -0.23021324 -0.23287983 -0.24538718 -0.1735875
-0.45299765 -0.36338812 -0.44115895 0.069695376 -0.35955223 -0.39480323 -0.3143898 -0.11407393
-0.30043095 -0.011099878 0.31345838 -0.17248702 -0.032983575 -0.42293322 0.19443195 -0.14771916
-0.01644192 0.49664024 -0.013318998 -0.19681902 0.32940164 0.10451122 -0.05596849 -0.36644596
-0.38112885 -0.15836313 -0.074778855 0.21582851 0.25459117 0.16766909 -0.10730909 0.24111624
-0.38256595 -0.45328867 0.28430387 -0.16885705 -0.0031526808 0.74179226 -1.0726421 -0.055248704
0.36400822 -0.35209644 0.8246605 -0.5982735 0.51341534 0.6491339 -0.7981481 -0.45317945
0.80691016 0.060424913 0.012465345 -0.28254837 1.0993333 0.11816271 0.1762366 0.9402283
0.43640274 0.709928 0.5488556 0.40583912 0.06609987 0.33362937 0.51073325 -0.18627472
0.4473567 1.1414784 -0.08755545 0.015398568 1.1892945 -0.014849324 -0.45310804 0.25408953
0.52102506 -0.24388236 -0.7580388 0.25785094 -0.9794649 -0.17709322 -0.33148086 -0.04463041
-0.14241384 -0.19407083 -0.27206233 0.7174115 -0.33468196 0.04245952 -0.22976658 -0.8599502
0.5080359 1.3468825 -0.10395328 -0.13340043 -0.0916111 -0.20397542 -0.18485425 -0.033802405
-0.06285227 -0.1984002 -0.10706614 -0.12263353 -0.24023956 -0.1514775 0.3133512 -0.41462624
0.16195352 -0.03532035 0.07633851 0.13237552 0.047475725 0.14856341 -0.21168923 -0.10080352

layers.0.bias f4 [128]
00000000: cc0b 1c40 0000 0000 8f0d 173f bb6e 0640
00000010: 4110 e53f be7d f8bc 2121 4740 609d 443f
00000020: 7416 fabc fe62 4ac0 9df0 0540 54eb d53e
00000030: eb65 2740 e946 0340 24d5 fe3e 65f9 db3f
00000040: 97a6 1bc0 af9f 0d40 0f38 713e a582 1840
00000050: 8919 5e40 4fd6 32c0 89fe 1640 d62c d73e
00000060: b90a 1240 0efb 0b40 4728 0e40 725a 3540
00000070: 3718 37c0 3bbb 06c0 07ac ad3e 73e0 0c40
00000080: 0000 0000 0000 0000 0000 0000 1791 3440
00000090: 4228 50c0 08a3 2040 0000 0000 200d 0040
000000a0: ffde 66c0 d5ef e43f f46e 1340 d931 57c0
000000b0: 0000 0000 778c 1ec0 4c91 f53e 0000 0000
000000c0: 587c 3040 facd 0840 9dda e43f 0000 0000
000000d0: 6282 e73e 78b7 03bd f5ba 493f e007 f83f
000000e0: e6f4 113f a4f0 0c40 013a 1740 b46c 4fc0
000000f0: 78e3 ff3e 4d9b 2a40 6568 90bd 8e38 3bc0
00000100: c08b 1940 4bcf 2c40 1551 fd3f 2260 1b40
00000110: 554f 1540 85f7 0d3f 63eb 0c40 2cd3 0a40
00000120: b53b 4740 bcd3 7c3f df4f 13c0 dd69 163f
00000130: 786e 64bd 57e1 f83f b4b7 4f40 af99 1840
00000140: 9593 1c40 5dbe 3ac0 acb3 2840 b1c8 0dbd
00000150: 3648 33c0 535f 5540 0000 0000 0000 0000
00000160: 0000 0000 b2fe 1840 9c02 2ec0 1f93 0e40
00000170: 44cd 39c0 4d67 41c0 be51 2dc0 220c 0e40
00000180: 767f 0240 c709 53c0 3a67 973e 3671 783f
00000190: ab82 053f f415 0640 0f76 2440 4835 2dc0
000001a0: 3aec f83d 2301 633f edac 1840 ac07 3340
000001b0: 15bb 2840 6fe3 41c0 fd47 903f ff51 2840
000001c0: 30eb 3dc0 b9ac 33c0 71a7 fb3f dda3 26c0
000001d0: 0000 0000 6fa9 2640 3d2a 473f 946b 8fbc
000001e0: ab1a 4840 06d5 0e40 eefd 1440 e6cb 0f40
000001f0: 0000 0000 0dfe de3e d3e9 143f 91a7 4c40
2.43822 0.0 0.59005064 2.1005085 1.7895585 -0.030333396 3.111397 0.76802635
-0.030528285 -3.162292 2.0928109 0.41781104 2.6155956 2.051203 0.49771988 1.7185484
-2.4320428 2.2128713 0.23556541 2.382974 3.4703085 -2.7943304 2.3592856 0.42026395
2.2819045 2.1871982 2.2212083 2.8336453 -2.860853 -2.1051776 0.3392031 2.2011993
0.0 0.0 0.0 2.8213556 -3.2524571 2.5099506 0.0 2.000801
-3.6073606 1.7885691 2.303647 -3.3624175 0.0 -2.4773233 0.47962415 0.0
2.7575893 2.1375718 1.7879215 0.0 0.45216662 -0.03215739 0.788009 1.9377403
0.5701431 2.2021875 2.3629153 -3.2410097 0.49978232 2.6657288 -0.07051162 -2.9253268
2.3991547 2.7001522 1.9790369 2.4277425 2.332967 0.5545581 2.2018669 2.169139
3.1130192 0.9876058 -2.30175 0.58755285 -0.055769414 1.9443768 3.2455873 2.38438
2.4465077 -2.9178689 2.6359663 -0.034615222 -2.8012824 3.3339431 0.0 0.0
0.0 2.3905454 -2.7189093 2.2277296 -2.9031534 -3.02193 -2.7081141 2.2194905
2.0390296 -3.2974718 0.29570943 0.97047746 0.5215251 2.09509 2.5697057 -2.706377
0.12154432 0.8867361 2.3855546 2.7973433 2.6364186 -3.0295064 1.1271969 2.6300046
-2.9674797 -2.8074172 1.9660474 -2.6037514 0.0 2.6040914 0.77798826 -0.017507352
3.1266277 2.231752 2.3279986 2.24682 0.0 0.435532 0.5816929 3.1977274

layers.1.weight f4 [6, 128]
00000000: f742 82be 7be0 a9bb 4476 72bf 571e 39bf
00000010: f7e0 26be 50f6 99bc f638 8fbf 1903 04c0
00000020: 8db9 30bd a470 c23e aa0d e3bd cffe 0140
00000030: 6229 52be fff5 10bf 8f17 d83f 1281 2dbe
00000040: 2f52 143e 2842 01bf 5fb6 703f de1c 14bf
00000050: cb73 f5bf 2513 3e3e 27b2 5dbf 962d 39c0
00000060: 72d3 3fbe 6a50 efbe 32c3 88be d2b4 d8bf
00000070: 636c 403e 7a99 363d feab 0abf b8e1 14bf
00000080: f565 153d b52a 91bd 99fd 90bd 7c8f c4be
00000090: 7cff be3e df76 37be e4a5 59bc d62d 06be
000000a0: 5c90 eb3e 251c 11be 3736 10be 65c3 073f
000000b0: 9b97 16bd b566 613e a72c 66bf 7057 f8bc
000000c0: be02 1fbe f650 b6bd 5d86 66bf ca3f 89bd
000000d0: 7879 a9be 4ed6 193d b95c c0bf 25df bbbe
000000e0: 1609 b93f 124b 87bf ebf9 77be 7038 293f
000000f0: 1990 29bf e4ef e1be a113 eabb 0e3f 623e
00000100: 8046 70be d4a2 91bf d0b7 0dbe 3076 7ebe
00000110: ebc9 0abf 7021 3fbf bd5a e7be 9779 f6be
00000120: 4a1f 25bf 0ea2 e4bd 45cc a03d f7d4 4abf
00000130: 8938 963c 8442 ecbe 67a4 87bf e963 91be
00000140: 55ad 5bbe 4090 d23e b052 cdbe 664c 4b3d
00000150: cce9 fb3d 4903 81c0 5daf 13bd 1836 783d
00000160: fabc 523c eadb 9fbe e334 b73e 009a 86bd
00000170: fd45 643e 4dbf 603d 3564 123e 61bb 2bbf
00000180: 75f7 2dbe 7bba 2b3f d6d9 15bf 4c87 f7be
00000190: e120 2ec0 5198 25be 0c3e 3dbe b9c2 cf3d
000001a0: 893c 32bf 353d 21bf f410 02c0 ccca e4bd
000001b0: ebb4 86bd a825 f03e ca4b 52bf ae01 83be
000001c0: 5885 b23e 06c3 d53e 23b4 30be 5ec1 b43e
000001d0: ee94 3c3d 4b7f 14bf 2063 93bf 0456 533d
000001e0: fb03 2fbf 3b0d febe a147 26be 4eb2 27bf
000001f0: a638 883b dbf9 1ac0 9b25 09bf 9019 94bf
00000200: 0aec 33be e637 45bd e161 f73d a2b7 c6be
00000210: ac7b 6fbc dda5 913d 5c1d 99bf 298e be3e
00000220: 7fdc 33bb af10 163e 879f 82bc 722c 483e
00000230: e9b8 cdbe 3870 09bf 6501 7a3e 197e d13c
00000240: 06cf 10bb 870a 30bf 7d8a 8a3f 19af 3bbf
00000250: 0024 6cc0 f224 7a3d fa1c d7be 36ed 87bc
00000260: 78c1 11be 9ad7 7abf 627e 14be 280e 46bf
00000270: 0636 363e a67a 64bd f32c a4bc 6375 f2be
00000280: 78c0 32bd 2503 ab3c b051 a5bc 2b3f 65bf
00000290: 847d 043e 607e 01be f539 05bd adc9 d3bc
000002a0: 4098 993e 7794 583c 1f51 41bd f267 383e
000002b0: 35dd 433c 5dfe 633d c398 083f 86c9 4a3c
000002c0: 0c35 63be 2449 06be a1e6 5bbf c931 a0bd
000002d0: fbf8 343f 8ddf 08bd 544f 373f bb03 e0bf
000002e0: 746b 533e 6b32 6fbe 4dc2 3ebe d3ae 9b3e
000002f0: bf14 083d e8e2 abbe 5002 a0bd 5274 7a3e
00000300: ef43 88bf 3cba 87bf bc72 01bd 2409 6bbe
00000310: 1426 24bf 37ad 6b3e 0ea2 70be 7639 8bbf
00000320: 7584 dcbf aaf9 f5be fcd6 233b 6f9e b0be
00000330: 92b5 893d f5f9 4bbf 1ab4 c3bf 574b 82be
00000340: 064c f7bd b3ee 953e 4b1c 35bf 74ba d73b
00000350: b08f f93d 1043 04c0 83b2 e13c c687 863d
00000360: 9bda 4e3d 5f51 61bf 80e1 4f3e de46 42be
00000370: 6394 233e 7f7c ca3d 32dc b43d 89b0 34bf
00000380: c8d2 6cbc 2191 2f3e 22a4 723d a0b3 41bf
00000390: 0d0d e5be bfc7 89bd 5651 33be ec9e 0b3e
000003a0: d5e9 263f 1a22 62bf 34f7 06c0 ff7f 02be
000003b0: 4bee c1bd a590 4e3e e94a 05bd 1ad3 c8be
000003c0: 3830 7b3e 9421 6d3e 73ac 4abd f396 f43d
000003d0: 8764 af3d ff59 39bf 2d61 d43e de27 453a
000003e0: 1a6c 8fbf 56c1 66bf 25e3 38be 4ee3 46bf
000003f0: 7410 653c ddf9 91be a632 95bf 1429 9abf
-0.25441715 -0.005184231 -0.9471171 -0.7231192 -0.16296755 -0.018794209 -1.1189258 -2.062689
-0.043145705 0.37976563 -0.110865906 2.0311773 -0.20523599 -0.5662536 1.688219 -0.16943768
0.14484476 -0.5049157 0.94028276 -0.5785655 -1.9175962 0.1856199 -0.86599964 -2.8934073
-0.18733004 -0.4674104 -0.26711422 -1.6930182 0.18791346 0.04457996 -0.5416869 -0.5815692
0.036474187 -0.07088224 -0.0707962 -0.3839072 0.37304294 -0.1791644 -0.01328418 -0.13103423
0.46008575 -0.14170893 -0.14083181 0.53032523 -0.036765676 0.22011836 -0.89911884 -0.030315131
-0.1552839 -0.08902161 -0.9004877 -0.0670162 -0.33100486 0.037557893 -1.5028297 -0.36693683
1.4455898 -1.0569785 -0.2421643 0.6610174 -0.662355 -0.44128335 -0.007143453 0.22094366
-0.23464394 -1.1377816 -0.1383965 -0.24849772 -0.5421435 -0.74660397 -0.45186415 -0.4813964
-0.6450087 -0.11163722 0.07851461 -0.7923121 0.018337505 -0.46144497 -1.0597047 -0.28396538
-0.2145284 0.4112568 -0.40102148 0.049633406 0.123004526 -4.031651 -0.03605591 0.060598463
0.012862438 -0.3122247 0.35782537 -0.06572342 0.22292323 0.05486994 0.14296038 -0.6708279
-0.16988929 0.6708142 -0.58535516 -0.4834541 -2.7207568 -0.16171385 -0.184807 0.10144562
-0.6962362 -0.6298402 -2.0322847 -0.11171493 -0.06577476 0.4690373 -0.82146895 -0.2558722
0.34867358 0.41750354 -0.17256217 0.35303777 0.046040468 -0.58006734 -1.1514626 0.051595703
-0.6836545 -0.4961947 -0.16238262 -0.65506446 0.0041571436 -2.4215 -0.53573006 -1.1570301
-0.1757051 -0.048149012 0.12079216 -0.38811976 -0.014616888 0.07111714 -1.1962085 0.37217835
-0.0027444658 0.14654802 -0.01594521 0.19548205 -0.40180138 -0.5368686 0.24414594 0.025572823
-0.0022096052 -0.68766063 1.0823513 -0.7331405 -3.6896973 0.06107039 -0.42014295 -0.016592603
-0.14233959 -0.9798523 -0.14501336 -0.7736535 0.17794046 -0.05578103 -0.020040965 -0.47355184
-0.043640584 0.020875523 -0.020180553 -0.8954951 0.12938505 -0.12645864 -0.032525975 -0.025853002
0.2999897 0.0132189905 -0.047196504 0.18008402 0.011954595 0.0556625 0.53358096 0.0123771485
-0.22188205 -0.13113838 -0.85898787 -0.07821996 0.70692414 -0.03341632 0.7160542 -1.7501138
0.20646459 -0.23359077 -0.18628807 0.30406818 0.03322291 -0.33571553 -0.07812941 0.24458435
-1.0645732 -1.0603709 -0.03160356 -0.22952706 -0.641206 0.23015295 -0.23499319 -1.0876911
-1.7227923 -0.4804204 0.0024999967 -0.34495875 0.06724085 -0.7967828 -1.5289338 -0.25448105
-0.12075047 0.29283676 -0.70746297 0.0065835062 0.12185609 -2.0665932 0.027550941 0.065688655
0.050501447 -0.8801479 0.20300865 -0.18972346 0.15974574 0.09887027 0.088310614 -0.7058187
-0.014454551 0.17145206 0.05923856 -0.7566471 -0.4473652 -0.06727552 -0.17511496 0.13634843
0.6520055 -0.88333285 -2.108838 -0.12744139 -0.09469279 0.20172365 -0.032542143 -0.39223558
0.24530113 0.2315734 -0.049480867 0.11942854 0.08564096 -0.7240295 0.4148039 0.0007520894
-1.1204865 -0.9013876 -0.18055399 -0.7769059 0.0139809735 -0.28510943 -1.1656082 -1.2043786

layers.1.bias f4 [6]
00000000: 69db d6bf 8fa2 abbf 0000 0000 0000 0000
00000010: 0000 0000 0000 0000
-1.6785709 -1.3408984 0.0 0.0 0.0 0.0
