RL4E2E/results/pptod/2.0k1/episode_500/actor_param.pt (torch, 18917 bytes, 6 tensors)

layers.0.weight f4 [128, 3]
000000 5b 5a 55 3e 58 4b 8b bd c1 99 d7 3f 64 8c af 3e
       0.20835249 -0.0680148 1.6843797 0.34286797
000010 0f 86 77 3f 40 00 23 3f 41 e2 51 3d 65 7d 8f be
       0.9668893 0.63672256 0.051241163 -0.28025356
000020 d1 24 8d bf 61 2e bb 3f 33 ae 8c bf 75 f1 95 be
       -1.102686 1.4623529 -1.0990661 -0.2928578
000030 74 8c 08 c0 c7 67 9e be 53 77 f1 be b4 df 2a 3e
       -2.1335726 -0.3093855 -0.4716135 0.16686898
000040 61 cf ad 3e 79 af 68 bf 2e d5 14 bf 84 23 3f bf
       0.3394728 -0.9089275 -0.58137786 -0.7466357
000050 9c 3e b2 3e 82 ba 65 3f 99 c0 84 bf ca 0f 5e 3f
       0.34813392 0.89737713 -1.0371276 0.8674284
000060 77 99 65 bf ac b9 5f 3f 81 92 08 3f 36 4d 7d 3e
       -0.89687294 0.8739269 0.5334855 0.24736485
000070 a3 1f 11 3e bd 3d 81 be ff b4 c4 be 65 9c 3a bf
       0.14172225 -0.25242415 -0.3841934 -0.7289489
000080 0e 59 13 3e c4 f3 46 3f 5b 8b 0b 3f ba 87 0e 3e
       0.1438944 0.77715707 0.54509515 0.13918963
000090 5d 4d 86 3f 1b b0 c7 bf ee 5c 51 3f bc 38 1c 40
       1.0492359 -1.5600618 0.81782424 2.4409628
0000a0 2e a1 56 3e 0b fd a1 3d 4a 20 88 3f c8 bd 21 3f
       0.20959923 0.07909592 1.0634854 0.6318021
0000b0 31 ad 9a bf c7 9c 0f be 21 54 69 3e 41 f7 27 3f
       -1.2084104 -0.1402465 0.22785999 0.65611655
0000c0 05 e3 cf 3f 25 e7 0c 3e fd f6 4a be 0a 0f af 3f
       1.6241156 0.1376005 -0.19820781 1.3676465
0000d0 0f c3 09 3f c2 09 50 3f b4 ce 09 bf 73 46 ac 3f
       0.5381326 0.8126489 -0.5383103 1.3458999
0000e0 61 5e a0 3f e2 9e 37 3f 5c e1 05 be 55 c2 56 bb
       1.2528802 0.7172681 -0.13074249 -0.003276964
0000f0 39 d3 41 3e 27 78 b7 be 8d 13 e8 bf eb 9e 6d be
       0.18928231 -0.35833856 -1.8130966 -0.23205154
000100 e3 55 34 3f 3c 2c 1c 3f dd 0d ef be d4 61 2b bf
       0.7044355 0.61004996 -0.46690264 -0.6694615
000110 bd 58 04 bf 25 68 66 3d 6a 6c 63 3d 04 c4 1e 3f
       -0.51697904 0.056251664 0.055523314 0.62017846
000120 16 4a 4e 3f e2 2e 52 3f 37 11 30 3f 24 eb b6 bc
       0.80581796 0.8210279 0.6877627 -0.02232892
000130 e0 05 33 3f 49 cd 97 be 5c cf bc be e8 6e ec be
       0.6993084 -0.29648808 -0.36876953 -0.46178365
000140 0c 94 c2 3f 46 b1 ea be d5 33 bc 3f ac 9a 8c 3f
       1.520143 -0.45838374 1.4703318 1.0984702
000150 49 14 b4 3d 12 20 ab 3e 88 0d 93 be 68 2a 13 3f
       0.087929316 0.33422905 -0.2872126 0.5748658
000160 17 9a 4b 3f 7f 9e ae 3f 2b 54 d2 3c 7d 91 8b be
       0.79532 1.3642119 0.0256749 -0.27259436
000170 fe 5a 31 bd 72 44 2b 3f 20 71 30 bf 43 e1 70 bf
       -0.043299668 0.66901314 -0.68922615 -0.9409372
000180 f9 6e 55 3f d2 66 3d bd a3 98 b9 bf 80 b0 6e bf
       0.83372456 -0.046240635 -1.4499706 -0.9323807
000190 39 49 99 3f 65 fa 7d be 51 e9 13 bd 66 07 16 3f
       1.1975471 -0.24802549 -0.03611118 0.5860504
0001a0 e4 5d 38 3f c1 1d dd be e2 b8 1f 3f 77 39 70 be
       0.72018266 -0.43186763 0.62391484 -0.23459421
0001b0 83 6d b2 be 75 b2 4f 3f 63 22 cb 3e d8 a0 34 be
       -0.34849176 0.8113168 0.39674672 -0.17639482
0001c0 c6 f2 89 bf 77 9f 95 bf 4b ff 12 40 84 fa 06 be
       -1.0777214 -1.168929 2.2968318 -0.13181502
0001d0 8b 9e 73 3f ee 25 37 bf 3f 33 70 bf 4e 61 71 be
       0.9516379 -0.7154225 -0.93828195 -0.23572275
0001e0 ff 21 9a be dc 38 69 3f 58 21 0c 40 12 f0 d2 be
       -0.30104062 0.91102386 2.1895351 -0.41198784
0001f0 ea 75 db bf dc b0 c8 3f ec 6a 75 3f f7 26 d0 be
       -1.714536 1.5678973 0.95866275 -0.40654728
000200 ed d6 7f 3c d9 a8 75 3f 89 0f a3 3f 36 31 08 3f
       0.015615207 0.95960766 1.2739116 0.5320009
000210 9d 7a 3f 3f dc df a4 be bd fd 93 3f 59 84 17 3f
       0.7479647 -0.3220204 1.156181 0.5918632
000220 e7 e4 df bd 74 d3 60 bf 48 82 7f 3d 8b eb 83 3e
       -0.109323315 -0.8782265 0.062380105 0.25765643
000230 6c 43 51 bf fe 3d 5a bf 0f 95 0f bf 2c 46 8f bf
       -0.817435 -0.8525084 -0.5608682 -1.119329
000240 69 5c 98 3f 29 f7 13 be d6 76 dc 3c b0 a5 a5 bf
       1.1903201 -0.14449753 0.026912134 -1.2941189
000250 60 9d 91 3f 8d 90 cd 3e 5d 6e d8 3e e5 dd 90 3f
       1.1376152 0.40149346 0.422717 1.1317717
000260 12 4e c1 bd 27 b9 b4 3e 3f 00 50 bf f3 28 0e 3f
       -0.09438719 0.3529751 -0.81250376 0.55531234
000270 31 e6 bf 3e 1b 48 40 bf b4 55 44 3f d1 ea 83 3e
       0.3748031 -0.75110024 0.7669327 0.25765088
000280 b8 cc 4d 3f 8f 22 f3 3e 28 39 38 3c 2e db 31 3f
       0.803905 0.47487304 0.011244096 0.69475067
000290 6e bf 04 bf f9 fe 4f 3d 80 91 1b 3f 77 bc 99 3c
       -0.518546 0.05078027 0.6076889 0.018766625
0002a0 85 58 ad bf 88 3d 03 be 15 e7 8e 3f 13 28 4a bf
       -1.3542639 -0.12816441 1.1164271 -0.789674
0002b0 b3 17 be be 3b 65 16 bf 4b df 7b be fb cf 01 bf
       -0.37127456 -0.58748215 -0.24596898 -0.5070798
0002c0 46 6b be bf 1f 6c 45 3f e2 75 72 3f b0 b6 a2 3e
       -1.4876487 0.77118105 0.94711125 0.31780005
0002d0 48 e3 d0 3e 85 70 d5 3d f4 d7 e3 bd f3 64 bc 3e
       0.40798402 0.10421852 -0.11125174 0.36795768
0002e0 a0 4f b4 bf f2 36 eb 3d c0 2c 2a 3e f8 c0 e0 3e
       -1.40868 0.11485089 0.16618633 0.43897223
0002f0 83 cc 48 3f 86 41 d3 3e 85 9f 96 be 56 ed 1e 3e
       0.7843706 0.41260928 -0.2941858 0.15520224
000300 4a 4e 64 3f d1 3f d7 bc 97 b9 71 bf 37 df 91 3e
       0.8918196 -0.026275547 -0.9442381 0.28490612
000310 df 4a 91 3e 20 a2 10 3f aa 27 7b bf 65 c2 2d bf
       0.28377435 0.56497383 -0.981074 -0.6787475
000320 f9 7d 64 3d 62 c1 92 3c b1 d1 cf 3e c7 b7 03 bf
       0.0557842 0.017914478 0.4058967 -0.51452297
000330 6b 2d 40 bd 05 93 9d 3f 7a 95 98 3f 28 36 be 3d
       -0.046918314 1.2310492 1.1920617 0.09287673
000340 ea 18 a6 3e 32 1a ef bf c7 65 7e 3f 85 42 d1 be
       0.32440883 -1.8679869 0.9937405 -0.40871063
000350 d8 09 bc be 6f fa db be 6e ff 78 bf 80 06 e9 bf
       -0.3672626 -0.42964503 -0.97264755 -1.8205109
000360 a4 f9 95 3f 1d de 90 bf e2 cc 9c 3e 20 ed 25 bd
       1.1716809 -1.1317784 0.30625063 -0.040509343
000370 d8 9a df bf 49 47 86 bf bb 52 5c 3f 43 f8 4b 3d
       -1.746913 -1.0490505 0.86063737 0.049797308
000380 95 6c 38 bf b3 cb 61 be 1a 52 23 3f 59 7b 95 3f
       -0.72040683 -0.22050361 0.6379715 1.1678268
000390 32 69 70 bf 31 94 7b 3e b0 14 f0 3d 5c 30 eb 3d
       -0.93910515 0.2456825 0.11722696 0.11483833
0003a0 d9 84 f4 bf 9c 94 d7 be d9 0b 70 3b 19 85 97 bf
       -1.9103042 -0.42105567 0.0036628156 -1.1837493
0003b0 fc ee 9c 3e b8 f4 16 3f bd aa 8c 3f 09 1c 29 bf
       0.3065108 0.5896716 1.0989605 -0.66058403
0003c0 8d b6 e6 bc 41 e2 7e 3f 2f 25 9a 3e 38 30 9a 3e
       -0.028163219 0.99563986 0.30106494 0.30114913
0003d0 e1 b8 7c bf e4 bf bd be 22 3b 90 3f e1 5b d9 3f
       -0.987196 -0.37060463 1.1268046 1.6981164
0003e0 a6 2b 1b bf 23 9f a3 bf 40 18 dc be fb 5b de 3e
       -0.6061348 -1.278294 -0.4298725 0.4342955
0003f0 6f 9c 9a bf 19 93 f9 be 61 f2 22 bf 51 e4 36 3f
       -1.207899 -0.4874504 -0.6365109 0.71442133

layers.0.bias f4 [128]
000000 48 e6 a7 3d d7 d7 dc 3d 79 9f b6 bc da ac 9e bd
       0.081982195 0.10783356 -0.02229284 -0.077478126
000010 00 00 00 00 06 60 5d bd bb 23 2c 3d 73 e7 c3 bd
       0.0 -0.054046653 0.042026263 -0.0956563
000020 65 86 33 3d eb 2b 85 bc f2 8f bd 3c e6 2b 67 3d
       0.04382934 -0.016256293 0.023139928 0.05643835
000030 79 8c da bd c5 8e bb 3c 74 03 0c bc 21 b9 c7 3d
       -0.10671324 0.022895226 -0.008545745 0.097521074
000040 ea e9 33 3c 46 b9 72 3d 0b 5c 0a 3e 4d 9f 19 bd
       0.010981062 0.05925872 0.13511674 -0.037505437
000050 96 d3 e1 bd 08 e8 20 3e 00 00 00 00 5c af c5 3d
       -0.11026685 0.15713513 0.0 0.09652588
000060 93 3f 99 3d bb 26 f6 3d bd ac d8 3d 7f 3e 21 3e
       0.07482829 0.12019106 0.10579822 0.15746497
000070 65 46 7b 3d fa 2d bb 3d 87 c2 14 be 51 74 d8 bd
       0.06134643 0.09139629 -0.14527331 -0.105690606
000080 30 6c 9f bd d9 1e 5c 3d 43 08 18 3e fd 92 73 3d
       -0.07784307 0.053740356 0.14846902 0.05946635
000090 af ae ba 3d 00 00 00 00 01 3e b5 3c 00 00 00 00
       0.091153495 0.0 0.022124292 0.0
0000a0 84 63 05 3e 48 90 99 3d 8d 16 25 bd a6 e9 9c 3d
       0.13026243 0.074982226 -0.04030471 0.076617524
0000b0 24 07 15 3d d0 2d ad bd e8 21 71 bd 00 00 00 00
       0.036383763 -0.08456004 -0.058870226 0.0
0000c0 f1 9a cc bc 7b e7 35 3d 83 f2 ba 3d 74 11 c2 bd
       -0.024976226 0.04441021 0.09128287 -0.09475985
0000d0 f6 ef 85 bd 6c 39 d7 3d 52 9c b4 3d 2f 2b ed 3d
       -0.065399095 0.10508999 0.08818878 0.11580502
0000e0 34 49 35 3d 00 00 00 00 00 00 00 00 2a f1 9e 3d
       0.044259265 0.0 0.0 0.07760842
0000f0 a3 59 37 bc fe b9 fd bd b4 2f d5 3d e0 be 88 bd
       -0.011190805 -0.12388991 0.10409489 -0.066770315
000100 3f 01 b2 bd d2 04 c3 3d 03 89 f1 3a 66 6a 77 3d
       -0.08691644 0.09522404 0.0018427673 0.060404204
000110 f8 07 3f 3e 8f 17 22 bd dc 02 5d bd 00 00 00 00
       0.18655384 -0.03957325 -0.053957805 0.0
000120 85 6a c7 bd 00 00 00 00 38 7f 70 bd 5b d1 c2 3d
       -0.09737114 0.0 -0.058715075 0.09512588
000130 06 6e 46 3c f9 00 d8 bd ec ad 15 3e 84 68 65 3d
       0.012111193 -0.105470605 0.14617127 0.056007877
000140 20 d5 1b 3e 14 4c fb bd bd ea 73 3d 9c 8f b1 3b
       0.1521802 -0.1227037 0.059550036 0.005418731
000150 00 00 00 00 97 62 f7 bd 20 f2 b0 3c 07 84 be 3c
       0.0 -0.120793514 0.02159983 0.023256315
000160 00 00 00 00 00 00 00 00 26 e4 88 bd 00 00 00 00
       0.0 0.0 -0.06684141 0.0
000170 a9 4d db 3d 57 db e0 3d 99 95 a0 3d 00 00 00 00
       0.10708172 0.10979336 0.078410335 0.0
000180 ab ca 95 bd 69 1b 15 3d 70 cc d9 3c 96 2b b1 3c
       -0.073140465 0.036403093 0.026586741 0.021627229
000190 a1 9f 0f 3e e8 0d 09 be 81 df 9c 3d 00 00 00 00
       0.14025737 -0.13384211 0.076598175 0.0
0001a0 de d3 bf 3d 6a 9e 64 3d b6 eb 39 3e f4 21 44 3d
       0.09366582 0.055815138 0.18156323 0.047883943
0001b0 4f f4 d4 3c 30 fb 69 3d 00 00 00 00 87 a6 0a 3e
       0.025995402 0.057124317 0.0 0.13540088
0001c0 1e 5b 43 3d 4d 13 55 3e fe 90 2f b9 5c a4 01 bd
       0.047694318 0.20808144 -0.00016743314 -0.031650886
0001d0 00 00 00 00 36 e1 02 be c8 92 fd 3d 00 00 00 00
       0.0 -0.12781224 0.12381512 0.0
0001e0 69 c0 62 bd b6 b3 1b 3c fb 1e f2 bc 8a 61 c3 3d
       -0.055359278 0.009503296 -0.029555788 0.095400885
0001f0 41 38 be 3d 0d c0 bf 3d 6f 2f 9f 3c 8c f3 8b 3b
       0.09288073 0.09362803 0.019431798 0.0042709764

action_parameters_output_layer.weight f4 [27, 128]
000000 ee 1b 01 ba 53 53 6e b8 e8 bc de 3c cb 65 7e b8
       -0.00049251213 -5.6821224e-05 0.027189687 -6.065312e-05
000010 4b b7 20 b9 28 52 59 39 76 fd fa bb 21 82 78 38
       -0.00015327071 0.00020725338 -0.0076596094 5.9249e-05
000020 9d e3 8c 3b 1e 65 51 37 29 96 62 bc f8 5e 19 b8
       0.0042995946 1.2480914e-05 -0.013829746 -3.656649e-05
000030 e3 f9 97 b8 88 a4 aa 38 17 95 b6 37 64 51 9f bb
       -7.246786e-05 8.136878e-05 2.1765516e-05 -0.0048619974
000040 76 08 bd b6 d9 91 da 38 c8 20 1b 3c 3b 8d 60 b8
       -5.633624e-06 0.00010422216 0.009468265 -5.3537293e-05
000050 81 03 bd 3a 49 2d 3c 3c 33 68 38 b9 ea 37 01 ba
       0.00144206 0.011485406 -0.00017586425 -0.00049292913
000060 62 1a a5 b9 70 aa ef 3c 40 c3 1d bc 2b 31 67 3c
       -0.0003149091 0.029256076 -0.009629071 0.014110844
000070 8b 37 8a 38 58 05 f0 b9 1a c6 6f 38 17 02 88 36
       6.5906985e-05 -0.0004578035 5.7166537e-05 4.053359e-06
000080 e1 40 8e 38 c4 d1 e8 bb d2 91 e5 3c 75 29 02 bc
       6.783172e-05 -0.007105084 0.028023634 -0.007944454
000090 82 83 d3 bb a4 d0 d0 b8 04 b8 06 38 f3 60 af 38
       -0.006454886 -9.957075e-05 3.2119468e-05 8.3627085e-05
0000a0 8d 5b 9d bb 52 c1 ae bc 23 f4 c5 b8 c5 52 57 b9
       -0.0048021735 -0.021332417 -9.439166e-05 -0.00020534832
0000b0 da 83 81 b7 7d ca 43 39 0d a8 c9 3a 0d 21 19 b9
       -1.5439397e-05 0.00018672082 0.0015385166 -0.0001460353
0000c0 fb 44 c9 b6 6d a4 d9 bb e5 b8 60 b8 1c b2 39 b9
       -5.998297e-06 -0.0066419155 -5.3577958e-05 -0.00017709326
0000d0 d5 f4 5d b9 24 1c 21 b9 f2 49 85 3b 5d 86 6c 37
       -0.0002116741 -0.0001536464 0.004067653 1.409798e-05
0000e0 35 c9 41 3c 57 90 01 b9 cf 9d 59 b7 4a 6f 0e b6
       0.011827757 -0.0001235617 -1.2970951e-05 -2.1224428e-06
0000f0 1b 1e 1b 39 60 24 78 b9 3a 27 82 b9 54 03 93 b8
       0.00014793167 -0.00023664674 -0.00024824758 -7.010126e-05
000100 cc de 03 39 c4 a0 37 b9 c4 15 56 bc bf 8e 2e bd
       0.00012576132 -0.0001751213 -0.013066713 -0.042616602
000110 0a 36 22 3d 5b 05 11 3c 47 e0 f0 38 3f 82 74 b8
       0.039602317 0.0088513745 0.00011485867 -5.8295434e-05
000120 d3 54 ce b8 d1 aa 2e b8 be a1 cb b8 1f 82 17 bc
       -9.838645e-05 -4.1643918e-05 -9.709921e-05 -0.009247332
000130 b1 80 28 bb ef e2 8b bb 46 e7 2b 3d 72 7b c0 38
       -0.0025711472 -0.004268996 0.041968606 9.178267e-05
000140 fd 74 25 bd 7a 9e 44 38 b4 26 b8 38 95 55 b1 bb
       -0.04039477 4.6877634e-05 8.781013e-05 -0.0054118135
000150 1b fd c0 37 dc 65 27 39 2d d3 2e bb de 6b 4c bb
       2.3006045e-05 0.00015964307 -0.0026676164 -0.0031192224
000160 99 e1 b0 37 ad a2 15 38 80 ce 53 37 c6 7f d8 b7
       2.1085887e-05 3.5675872e-05 1.262466e-05 -2.5808706e-05
000170 f4 b4 2a b7 2f c4 5e ba ef 11 d0 38 2a 46 35 b8
       -1.0174921e-05 -0.00084978616 9.921553e-05 -4.321911e-05
000180 bd 6d 2e 36 61 d9 2a bb b4 e0 83 3b bd 05 58 39
       2.5991897e-06 -0.002606951 0.0040245894 0.00020601503
000190 7f 02 58 3d 19 fe 2b 3a 1c d0 c7 b9 01 9e a8 38
       0.052736755 0.0006560996 -0.0003811129 8.040295e-05
0001a0 c8 07 2c b8 eb 80 6b b8 89 5a 28 bc e9 74 bb 36
       -4.1015242e-05 -5.614843e-05 -0.0102754915 5.5866444e-06
0001b0 2e 3c ae b7 c6 f1 d0 b9 40 ce 63 39 80 27 18 bd
       -2.077044e-05 -0.00039852987 0.00021725241 -0.037147045
0001c0 a7 eb dc bb 54 66 c5 bc ce 52 11 3b e5 84 c1 b8
       -0.006741959 -0.024096645 0.00221746 -9.227711e-05
0001d0 4d 05 b8 37 0f fb ad 38 59 a9 f3 bb bb 06 16 38
       2.1936978e-05 8.296046e-05 -0.0074359593 3.5769055e-05
0001e0 36 e5 d5 b9 58 8c e6 38 48 11 87 38 5f 65 ea b9
       -0.000407973 0.00010993396 6.4405205e-05 -0.00044707485
0001f0 51 14 22 39 f5 0b 67 bc 83 2a 6f bb 1a 02 88 38
       0.00015457092 -0.014101972 -0.0036493845 6.485377e-05
000200 5b 3f 55 ba a0 97 b9 b9 53 8a a3 bb 29 dd 50 39
       -0.0008134746 -0.0003539892 -0.0049908548 0.00019918814
000210 07 be 2a b7 08 07 8f 39 5e df 8f bc 9c 87 07 b9
       -1.0177034e-05 0.00027280324 -0.017562564 -0.00012925122
000220 b7 26 ec bb 59 72 29 39 95 ec 0e bc 10 fe 11 b9
       -0.0072067636 0.00016159694 -0.008723398 -0.00013922923
000230 f1 17 aa b7 9c cc 99 38 70 09 02 39 de 53 dd 3a
       -2.0276728e-05 7.33372e-05 0.00012401282 0.0016885956
000240 c0 15 ae b8 3a 61 41 b9 c2 8a 07 3b d9 bc eb b8
       -8.301018e-05 -0.00018442134 0.0020682071 -0.00011240849
000250 27 e6 29 3b d6 72 27 bb 06 4f a1 b8 d0 de 7e ba
       0.0025924535 -0.0025550625 -7.6917975e-05 -0.00097225327
000260 91 84 31 b9 e7 4a 0c 3c d5 ca db 3b 6e 3c 2f bb
       -0.0001692942 0.00856278 0.006707529 -0.00267389
000270 89 7a e3 b8 8f a5 00 ba a4 8b e6 3a f5 9a 7c 39
       -0.000108470274 -0.00049074827 0.0017589224 0.00024090319
000280 0e 96 22 39 62 ab 5a 3b 6c ee 07 3d b6 d3 b9 3b
       0.00015505424 0.0033366312 0.03318636 0.00567099
000290 cf e5 12 bc 6a 50 79 38 44 e0 0a 39 25 4d 32 b9
       -0.008965923 5.9441118e-05 0.00013244251 -0.00017004141
0002a0 8f fb a5 bb 65 eb 96 3b 94 9f 54 b8 eb ba 1e b9
       -0.0050653885 0.004605698 -5.0693357e-05 -0.00015137687
0002b0 9c 7c 0d b9 95 f3 a0 39 77 78 8c 3a 3c 9b 19 38
       -0.00013493228 0.0003069906 0.0010717054 3.6622616e-05
0002c0 7a 5b 0e b9 44 dd 20 3a 45 23 95 b9 38 bc 30 39
       -0.00013576253 0.0006136487 -0.00028445772 0.00016854785
0002d0 d8 18 16 b8 c3 a1 fe b9 0a fc 5d 3b 55 26 86 ba
       -3.5785924e-05 -0.00048567177 0.003387215 -0.0010234813
0002e0 02 82 88 bc b3 77 bf 37 ca ce 26 38 e9 c9 c8 b8
       -0.016663555 2.2824714e-05 3.977007e-05 -9.574352e-05
0002f0 8b 23 4d 39 55 74 e7 39 60 30 32 ba 38 ea 15 b9
       0.00019563564 0.00044146428 -0.00067973696 -0.00014297
000300 ca e5 01 b6 71 fb e3 b9 a1 19 33 bc 9e fc 29 3b
       -1.9356253e-06 -0.00043484152 -0.010931403 0.0025937925
000310 12 03 0f ba 93 23 1b 3b d1 21 75 39 7f b4 09 b8
       -0.00054554746 0.0023672327 0.00023377618 -3.2831445e-05
000320 4c 5c 78 39 e1 f5 48 38 2a e5 93 39 44 b1 81 bb
       0.00023685506 4.791271e-05 0.00028208765 -0.0039578993
000330 b9 55 d2 ba 7d 3c 81 3b 0c 42 3e 39 ac a0 04 b8
       -0.0016047276 0.0039439783 0.00018144416 -3.162089e-05
000340 c7 71 a2 bc 79 b8 22 3a 5a 46 04 b9 94 ad 55 37
       -0.019829644 0.0006207298 -0.00012614709 1.2736204e-05
000350 45 ef d5 38 ad ec f6 39 7c 3c d1 bb ba d2 45 39
       0.00010201199 0.00047097114 -0.006385384 0.00018865886
000360 85 c7 4d b8 68 12 ee b7 da 22 3b 39 37 ec fc 37
       -4.9061626e-05 -2.8380382e-05 0.00017846693 3.0150737e-05
000370 d1 6b 02 ba a6 26 ed ba 45 88 8e b9 74 5f 53 38
       -0.00049751723 -0.0018093183 -0.0002718588 5.0395218e-05
000380 35 7c 92 38 02 d4 d9 3b ee 7b 83 bc 30 fb 0f 38
       6.984958e-05 0.0066475878 -0.016050305 3.4327793e-05
000390 ec f7 10 3b 09 8b cf 3a 44 b6 0b ba 69 f3 dc 37
       0.002212043 0.0015834282 -0.0005329589 2.633939e-05
0003a0 87 ca 30 b9 93 0f 76 b8 13 59 d9 3b 5a cb 77 b7
       -0.00016860115 -5.8665475e-05 0.006632933 -1.4769694e-05
0003b0 62 fa cb b9 b9 21 e6 b9 1e 83 dc 37 7d ac e1 bc
       -0.00038905727 -0.00043894144 2.62871e-05 -0.02754807
0003c0 60 a5 7e 3b 63 a7 23 3c 1a de b0 3b b4 0c b7 b8
       0.0038855895 0.009988639 0.0053975703 -8.728486e-05
0003d0 f7 2c 67 38 91 b3 9c 39 94 1c 91 ba 73 43 cf b7
       5.511657e-05 0.00029888426 -0.0011071139 -2.4707731e-05
0003e0 a8 70 df b8 f3 ed 38 b8 ba 5c 4d 38 aa 3a 49 ba
       -0.000106544525 -4.4090626e-05 4.8962167e-05 -0.0007676283
0003f0 87 55 c9 b9 06 60 9c 3b 75 47 fe ba 51 a1 d5 3b
       -0.0003840143 0.004772189 -0.0019399958 0.0065194746

action_parameters_output_layer.bias f4 [27]
000000 82 d2 53 3c c9 99 0f 3c 6a 57 af 3c 1b 5c 50 3d
       0.012928607 0.008764693 0.021403987 0.05086909
000010 c0 8b cb 3c da 70 2a 3c 94 d6 5c 3b 18 ac 55 3c
       0.024846911 0.0104028825 0.0033697234 0.013041519
000020 71 2c 19 3c aa f4 1b 3a 9f 93 88 3c d4 db b1 3c
       0.009348975 0.00059492385 0.016671954 0.021711268
000030 e9 51 20 3d d5 93 bc 39 ee 25 3b 3d d7 07 3d 3b
       0.039140616 0.00035968298 0.04569047 0.0028843784
000040 ad 03 fa 3b dd 9c 27 3c e3 72 21 3c d1 7f 1e 3d
       0.0076298327 0.01023027 0.009854051 0.038696114
000050 ee 4f 74 3c 1e 72 fb 3c 7b 00 98 3c 79 ac b8 3c
       0.014911635 0.030694064 0.018554917 0.022543179
000060 0f ed 19 3c a1 55 4c 3d d2 29 2c 3d
       0.009394898 0.04988635 0.04203207

action_parameters_passthrough_layer.weight f4 [27, 3]
000000 00 00 00 00 00 00 00 00 00 00 00 00 00 00 00 00
       0.0 0.0 0.0 0.0
000010 00 00 00 00 00 00 00 00 00 00 00 00 00 00 00 00
       0.0 0.0 0.0 0.0
000020 00 00 00 00 00 00 00 00 00 00 00 00 00 00 00 00
       0.0 0.0 0.0 0.0
000030 00 00 00 00 00 00 00 00 00 00 00 00 00 00 00 00
       0.0 0.0 0.0 0.0
000040 00 00 00 00 00 00 00 00 00 00 00 00 00 00 00 00
       0.0 0.0 0.0 0.0
000050 00 00 00 00 00 00 00 00 00 00 00 00 00 00 00 00
       0.0 0.0 0.0 0.0
000060 00 00 00 00 00 00 00 00 00 00 00 00 00 00 00 00
       0.0 0.0 0.0 0.0
000070 00 00 00 00 00 00 00 00 00 00 00 00 00 00 00 00
       0.0 0.0 0.0 0.0
000080 00 00 00 00 00 00 00 00 00 00 00 00 00 00 00 00
       0.0 0.0 0.0 0.0
000090 00 00 00 00 00 00 00 00 00 00 00 00 00 00 00 00
       0.0 0.0 0.0 0.0
0000a0 00 00 00 00 00 00 00 00 00 00 00 00 00 00 00 00
       0.0 0.0 0.0 0.0
0000b0 00 00 00 00 00 00 00 00 00 00 00 00 00 00 00 00
       0.0 0.0 0.0 0.0
0000c0 00 00 00 00 00 00 00 00 00 00 00 00 00 00 00 00
       0.0 0.0 0.0 0.0
0000d0 00 00 00 00 00 00 00 00 00 00 00 00 00 00 00 00
       0.0 0.0 0.0 0.0
0000e0 00 00 00 00 00 00 00 00 00 00 00 00 00 00 00 00
       0.0 0.0 0.0 0.0
0000f0 00 00 00 00 00 00 00 00 00 00 00 00 00 00 00 00
       0.0 0.0 0.0 0.0
000100 00 00 00 00 00 00 00 00 00 00 00 00 00 00 00 00
       0.0 0.0 0.0 0.0
000110 00 00 00 00 00 00 00 00 00 00 00 00 00 00 00 00
       0.0 0.0 0.0 0.0
000120 00 00 00 00 00 00 00 00 00 00 00 00 00 00 00 00
       0.0 0.0 0.0 0.0
000130 00 00 00 00 00 00 00 00 00 00 00 00 00 00 00 00
       0.0 0.0 0.0 0.0
000140 00 00 00 00
       0.0

action_parameters_passthrough_layer.bias f4 [27]
000000 00 00 00 00 00 00 00 00 00 00 00 00 00 00 00 00
       0.0 0.0 0.0 0.0
000010 00 00 00 00 00 00 00 00 00 00 00 00 00 00 00 00
       0.0 0.0 0.0 0.0
000020 00 00 00 00 00 00 00 00 00 00 00 00 00 00 00 00
       0.0 0.0 0.0 0.0
000030 00 00 00 00 00 00 00 00 00 00 00 00 00 00 00 00
       0.0 0.0 0.0 0.0
000040 00 00 00 00 00 00 00 00 00 00 00 00 00 00 00 00
       0.0 0.0 0.0 0.0
000050 00 00 00 00 00 00 00 00 00 00 00 00 00 00 00 00
       0.0 0.0 0.0 0.0
000060 00 00 00 00 00 00 00 00 00 00 00 00
       0.0 0.0 0.0
