RL4E2E/results/pptod/2.0k1/episode_500/actor.pt (torch, 20755 bytes, 4 tensors)

layers.0.weight f4 [128, 30]
0	0x3d9636c8	0.073346674
1	0x3f1b5f4d	0.6069229
2	0x3d0c548c	0.034260318
3	0xbebf072a	-0.37310153
4	0xbd0fa585	-0.03506996
5	0xbed20ace	-0.41023868
6	0xbe2ee8cd	-0.17080994
7	0x3e87d9d8	0.2653339
8	0xbd163e8d	-0.036680747
9	0xbe9cdf2a	-0.3063901
10	0x3e2b4004	0.16723639
11	0x3ee3d44c	0.44497907
12	0x3c2e8ef6	0.010654202
13	0x3e0b238a	0.13587776
14	0xbe659818	-0.224213
15	0xbedad360	-0.4273939
16	0x3cc89015	0.024482766
17	0x3eed00b3	0.46289596
18	0x3dcb662c	0.09931597
19	0xbe9e1fa1	-0.30883506
20	0xbcc291ca	-0.023751158
21	0x3e93f80e	0.28900188
22	0x3e1c5694	0.15267402
23	0x3dc1cadb	0.0946252
24	0xbe709f46	-0.23498258
25	0xbec5d16b	-0.38636336
26	0xbe960940	-0.29303932
27	0x3cc3093f	0.02380812
28	0xbe888480	-0.2666359
29	0xbebd1993	-0.36933574
30	0xbe865f31	-0.262445
31	0xbedfeb89	-0.43734387
32	0xbe3c6898	-0.18399274
33	0x3e4f1d63	0.20226054
34	0xbe5b5a81	-0.21421243
35	0xbe0143ca	-0.12623516
36	0xbe113de0	-0.1418376
37	0x3cc2900d	0.02375033
38	0xbd0b1742	-0.033957727
39	0x3d1149c4	0.03547074
40	0xbe141070	-0.14459395
41	0xbe74cf30	-0.23907161
42	0x3d089b72	0.03335137
43	0x3ed32291	0.4123731
44	0x3e580f03	0.21099477
45	0x3c8cf07d	0.017204517
46	0xbe54e3de	-0.2079005
47	0xbdfdde80	-0.12395954
48	0x3c2ab4c4	0.010419074
49	0xbed74caa	-0.42050678
50	0x3ec3b25d	0.38222018
51	0x3c87b866	0.01656742
52	0x3e527e0d	0.20555897
53	0x3d27ff69	0.041015062
54	0x3d4a59d5	0.049402077
55	0xbe6085bf	-0.2192602
56	0x3e13a087	0.14416705
57	0xbe943b31	-0.2895141
58	0xbd4340e1	-0.047669295
59	0xbdb855b1	-0.09000719
60	0xbea8b018	-0.3294685
61	0x3f3c2a9e	0.7350253
62	0x3f161b74	0.5863564
63	0x3d4b8677	0.049688783
64	0x3cf82628	0.030291632
65	0xbef67d77	-0.48142597
66	0xbdb6f050	-0.08932555
67	0x3f0346d0	0.51279926
68	0xbec4bb2d	-0.38424054
69	0x3ed143a4	0.40871918
70	0x3e8182e3	0.2529517
71	0x3d762acb	0.060099404
72	0x3e8cf2b4	0.27528918
73	0x3ddb21a2	0.10699774
74	0xbd9c8616	-0.07642762
75	0x3e5e5b90	0.21714616
76	0x3de34370	0.11096847
77	0xbde48e20	-0.11159921
78	0xbeaa3644	-0.33244526
79	0x3edd5fb9	0.43237093
80	0x3eaa6039	0.33276537
81	0x3ed36333	0.4128662
82	0x3e24b321	0.16083957
83	0x3eae3546	0.3402502
84	0x3be13c2a	0.006873627
85	0xbe4fba2a	-0.2028586
86	0x3ed514d8	0.41617465
87	0x3e604696	0.21901926
88	0xbec2b501	-0.3802872
89	0xbeaae81c	-0.3338021
90	0x3b336f1d	0.002737946
91	0xbee4b3ec	-0.4466852
92	0x3d8a51b2	0.067538634
93	0x3eaddb4f	0.33956382
94	0x3eac21fd	0.3361968
95	0xbb08e890	-0.0020890571
96	0x3e005eb7	0.12536131
97	0x3f669bdb	0.90081567
98	0x3e723314	0.23652297
99	0x3e5358d5	0.20639355
100	0x3efdf747	0.4960272
101	0x3ee5953a	0.44840413
102	0x3ea8bdc5	0.32957283
103	0x3e8092db	0.25112042
104	0x3f00e263	0.5034544
105	0x3f03e1aa	0.5151621
106	0xbe7d55c1	-0.24739744
107	0x3e23fc6a	0.16014257
108	0x3eb6082e	0.35553116
109	0xbe22a9f7	-0.15885149
110	0x3f4ff8e8	0.81239176
111	0x3ed331fc	0.41249073
112	0x3e0860c4	0.13318163
113	0x3f4c221b	0.7973954
114	0xbc41e29c	-0.011833813
115	0x3f13ec8a	0.57782805
116	0x3e6eddb4	0.2332676
117	0x3e03d04c	0.12872428
118	0x3f4b04ce	0.79304206
119	0x3db75f68	0.08953744
120	0x3ee0362a	0.43791324
121	0xbc91c76c	-0.017795287
122	0x3b35d7ba	0.0027746991
123	0x3d7c130a	0.061541595
124	0x3e93ef57	0.2889354
125	0xbe7ab74f	-0.24483989
126	0xbe8c284a	-0.27374488
127	0x3ede9ce3	0.4347907
128	0x3e1cdbbf	0.15318201
129	0xbe7e2121	-0.24817325
130	0x3d761246	0.06007602
131	0x3d1cb7dc	0.03826128
132	0xbe73e604	-0.23818213
133	0xbf2806a1	-0.65635115
134	0x3dd229ac	0.102618545
135	0x3de413b2	0.11136569
136	0xbe3e0884	-0.18557936
137	0x3e87817a	0.2646597
138	0xbcb30971	-0.021855088
139	0x3e835cdf	0.25656793
140	0xbc45703c	-0.012050685
141	0xbd3b3c5e	-0.045711868
142	0x3de82152	0.1133448
143	0xbea3beb2	-0.31981426
144	0xbe139df1	-0.14415719
145	0xbdbaabae	-0.091147766
146	0xbe5a6764	-0.21328503
147	0x3e0d7994	0.1381591
148	0xbe636b92	-0.22209004
149	0xbdf80c00	-0.12111664
150	0xbe916fd6	-0.28405637
151	0xbda8ea7d	-0.0824785
152	0xbe8a4a39	-0.27009752
153	0xbbfcdeaf	-0.0077169756
154	0x3eaff724	0.3436824
155	0xbe40c6bd	-0.18825813
156	0xbc925d3c	-0.017866723
157	0xbec95235	-0.3932053
158	0x3e6629ce	0.22476885
159	0xbe17956e	-0.14803097
160	0x3c5ca5e4	0.013467286
161	0x3f06abfe	0.5260619
162	0xbd06c709	-0.03290466
163	0xbe2e75ad	-0.17037077
164	0x3eac0487	0.33597204
165	0x3db99a19	0.09062595
166	0xbdaa58fe	-0.08317755
167	0xbecb0953	-0.3965555
168	0xbeb812c9	-0.35951832
169	0xbe03891f	-0.12845276
170	0xbdb6877a	-0.08912559
171	0x3e436e9e	0.19085166
172	0x3e9210ba	0.28528386
173	0x3e3c5101	0.18390276
174	0xbde42df0	-0.111415744
175	0x3e8a90e0	0.27063656
176	0xbec83306	-0.39101428
177	0xbef4706c	-0.4774202
178	0x3ea1406b	0.3149446
179	0xbe0dbcab	-0.13841502
180	0x3c8e05d4	0.017336763
181	0x3f159732	0.5843383
182	0xbfb8d677	-1.444045
183	0x3e75dc30	0.24009776
184	0x3c70465b	0.014665212
185	0xbd3823d2	-0.044956036
186	0xbd74242c	-0.05960481
187	0xbf1d5200	-0.6145325
188	0x3ed9aadd	0.4251317
189	0x3ec6e6b4	0.38847888
190	0xbd8b1abb	-0.06792208
191	0x3e7cd74e	0.24691507
192	0x3f1f0208	0.62112474
193	0xbed23d78	-0.41062522
194	0x3e4d77be	0.2006521
195	0x3ebbc555	0.3667399
196	0x3f073412	0.5281383
197	0xbd8d4d08	-0.06899458
198	0x3ecc61d9	0.39918402
199	0x3ef58960	0.4795637
200	0x3e007855	0.12545903
201	0x3e756634	0.23964769
202	0xbded1f39	-0.11578221
203	0x3e08b900	0.13351822
204	0x3e485975	0.19565375
205	0x3d48c191	0.049012724
206	0x3ea5c398	0.3237579
207	0x3ed285de	0.41117758
208	0x3e4a55ec	0.19759339
209	0x3e7a7d08	0.24461758
210	0xbea61b86	-0.32442874
211	0x3f13f306	0.577927
212	0x3f482b2f	0.7819089
213	0x3ef01ad4	0.46895468
214	0xbe5a8fa9	-0.21343865
215	0xbc0f77af	-0.008756562
216	0x3f274530	0.65339947
217	0x3e41f7b1	0.18942143
218	0xbf161adb	-0.5863473
219	0x3eaf8473	0.34280738
220	0xbee5b827	-0.4486706
221	0xbe3f3824	-0.1867376
222	0xbeafcf7f	-0.34337994
223	0xbeaacaa2	-0.33357722
224	0x3e6798be	0.2261686
225	0xbe2f4ca1	-0.17119075
226	0xbe620a04	-0.22074133
227	0xbe262035	-0.16223224
228	0xbe771e5d	-0.24132676
229	0x3d840ea5	0.06448106
230	0xbe112946	-0.14175901
231	0xbf7ce739	-0.9879032
232	0x3e4c4087	0.1994649
233	0x3e51b0ca	0.20477596
234	0x3dc16e9c	0.09444925
235	0xbe1bf1e8	-0.15228999
236	0x3dbf4d6a	0.093409374
237	0x3ef4a884	0.47784817
238	0xbbfb6746	-0.0076722233
239	0xbdf54d62	-0.1197765
240	0xbd00aae5	-0.031412978
241	0xbe4b296c	-0.1984002
242	0xbd9a86a3	-0.07545211
243	0xbde09d7c	-0.10967538
244	0xbe56c2b1	-0.20972706
245	0xbdf8bc36	-0.121452734
246	0x3eaa5377	0.33266804
247	0xbec862db	-0.3913792
248	0x3e44fcd0	0.19237065
249	0xbc8321e4	-0.016007371
250	0x3ddbc3bc	0.10730693
251	0x3e0cdba5	0.13755663
252	0x3d9e6794	0.077346
253	0x3dfeb305	0.12436489
254	0xbe47e45b	-0.19520704
255	0xbd8f6de7	-0.07003384

layers.0.bias f4 [128]
0	0x3fd20ba8	1.6409807
1	0x00000000	0.0
2	0x3ed49d8c	0.4152645
3	0x3f9b11ca	1.2114804
4	0x3fa214c1	1.2662584
5	0x00000000	0.0
6	0x3fc9b758	1.5759077
7	0x3f1ee505	0.62068206
8	0x00000000	0.0
9	0xc0028f31	-2.0399897
10	0x3fc7b3d0	1.560175
11	0xbd382692	-0.04495866
12	0x3fbe0c31	1.484747
13	0x3fafee06	1.3744514
14	0x00000000	0.0
15	0x3fa6b432	1.3023741
16	0xbfe63aa6	-1.7986648
17	0x3faa71d9	1.3315994
18	0x00000000	0.0
19	0x3fbf969d	1.4967839
20	0x3ff32c5b	1.8997911
21	0xbff35e6c	-1.901319
22	0x3fc73494	1.556292
23	0x3df903be	0.12158917
24	0x3fb3f5a9	1.4059345
25	0x3fa1c823	1.2639202
26	0x3fbd16d7	1.4772595
27	0x3fdeaa65	1.739575
28	0xbfc91522	-1.5709574
29	0xbfe75c4d	-1.8075043
30	0x3ebab106	0.36463183
31	0x3fb78f50	1.434061
32	0x00000000	0.0
33	0x00000000	0.0
34	0x00000000	0.0
35	0x3fcf816a	1.6211369
36	0xc0004b55	-2.004598
37	0x3fc0e8a0	1.5070992
38	0x00000000	0.0
39	0x3fb056be	1.3776472
40	0xc0021914	-2.0327806
41	0x3faeffab	1.3671774
42	0x3fc89afd	1.5672299
43	0xc0001f78	-2.0019207
44	0x00000000	0.0
45	0xbfde7fc5	-1.7382742
46	0x3e84bfc3	0.25927553
47	0x00000000	0.0
48	0x3fd0b798	1.6306028
49	0x3f9ae518	1.2101164
50	0x3f86466e	1.0490243
51	0x00000000	0.0
52	0x3ec5cd55	0.38633218
53	0xbd03b778	-0.03215739
54	0x3ef2aa23	0.4739543
55	0x3faba1e5	1.3408781
56	0xbcdaa52d	-0.02669009
57	0x3fa971a6	1.3237808
58	0x3fc5b991	1.5447255
59	0xbff28669	-1.8947269
60	0x3ed6cd03	0.41953287
61	0x3fd27fb9	1.6445228
62	0xbd906865	-0.07051162
63	0xbffce8e8	-1.9758577
64	0x3f8e4bf4	1.1116929
65	0x3fd1f97b	1.640426
66	0x3fb35e7e	1.4013212
67	0x3fbed5cc	1.4908996
68	0x3fbd1c65	1.477429
69	0x3ee69762	0.4503737
70	0x3fdad54f	1.7096347
71	0x3f81e270	1.0147228
72	0x3fdb4be1	1.7132531
73	0x3f1bfa49	0.6092878
74	0xbfc5d23f	-1.5454787
75	0x3ebe0dc7	0.37119886
76	0xbd646e78	-0.055769414
77	0x3f2fb0d5	0.686292
78	0x3fd61679	1.6725608
79	0x3fc1c551	1.5138341
80	0x3fd6d068	1.678235
81	0xbffc3ec7	-1.9706658
82	0x3fb28f09	1.3949901
83	0xbd0dc8b1	-0.034615222
84	0xbfd1d7c5	-1.6393973
85	0x3fc6bd05	1.5526434
86	0x00000000	0.0
87	0x00000000	0.0
88	0x00000000	0.0
89	0x3fa8db18	1.3191862
90	0xbfec87cd	-1.8478943
91	0x3f862c2a	1.0482228
92	0xbfd5c942	-1.6702044
93	0xbfe268f6	-1.7688282
94	0xbfdb70e3	-1.7143825
95	0x3fac04e0	1.3438988
96	0x3fa97800	1.3239746
97	0xc00021df	-2.0020673
98	0x3ecdd45d	0.40201083
99	0x3eebc615	0.46049562
100	0x3e0d0f46	0.13775358
101	0x3fb3bfe7	1.4042939
102	0x3fcbb1fd	1.5913693
103	0xbfd29481	-1.645157
104	0xbd6f8822	-0.058479436
105	0x3f054497	0.52057785
106	0x3fa32ded	1.274839
107	0x3fdf75a9	1.7457782
108	0x3fb7d006	1.4360359
109	0xc00a0efc	-2.1571646
110	0x3f0db1b3	0.5534927
111	0x3fbb823d	1.464912
112	0xc005d6ae	-2.091228
113	0xbffb0117	-1.9609708
114	0x3fa7fb87	1.3123635
115	0xbfeb57af	-1.8386134
116	0x00000000	0.0
117	0x3fce6b93	1.6126579
118	0x3ead59d5	0.338576
119	0xbc8f6b94	-0.017507352
120	0x3feb4903	1.8381656
121	0x3faa1ed3	1.3290657
122	0x3fadc8ef	1.3576945
123	0x3fbb6c4c	1.4642425
124	0x00000000	0.0
125	0x3db24c78	0.087059915
126	0x3e9cef80	0.30651474
127	0x3fe37329	1.7769519

layers.1.weight f4 [6, 128]
0	0xbe8c8ca3	-0.27451047
1	0xbba9e07b	-0.005184231
2	0xbf1737b4	-0.5906937
3	0xbf2be41b	-0.67144936
4	0xbe143f54	-0.14477283
5	0xbd4e3c59	-0.05035052
6	0xbf70171d	-0.9378527
7	0xbfdfee48	-1.7494593
8	0xbd96cb86	-0.07363038
9	0x3e78b6ed	0.2428853
10	0xbdbd3ca1	-0.0924008
11	0x3d050455	0.032474834
12	0xbe799384	-0.24372679
13	0xbe9e9be4	-0.3097831
14	0x3ceac6ed	0.028659308
15	0xbe1c7f34	-0.15282899
16	0x3e0b8b19	0.1362728
17	0xbea82bd8	-0.3284595
18	0x3c8dec9b	0.017324736
19	0xbefed158	-0.49769092
20	0xbf83e4ed	-1.0304238
21	0x3e07dac9	0.13267054
22	0xbf01dbe3	-0.50726146
23	0xbf7d720b	-0.9900214
24	0xbe3098ff	-0.17245863
25	0xbeb8df00	-0.36107635
26	0xbe7c9881	-0.2466755
27	0xbec3ed76	-0.38267106
28	0x3e05af11	0.13055064
29	0x3d3103c0	0.043216467
30	0xbeee06d5	-0.46489587
31	0xbf02d830	-0.51111126
32	0x3d1565f5	0.036474187
33	0xbd912ab5	-0.07088224
34	0xbd90fd99	-0.0707962
35	0xbe9891ed	-0.29798833
36	0x3e5d44a7	0.2160822
37	0xbe0527da	-0.13003483
38	0xbc59a5e4	-0.01328418
39	0xbde9f36c	-0.11423382
40	0x3e5d8108	0.21631253
41	0xbe035932	-0.12826994
42	0xbdefaada	-0.11702509
43	0x3e7a0a85	0.24418075
44	0xbd16979b	-0.036765676
45	0x3e5cfed4	0.21581584
46	0xbeda4f93	-0.42638835
47	0xbcf85770	-0.030315131
48	0xbe044240	-0.12915897
49	0xbdb2f462	-0.087380186
50	0xbefd30cd	-0.49451295
51	0xbd893fca	-0.0670162
52	0xbebabaa6	-0.36470526
53	0x3d19d64e	0.037557893
54	0xbe893165	-0.26795498
55	0xbecd3b2d	-0.4008421
56	0x3c745c32	0.014914559
57	0xbf685d7f	-0.90767664
58	0xbe731886	-0.23739824
59	0x3eacf8e3	0.33783635
60	0xbf1b5e59	-0.6069084
61	0xbebde806	-0.37091082
62	0xbbea13a1	-0.007143453
63	0x3e5b6130	0.21423793
64	0xbe914bed	-0.2837824
65	0xbf116bc6	-0.56805074
66	0xbe00b39f	-0.1256852
67	0xbe6d4841	-0.23172094
68	0xbed973ad	-0.42471066
69	0xbf1f21b6	-0.62160814
70	0xbef0ff4f	-0.47069785
71	0xbf082b22	-0.53190815
72	0xbf06207d	-0.52393323
73	0xbe7f6fac	-0.24944943
74	0x3db51770	0.08842361
75	0xbef00297	-0.46876976
76	0x3c963889	0.018337505
77	0xbe6a0256	-0.22852454
78	0xbf4a6033	-0.7905304
79	0xbe8e8c15	-0.2784125
80	0xbe35480c	-0.17703265
81	0x3ea359e4	0.3190452
82	0xbea8ef63	-0.32995138
83	0x3d4b4c66	0.049633406
84	0x3e010838	0.12600791
85	0xbfc52803	-1.5402836
86	0xbd13af5d	-0.03605591
87	0x3d783618	0.060598463
88	0x3c52bcfa	0.012862438
89	0xbef2f229	-0.4745038
90	0x3e96ae22	0.29429728
91	0xbdf241be	-0.118289456
92	0x3e3d4652	0.18483856
93	0x3d40f226	0.04710593
94	0x3e0ec000	0.1394043
95	0xbe949106	-0.29016894
96	0xbe1b307e	-0.15155217
97	0x3eaae1d4	0.33375418
98	0xbe9c7047	-0.3055441
99	0xbe92abe3	-0.28646764
100	0xbf904acc	-1.1272826
101	0xbe13fff1	-0.14453103
102	0xbe3015eb	-0.17195861
103	0x3ddc3478	0.10752195
104	0xbbda4dc1	-0.006662101
105	0xbe6b407c	-0.22973818
106	0xbf8a592d	-1.0808464
107	0xbdb45568	-0.088053524
108	0xbd3218a6	-0.043480538
109	0x3eaf1997	0.3419921
110	0xbec6da25	-0.38838306
111	0xbe84a025	-0.2590343
112	0x3e8bc2a8	0.27296948
113	0x3ea1e14d	0.31617203
114	0xbe2398a2	-0.15976194
115	0x3e9180e1	0.2841864
116	0x3d3c94ee	0.046040468
117	0xbf08a3ab	-0.5337474
118	0xbf3f8621	-0.7481404
119	0x3d535604	0.051595703
120	0xbef0eeca	-0.47057182
121	0xbea2323d	-0.31678954
122	0xbe2618ad	-0.1622035
123	0xbee4ad61	-0.44663528
124	0x3b8838a6	0.0041571436
125	0xbf867dca	-1.0507138
126	0xbec2c364	-0.38039696
127	0xbf088b98	-0.53338003
128	0x3c60dd05	0.01372457
129	0xbd4537e6	-0.048149012
130	0xbd9eb227	-0.077488236
131	0x3e14e430	0.14540172
132	0xbc4a9506	-0.0123646315
133	0x3d91a5dd	0.07111714
134	0xbebb8196	-0.36622304
135	0x3da5aa20	0.080890894
136	0xbb33dc7f	-0.0027444658
137	0xbd7eb00f	-0.06217962
138	0x3c0cd868	0.008596517
139	0x3c88c6f4	0.01669643
140	0xbd992de8	-0.07479459
141	0xbca2e2a9	-0.01988347
142	0x3d243818	0.040092558
143	0x3cd7a394	0.026323117
144	0xbdc6391c	-0.096788615
145	0x3bf07490	0.007338114
146	0x3d64b901	0.055840496
147	0x3e3dc088	0.18530476
148	0xbec7494f	-0.38923118
149	0xbd71f536	-0.059071742
150	0x3cf985d7	0.030459328
151	0x3d928bd5	0.07155577
152	0xbdbda7a3	-0.0926049
153	0x3cac79b1	0.02105412
154	0x3c72c868	0.014818288
155	0xbd92f315	-0.071752705
156	0x3d423678	0.047415227
157	0xbde8bb08	-0.113637984
158	0x3d4fa953	0.05069859
159	0xbc057881	-0.008146406
160	0xbd32c078	-0.043640584
161	0x3cab0325	0.020875523
162	0xbca551b0	-0.020180553
163	0xbd303511	-0.043019358
164	0xbdb69aac	-0.0891622
165	0xbcc32331	-0.023820492
166	0xbd0539f5	-0.032525975
167	0x3c74ec80	0.014948964
168	0x3d2291e4	0.039689913
169	0x3ce31bce	0.02772322
170	0xbbe1877f	-0.0068826075
171	0xbdd2c31d	-0.10291121
172	0x3c43dd35	0.011954595
173	0xbd9e16df	-0.07719206
174	0x3ce1e665	0.027575681
175	0x3c4ac986	0.0123771485
176	0xbde20f2f	-0.11038052
177	0xbdbd6c99	-0.09249229
178	0xbd36d38a	-0.044635333
179	0xbda031c9	-0.07821996
180	0xbd0cb3eb	-0.03435127
181	0xbd08df8d	-0.03341632
182	0x3d4b23bd	0.04959463
183	0x3e6888ac	0.22708386
184	0xbd87dc03	-0.06633761
185	0x3deb4806	0.11488347
186	0xbc6eeb26	-0.014582431
187	0xbd2e566c	-0.042562887
188	0x3caee2cc	0.02134838
189	0xbd645d67	-0.055753138
190	0xbda00250	-0.07812941
191	0x3d3c4abf	0.04596972
192	0xbd826f8b	-0.063689314
193	0xbe9a882c	-0.30182016
194	0xbccf890b	-0.025333902
195	0xbbff8af7	-0.0077985483
196	0x3e19d86f	0.15023969
197	0x3cc45389	0.023965614
198	0xbd91637e	-0.07099055
199	0xbd514ba8	-0.051097542
200	0xbd9fb0f2	-0.077974215
201	0xbd967639	-0.07346768
202	0xbd6c09e7	-0.05762663
203	0x3d55581c	0.05208598
204	0x3d89b592	0.06724085
205	0x3d77e979	0.06052539
206	0xbea1ac0f	-0.31576583
207	0x3aa22af3	0.0012372419
208	0x3b236fa6	0.0024938374
209	0xbdb13480	-0.08652592
210	0xbd8ed671	-0.06974495
211	0x3bd7ba74	0.0065835062
212	0x3d42fd62	0.047604926
213	0xbd0a03dc	-0.033695087
214	0x3ce1b283	0.027550941
215	0x3d8687c6	0.065688655
216	0x3d4eda9b	0.050501447
217	0x3d0ff385	0.035144348
218	0xbd53a935	-0.05167504
219	0x3cafc1cd	0.021454716
220	0xbdecfa1d	-0.11571143
221	0xbcd533f9	-0.026025759
222	0xbca1b49e	-0.019739445
223	0xbdbd430a	-0.09241302
224	0x3d3f7e9a	0.046751596
225	0xbdd642ef	-0.10461985
226	0xbd659d7a	-0.056058384
227	0x3d981130	0.07425153
228	0xbcc79f94	-0.024368085
229	0xbc9d2f42	-0.019187573
230	0xbcb9fd8d	-0.02270391
231	0x3d2f0ac9	0.042734895
232	0x3a9c766b	0.0011937147
233	0xbcdb4480	-0.026766062
234	0xbd2dbfcf	-0.04241925
235	0xbd8552bc	-0.06509921
236	0xbdc22df5	-0.09481422
237	0x3b178cda	0.0023124726
238	0xbbb43ef6	-0.0055006696
239	0xbdbd4294	-0.092412144
240	0xbd5408c7	-0.051766183
241	0xbd48ea78	-0.04905173
242	0xbaf7aaf6	-0.0018895555
243	0xbdab6f60	-0.083708525
244	0x3daf6487	0.08564096
245	0xbda6f98b	-0.08153065
246	0x3daff574	0.08591738
247	0x3a4527de	0.0007520894
248	0xbeaf7e16	-0.34275883
249	0x3cf516ff	0.029918192
250	0xbdd9e72d	-0.106397964
251	0xbda2b8d8	-0.079454124
252	0x3c651074	0.0139809735
253	0xbca2a837	-0.019855602
254	0xbd222095	-0.039581854
255	0xbdbc776c	-0.092024654

layers.1.bias f4 [6]
0	0xbf98ef5a	-1.1948044
1	0xbd060948	-0.032723695
2	0x00000000	0.0
3	0x00000000	0.0
4	0x00000000	0.0
5	0x00000000	0.0
