RL4E2E/results/pptod/2.1k1/episode_1000/actor_param.pt (torch, 18853 bytes, 6 tensors)

layers.0.weight f4 [128, 3]
0	0x3e52c077	0.20581232
1	0xbd9c77f4	-0.07640067
2	0x3fd57d82	1.6678927
3	0x3ea1099e	0.3145265
4	0x3f67b03f	0.90503305
5	0x3f1b1a69	0.60587174
6	0x3d327155	0.043565113
7	0xbeae3533	-0.34024963
8	0xbf8dcc8b	-1.1078047
9	0x3fb50cb6	1.4144504
10	0xbf938faa	-1.1528218
11	0xbe9effbb	-0.31054482
12	0xc0088c74	-2.1335726
13	0xbe9e67c8	-0.30938554
14	0xbef17753	-0.4716135
15	0x3e261ed7	0.16222702
16	0x3eb6026b	0.3554872
17	0xbf6ba273	-0.9204475
18	0xbee2bbd0	-0.44283915
19	0xbf526e06	-0.8219913
20	0x3ec55a1c	0.3854531
21	0x3f636f0c	0.8884132
22	0xbf84865a	-1.0353501
23	0x3f5a09fd	0.8517149
24	0xbf71711f	-0.94313234
25	0x3f4bbc7f	0.795845
26	0x3f05d07d	0.5227125
27	0x3e5d8eb4	0.21636468
28	0x3de75c68	0.11296922
29	0xbe681bb0	-0.22666812
30	0xbe8f1bac	-0.279508
31	0xbf3f2d15	-0.74678165
32	0x3e35b1b1	0.17743565
33	0x3f2ffe76	0.6874765
34	0x3ed86cc1	0.42270473
35	0x3daefc50	0.085442185
36	0x3f849ebc	1.0360942
37	0xbfc71272	-1.5552504
38	0x3f509e7a	0.81491816
39	0x40178d15	2.367986
40	0x3df55c23	0.11980464
41	0x3d3e4496	0.046452127
42	0x3f855f6b	1.0419744
43	0x3f17a626	0.592379
44	0xbf984e7a	-1.1898949
45	0xbe24378a	-0.16036811
46	0x3e2a8720	0.16653109
47	0x3f1e2001	0.61767584
48	0x3fbed850	1.4909763
49	0xbc6f3394	-0.0145996995
50	0xbe8914b7	-0.26773617
51	0x3fa8d98a	1.3191388
52	0x3eeec684	0.4663583
53	0x3f48cde9	0.78439194
54	0xbf0a63ed	-0.54058725
55	0x3fa72bce	1.3060243
56	0x3f9db348	1.2320337
57	0x3f192122	0.5981618
58	0xbe78c63c	-0.2429437
59	0xbd8fb0ff	-0.07016181
60	0x3e45404a	0.19262806
61	0xbeba3710	-0.36370134
62	0xbfe1abbd	-1.7630535
63	0xbf0159ab	-0.5052745
64	0x3f071e72	0.5278083
65	0x3ef65ec4	0.48119175
66	0xbeef0ddb	-0.46690258
67	0xbf2b61d4	-0.6694615
68	0xbf0458bc	-0.516979
69	0x3d5ec901	0.05439091
70	0x3cd2a0bb	0.025711408
71	0x3f181d54	0.5941975
72	0x3f3ddf6a	0.7416903
73	0x3f3b9edc	0.73289275
74	0x3f231ee5	0.63719016
75	0xbcd044b8	-0.025423393
76	0x3f31d7c1	0.6946984
77	0xbe998f0a	-0.29991943
78	0xbe99052f	-0.29886767
79	0xbee54d77	-0.44785663
80	0x3fc19a27	1.5125169
81	0xbee91acf	-0.45528266
82	0x3fbc2591	1.4698964
83	0x3f883b4e	1.0643098
84	0x3daa5bba	0.08318277
85	0x3e95070b	0.29106936
86	0xbe8bcf1d	-0.27306452
87	0x3f0d58a0	0.55213356
88	0x3f412be9	0.75457627
89	0x3faac170	1.3340282
90	0x3cecb672	0.02889559
91	0xbe473593	-0.1945403
92	0x3bea21e0	0.0071451515
93	0x3f1ef4db	0.6209237
94	0xbf3b0c22	-0.7306539
95	0xbf708207	-0.93948406
96	0x3f4f30d4	0.8093388
97	0xbd9efd2a	-0.07763131
98	0xbfb68a48	-1.426095
99	0xbf5e7002	-0.8688966
100	0x3f9aa8f7	1.2082814
101	0xbe1844fc	-0.14870065
102	0xbceddd90	-0.029036313
103	0x3f1776f8	0.59165907
104	0x3f21141c	0.6292131
105	0xbe5043a4	-0.20338303
106	0x3f3e61a3	0.7436773
107	0xbd79ecaf	-0.061016735
108	0xbee4841b	-0.44632038
109	0x3f37f19e	0.71853054
110	0x3ec86431	0.3913894
111	0xbe34a0d8	-0.17639482
112	0xbf89f2c7	-1.0777215
113	0xbf959f77	-1.168929
114	0x40104bd9	2.2546294
115	0xbe3b127b	-0.18268768
116	0x3f6daec7	0.92844814
117	0xbf3725ef	-0.7154226
118	0xbf70333c	-0.9382818
119	0xbe71615a	-0.23572293
120	0xbe59fef6	-0.21288666
121	0x3f82e53c	1.0226207
122	0x400e6b70	2.2253075
123	0xbe54cc93	-0.20781164
124	0xbfc8203b	-1.5634836
125	0x3fd68c9f	1.6761664
126	0x3f649dff	0.8930358
127	0xbef6fd24	-0.48240006
128	0xbce696f4	-0.028148152
129	0x3f668aca	0.90055525
130	0x3f96f730	1.1794186
131	0x3efb96ad	0.49138394
132	0x3f3e3ef9	0.7431484
133	0xbead8987	-0.33893988
134	0x3f932cd9	1.1498061
135	0x3f0d850a	0.55281126
136	0xbe1e5434	-0.15461808
137	0xbf5b5d64	-0.8568938
138	0x3d8a0e18	0.067409694
139	0x3e954b59	0.29159048
140	0xbf45abe1	-0.7721539
141	0xbf5a3dfe	-0.8525084
142	0xbf0f9519	-0.5608688
143	0xbf8f462c	-1.119329
144	0x3f897e87	1.0741738
145	0xbe7d2200	-0.24720001
146	0xbd406630	-0.046972454
147	0xbfaad298	-1.3345518
148	0x3f8a3aab	1.0799154
149	0x3ec737c6	0.3890974
150	0x3ece1925	0.4025356
151	0x3f88e8e5	1.0696074
152	0xbdd0c63d	-0.10194061
153	0x3eb5933b	0.3546389
154	0xbf4be2c1	-0.79642874
155	0x3f0e6fc4	0.5563929
156	0x3ec3f415	0.38272157
157	0xbf3e3a7e	-0.74308
158	0x3f42976d	0.7601231
159	0x3e6c3159	0.230657
160	0x3f3c7a89	0.73624474
161	0x3ee1da8a	0.44112045
162	0x3d095e11	0.033536974
163	0x3f29024b	0.66019124
164	0xbf05d8f5	-0.52284175
165	0x3d3f002c	0.046631023
166	0x3f0bce90	0.54612064
167	0x3bcdac3f	0.006276637
168	0xbfa2fe8c	-1.2733932
169	0xbe19e716	-0.15029559
170	0x3f91f5a2	1.1403086
171	0xbf4a2813	-0.789674
172	0xbebe17ae	-0.3712744
173	0xbf16653c	-0.5874822
174	0xbe7bdf4b	-0.24596898
175	0xbf01cffb	-0.5070798
176	0xbfbe6b46	-1.4876487
177	0x3f32bd18	0.69819784
178	0x3f587b7c	0.8456342
179	0x3e87fd2b	0.2656034
180	0x3e92e12c	0.28687418
181	0xbc53637c	-0.012902137
182	0xbe252e59	-0.16130961
183	0x3eb9c8b6	0.36285943
184	0xbfb37aa2	-1.40218
185	0x3dd92b6c	0.10603985
186	0x3e1ee13c	0.15515608
187	0x3ece6eef	0.4031901
188	0x3f41527d	0.7551649
189	0x3ec5a1ec	0.386001
190	0xbe9f1a5b	-0.31074795
191	0x3e1122c6	0.14173421
192	0x3f5d1b97	0.86370224
193	0xbd4fe773	-0.050757837
194	0xbf6f519f	-0.9348392
195	0x3e8823af	0.26589724
196	0x3e6a6bc2	0.22892669
197	0x3f08afb4	0.533931
198	0xbf804fef	-1.0024394
199	0xbf1905cb	-0.59774464
200	0x3e17342b	0.14765994
201	0x3c641fe9	0.013923624
202	0x3ed59875	0.41717878
203	0xbefda45b	-0.49539456
204	0xbd6f5bc5	-0.058437128
205	0x3f9721b4	1.180716
206	0x3f91a4b7	1.1378392
207	0x3db32e66	0.08749084
208	0x3ea6621a	0.3249672
209	0xbfef1917	-1.8679532
210	0x3f6bc437	0.92096275
211	0xbefaf046	-0.4901144
212	0xbecd6f1e	-0.40123838
213	0xbedbfa6f	-0.42964503
214	0xbf78ff70	-0.97264767
215	0xbfe90680	-1.8205109
216	0x3f9099f8	1.1296988
217	0xbf9424d2	-1.1573737
218	0x3e8de201	0.2771149
219	0xbd25ed20	-0.040509343
220	0xbfdf9ad8	-1.746913
221	0xbf864749	-1.0490505
222	0x3f506de1	0.8141766
223	0x3b1a6cb3	0.0023563325
224	0xbf3a8604	-0.7286074
225	0xbe8567bf	-0.26055714
226	0x3f25050d	0.6446083
227	0x3f8dc0ca	1.107446
228	0xbf8cf8fd	-1.1013485
229	0x3e48a73a	0.19595042
230	0x3e25b160	0.16180944
231	0x3de7bd1c	0.113153666
232	0xbff0d0f5	-1.8813769
233	0xbed2a639	-0.41142443
234	0x3cbb2500	0.022844791
235	0xbf9d8911	-1.2307454
236	0x3e987e8a	0.29784042
237	0x3f15a95f	0.58461565
238	0x3f87093e	1.0549695
239	0xbf243bde	-0.6415385
240	0xbd01dbd7	-0.031703796
241	0x3f72764d	0.9471176
242	0x3e7ff263	0.24994807
243	0x3e903f35	0.28173223
244	0xbf7b023d	-0.9805029
245	0xbebd6b83	-0.36996087
246	0x3f8d2119	1.1025726
247	0x3fd31ec7	1.6493767
248	0xbf1a7870	-0.60340023
249	0xbfa0a4d9	-1.2550308
250	0xbee5f177	-0.44910786
251	0x3ee22a32	0.44172817
252	0xbf9a9c6f	-1.207899
253	0xbef99319	-0.4874504
254	0xbf22f261	-0.6365109
255	0x3f2d664d	0.67734224

layers.0.bias f4 [128]
0	0x3e67b59b	0.2262787
1	0x3eb0359f	0.3441591
2	0xbde44d5d	-0.111475684
3	0xbe2225eb	-0.15834777
4	0x00000000	0.0
5	0xbe5831ec	-0.21112794
6	0x3d8b4290	0.06799805
7	0xbd171f1b	-0.0368949
8	0xbd4fa7b7	-0.050697055
9	0xbe36b4f9	-0.17842473
10	0x3d666e36	0.05625745
11	0x3e7907cc	0.2431938
12	0xbdb18a83	-0.08668997
13	0x3c079c4f	0.008277013
14	0xbd987f19	-0.07446117
15	0x3e090250	0.13379788
16	0x3b949c23	0.0045352145
17	0x3e4d9e5a	0.20079938
18	0x3e245e01	0.16051485
19	0xbe68a235	-0.22718127
20	0xbe8e2fb0	-0.27770758
21	0xbdd4c7d1	-0.103896745
22	0x00000000	0.0
23	0x3ea779c5	0.3271009
24	0x3e98c3e0	0.2983694
25	0x3e47a7e2	0.19497636
26	0x3cae1e96	0.021254819
27	0x3e50a4f8	0.2037543
28	0x3df51667	0.119671635
29	0x3e907fc4	0.28222477
30	0xbed50e0b	-0.41612276
31	0xbeaffd80	-0.34373093
32	0xbe8a6bff	-0.2703552
33	0x3d0e3b14	0.03472431
34	0x3ef8cdb7	0.48594448
35	0x3e2155fa	0.15755454
36	0xbd934f56	-0.071928665
37	0x00000000	0.0
38	0x3d5fd91e	0.05465042
39	0x00000000	0.0
40	0x3e548453	0.20753603
41	0x3d42b54c	0.04753618
42	0xbd7a10c3	-0.06105114
43	0x3e97a364	0.29616845
44	0x3e1b7b11	0.15183665
45	0xbe9dcdf5	-0.30821195
46	0xbe5e51d1	-0.21710898
47	0x00000000	0.0
48	0xbd9cc942	-0.076555744
49	0x3d147e46	0.036253236
50	0x3e7234da	0.23652974
51	0xbc92d896	-0.017925542
52	0x3d2f2f19	0.042769525
53	0x3ebb3d6a	0.36570293
54	0x3e807c0c	0.2509464
55	0x3eb4d9d7	0.3532245
56	0x3d8dde69	0.06927187
57	0x00000000	0.0
58	0x00000000	0.0
59	0x3e9233d3	0.28555164
60	0xbe4639e9	-0.19358028
61	0xbe6eafbd	-0.23309226
62	0x3eab3a24	0.33442795
63	0xbe1dbdc9	-0.15404429
64	0xbe572d90	-0.21013474
65	0x3ea52c8d	0.32260552
66	0x3dbce134	0.092226416
67	0x3ddfd965	0.109301366
68	0x3f031285	0.51200134
69	0xbe173506	-0.1476632
70	0xbe2cb4ef	-0.16865896
71	0x00000000	0.0
72	0xbe2df743	-0.16988854
73	0x00000000	0.0
74	0xbe388db6	-0.18022808
75	0x3ea94924	0.33063614
76	0xbd86e87f	-0.06587314
77	0xbe212691	-0.15737368
78	0xbdbbf32c	-0.09177241
79	0x3e00d84d	0.12582512
80	0x3f01ccaf	0.5070295
81	0xbeb49f4e	-0.3527779
82	0x3db953bd	0.09049175
83	0xbd10ff30	-0.035399616
84	0x00000000	0.0
85	0xbeac6554	-0.33671057
86	0x3daad2b6	0.08340971
87	0x3de04bd4	0.10951963
88	0x00000000	0.0
89	0x00000000	0.0
90	0xbcf96d4a	-0.03044762
91	0x00000000	0.0
92	0x3eaef839	0.34173754
93	0x3ec4eabf	0.38460347
94	0x3e37df16	0.17956194
95	0x00000000	0.0
96	0xbeb780c5	-0.3584043
97	0x3db6fbbd	0.08934734
98	0x3d8c69a8	0.0685609
99	0xbb936d23	-0.004499094
100	0x3d0791b7	0.03309795
101	0xbedd228d	-0.43190423
102	0x3e56381c	0.20919842
103	0x00000000	0.0
104	0x3e953771	0.2914386
105	0x3e1e2ecf	0.15447544
106	0x3ed31602	0.41227728
107	0x3e3e9149	0.1861011
108	0xbcd88a19	-0.026433038
109	0x3e991433	0.29898223
110	0x00000000	0.0
111	0x3eb59550	0.3546548
112	0x3d442029	0.047882233
113	0x3ed6cb5e	0.41952032
114	0xbcbdcd48	-0.023169175
115	0x3dd4bf6e	0.10388075
116	0x00000000	0.0
117	0xbedda0d8	-0.43286777
118	0x3eaf7c06	0.3427431
119	0x00000000	0.0
120	0x3dc8f060	0.09811473
121	0x3cf3091c	0.02966743
122	0x3d896147	0.06708007
123	0x3e83b5eb	0.2572473
124	0x3de7b9ec	0.11314759
125	0x3e47eab2	0.19523123
126	0x3d000a86	0.031260036
127	0x3dd8fc87	0.10595041

action_parameters_output_layer.weight f4 [27, 128]
0	0x39b89f7c	0.0003521404
1	0xb77a389c	-1.4914342e-05
2	0xbba61bbd	-0.0050692246
3	0x35470bf0	7.415065e-07
4	0xb920b74b	-0.00015327071
5	0x3849ce34	4.8114176e-05
6	0x3ca04a32	0.01956663
7	0x399888cc	0.0002909362
8	0xbc220f1f	-0.0098913
9	0x3896fc92	7.199602e-05
10	0x3c988c33	0.01862154
11	0xb84ea7fd	-4.927068e-05
12	0x3934b919	0.00017235092
13	0x3900b767	0.00012275354
14	0xb91cef83	-0.00014966544
15	0x3b28cd0c	0.0025756983
16	0x36d1b33d	6.2495515e-06
17	0x394e9ad4	0.00019703369
18	0xbbcacb95	-0.0061888197
19	0x3835f4e0	4.338182e-05
20	0x3a8e6158	0.0010862751
21	0xbc141bb1	-0.009039805
22	0xb9386834	-0.00017586426
23	0xb9e31309	-0.00043310996
24	0xb981497c	-0.00024659547
25	0x3d1040f5	0.035218198
26	0x3c9db89e	0.019253071
27	0xbc780f0c	-0.015140306
28	0xb9b83642	-0.0003513564
29	0xb95725fa	-0.00020518145
30	0x3bb92e05	0.005651238
31	0xb8c845a2	-9.549713e-05
32	0xb903336c	-0.0001251229
33	0x3c864ea1	0.016394915
34	0xbc6938f7	-0.014234773
35	0x3d5bb4b7	0.05363914
36	0xbc0c5696	-0.008565566
37	0xb8d0d0a4	-9.957075e-05
38	0x3909c965	0.00013140363
39	0x38af60ea	8.362702e-05
40	0x3c7dffa3	0.015502843
41	0x3d12dc7d	0.035854805
42	0xb81820ce	-3.6270176e-05
43	0xb93466d9	-0.00017204451
44	0x3963812f	0.00021696532
45	0x38dcc798	0.00010527595
46	0x3ad3eb15	0.0016168082
47	0xb9192110	-0.00014603534
48	0x3838aca3	4.40298e-05
49	0xbbe9fb80	-0.007140577
50	0xb976ca2c	-0.00023535703
51	0x39559a27	0.00020370689
52	0x390fa28a	0.00013698093
53	0xb95fd8dc	-0.00021347724
54	0x3bb8c7a7	0.005639035
55	0xbaa5931e	-0.0012632345
56	0x3b2c8a40	0.002632752
57	0xb9019057	-0.0001235617
58	0xb7599dcf	-1.2970951e-05
59	0xb6a2a53e	-4.847213e-06
60	0x395469e6	0.00020257346
61	0x39c24907	0.00037056973
62	0xb88f427c	-6.831155e-05
63	0x38bccb19	9.0023685e-05
64	0x380e2b16	3.3895565e-05
65	0xb90744ed	-0.0001290028
66	0x3c6d7e87	0.0144954985
67	0xbcf77bd7	-0.030210419
68	0xbbd5066a	-0.0065010088
69	0xba7ea941	-0.0009714552
70	0x391811f0	0.00014502532
71	0xb874823f	-5.8295434e-05
72	0x38428a7f	4.638219e-05
73	0xb82eaacd	-4.1643903e-05
74	0xb91fde1a	-0.00015246161
75	0x3ba7e6b5	0.005123938
76	0xbc08ffa1	-0.008361728
77	0xbb6d2ef9	-0.0036191328
78	0x3ab0e2ba	0.0013495304
79	0xb90b46fe	-0.0001328252
80	0xbd19ef1f	-0.03758156
81	0x399b83ae	0.00029662013
82	0xb801f092	-3.0980045e-05
83	0xbc1fe0bf	-0.0097581735
84	0x37c0fd1c	2.3006047e-05
85	0x39221335	0.00015456679
86	0x3b105c2a	0.002202759
87	0x3b344cc2	0.0027511572
88	0x37b0e199	2.1085887e-05
89	0x3815a2af	3.567588e-05
90	0x38719c2d	5.7604328e-05
91	0xb7d87fbb	-2.5808686e-05
92	0x3792db46	1.7506663e-05
93	0xbadb91fd	-0.0016751882
94	0x38ae4fa6	8.311802e-05
95	0xb835462a	-4.321911e-05
96	0x384e4b00	4.9184076e-05
97	0x3c5bb483	0.013409737
98	0x3b462013	0.003023152
99	0x3877056f	5.889445e-05
100	0xbb47d995	-0.003049468
101	0x3ac6cae4	0.0015166667
102	0x392943ac	0.00016142306
103	0x38a89e01	8.040295e-05
104	0x38843194	6.303485e-05
105	0xb9747bad	-0.00023315726
106	0x3caecea2	0.021338765
107	0x396dc853	0.00022676708
108	0xbc36d215	-0.011158486
109	0xba95abfc	-0.0011419053
110	0x3963ce40	0.00021725241
111	0x3adedb99	0.0017002701
112	0x3c53d17b	0.012928362
113	0x3c7a7e99	0.015288972
114	0x3b312b73	0.0027033954
115	0x391accfc	0.00014762947
116	0x37b8054d	2.1936978e-05
117	0x39c3e50e	0.00037363957
118	0xbce66279	-0.028123127
119	0x381606bb	3.5769055e-05
120	0x39445d62	0.00018726804
121	0x3866daf9	5.5040207e-05
122	0x39487ae7	0.00019119271
123	0x397007ce	0.00022891091
124	0xba066e31	-0.0005128114
125	0x3d4a3722	0.049368985
126	0xbbc1796e	-0.005904368
127	0x3bc77827	0.0060873213
128	0x3a230bad	0.00062196964
129	0x394a4100	0.00019288436
130	0xbba87e9c	-0.005142046
131	0x391ab3f9	0.0001475363
132	0xb72abe07	-1.0177034e-05
133	0xba77308e	-0.00094295375
134	0x3b96a803	0.0045976653
135	0x3852c189	5.0248145e-05
136	0x3a245dae	0.0006270063
137	0xb9899a4a	-0.0002624563
138	0x3c0e4393	0.008683103
139	0xb6e07012	-6.688767e-06
140	0x3904dcc0	0.00012670737
141	0x388a7b02	6.603265e-05
142	0xb9393759	-0.00017663593
143	0x3b8c7c19	0.0042872545
144	0xb8ec74b9	-0.00011275098
145	0xb8413e30	-4.6072702e-05
146	0xbbc0ca84	-0.0058835167
147	0xb941b21b	-0.00018472264
148	0x3a919baa	0.0011109014
149	0xbc309535	-0.010777761
150	0xb8a14f07	-7.691798e-05
151	0x3af743f9	0.0018864862
152	0x389c8760	7.463875e-05
153	0xbcb1adbc	-0.021689288
154	0xbb8564bc	-0.0040708464
155	0xbb25123e	-0.0025187875
156	0xb9716aa8	-0.00023023284
157	0xb43d2d40	-1.7618459e-07
158	0xbbf45866	-0.007456827
159	0xb9783d92	-0.0002367406
160	0xb9cbdfad	-0.0003888583
161	0x3c18e697	0.009332321
162	0xbae562c6	-0.001750075
163	0x3cf093cd	0.029367352
164	0x3a8b8d2d	0.0010646932
165	0x3879506a	5.9441118e-05
166	0x395d06d5	0.00021078748
167	0xb9324d25	-0.00017004141
168	0xbba4571e	-0.005015268
169	0x3c85afd5	0.016319195
170	0xb82a2a3a	-4.0570485e-05
171	0x358cf8f0	1.0503263e-06
172	0x396781b1	0.0002207819
173	0xb968ec91	-0.00022213372
174	0xba30a1df	-0.0006737988
175	0x38199b3c	3.6622616e-05
176	0xb9178f30	-0.00014453824
177	0x3c490682	0.012269618
178	0xb93dc590	-0.00018098042
179	0x39fe05f4	0.0004845109
180	0x39cccd9c	0.00039063103
181	0x395b05f1	0.00020887681
182	0x3cb9a397	0.022661014
183	0x3a723b39	0.0009240392
184	0xbba4b393	-0.0050262897
185	0x37bf77b3	2.2824714e-05
186	0x3826cecd	3.9770082e-05
187	0x3890fdc4	6.9137226e-05
188	0x38a2cb2f	7.762608e-05
189	0x3a260244	0.0006332735
190	0x3a0f6cab	0.000547121
191	0xb91e88cc	-0.00015119015
192	0xb9aed2da	-0.00033344963
193	0x398972e3	0.00026216274
194	0xbc32c1e6	-0.010910487
195	0x3cb0e3d1	0.021593006
196	0xbc2e54f5	-0.0106403725
197	0xba907276	-0.001102044
198	0x38e1c1a0	0.000107649015
199	0xb809b47f	-3.2831445e-05
200	0x398c9cf9	0.00026819835
201	0x3848f5ea	4.791274e-05
202	0xb6b0ef88	-5.273094e-06
203	0x3bb30a4b	0.0054638735
204	0xbd295ff0	-0.04135126
205	0xb9f94a43	-0.0004754831
206	0xbc278b56	-0.010226091
207	0xb9584fb5	-0.00020629058
208	0x3c9b9029	0.01898964
209	0x38c35866	9.31479e-05
210	0xb976363e	-0.00023480595
211	0xbb2cb08f	-0.0026350354
212	0x38d5ef45	0.00010201199
213	0x3950fe76	0.0001993122
214	0xbd142e4c	-0.036176965
215	0x3cb48152	0.022034321
216	0xb84dc785	-4.9061626e-05
217	0xb7ee1266	-2.8380378e-05
218	0x393a2ef2	0.00017755831
219	0x37fcec37	3.0150737e-05
220	0xb8d511c3	-0.0001015994
221	0x3b8466f3	0.004040593
222	0xb978008c	-0.00023651327
223	0x38535f76	5.0395225e-05
224	0xb99aba12	-0.00029511802
225	0x3c227a13	0.0099168
226	0xbbecb76d	-0.0072240145
227	0xb95b2f06	-0.00020902985
228	0x3b480310	0.0030519404
229	0xbb027267	-0.0019904615
230	0x39c397fc	0.00037306536
231	0x37dcf369	2.633939e-05
232	0x39519b74	0.00019989704
233	0xb91a43ac	-0.00014711794
234	0x3c49221a	0.012276197
235	0x397d351c	0.00024147745
236	0xbd584f32	-0.0528099
237	0x3b6988e4	0.0035634572
238	0x37dc831e	2.62871e-05
239	0x3c392f8a	0.011302838
240	0x3c46de69	0.012137988
241	0x3c498ac1	0.012301148
242	0xbbd55228	-0.006510038
243	0x39bc80b8	0.00035954057
244	0x38672cf9	5.5116576e-05
245	0xb9da0eab	-0.0004159113
246	0xbd1344f4	-0.03595443
247	0xb7cf4374	-2.4707733e-05
248	0x3a8e7a9b	0.001087028
249	0xb92c32ad	-0.00016422076
250	0x396b2afc	0.0002242736
251	0x39f53ce0	0.00046775397
252	0xba41248b	-0.0007367811
253	0xbcb3acd5	-0.021932999
254	0x3c0ae021	0.008476288
255	0x3b9353e8	0.0044960864

action_parameters_output_layer.bias f4 [27]
0	0xbd813070	-0.06308067
1	0x3ddd3fa6	0.108031556
2	0xbcbf66c9	-0.023364441
3	0x3c33f6f7	0.010984174
4	0x3d20195f	0.039086696
5	0x3cd6fc7f	0.026243446
6	0xbd17dab0	-0.03707379
7	0x3c4147a4	0.011796866
8	0x3e0b77e0	0.13619947
9	0xbcae3611	-0.021266015
10	0xbcc38b96	-0.02387027
11	0x3d60ea79	0.05491111
12	0x3e62a21c	0.22132152
13	0xbd6f64f8	-0.0584459
14	0x3c6d193d	0.014471349
15	0x3de0193a	0.109423116
16	0xbb5bdd16	-0.0033548526
17	0x3e12401f	0.14282273
18	0x3dc92d52	0.09823097
19	0x3dfdab79	0.123862214
20	0x3defc888	0.1170817
21	0xbc8a60b1	-0.01689181
22	0xbd020cbd	-0.03175043
23	0x3d3c80e6	0.046021365
24	0xbcb58b08	-0.022161022
25	0xbd0dd3f3	-0.03462596
26	0xbd5310e5	-0.051529784

action_parameters_passthrough_layer.weight f4 [27, 3]
0	0x00000000	0.0
1	0x00000000	0.0
2	0x00000000	0.0
3	0x00000000	0.0
4	0x00000000	0.0
5	0x00000000	0.0
6	0x00000000	0.0
7	0x00000000	0.0
8	0x00000000	0.0
9	0x00000000	0.0
10	0x00000000	0.0
11	0x00000000	0.0
12	0x00000000	0.0
13	0x00000000	0.0
14	0x00000000	0.0
15	0x00000000	0.0
16	0x00000000	0.0
17	0x00000000	0.0
18	0x00000000	0.0
19	0x00000000	0.0
20	0x00000000	0.0
21	0x00000000	0.0
22	0x00000000	0.0
23	0x00000000	0.0
24	0x00000000	0.0
25	0x00000000	0.0
26	0x00000000	0.0
27	0x00000000	0.0
28	0x00000000	0.0
29	0x00000000	0.0
30	0x00000000	0.0
31	0x00000000	0.0
32	0x00000000	0.0
33	0x00000000	0.0
34	0x00000000	0.0
35	0x00000000	0.0
36	0x00000000	0.0
37	0x00000000	0.0
38	0x00000000	0.0
39	0x00000000	0.0
40	0x00000000	0.0
41	0x00000000	0.0
42	0x00000000	0.0
43	0x00000000	0.0
44	0x00000000	0.0
45	0x00000000	0.0
46	0x00000000	0.0
47	0x00000000	0.0
48	0x00000000	0.0
49	0x00000000	0.0
50	0x00000000	0.0
51	0x00000000	0.0
52	0x00000000	0.0
53	0x00000000	0.0
54	0x00000000	0.0
55	0x00000000	0.0
56	0x00000000	0.0
57	0x00000000	0.0
58	0x00000000	0.0
59	0x00000000	0.0
60	0x00000000	0.0
61	0x00000000	0.0
62	0x00000000	0.0
63	0x00000000	0.0
64	0x00000000	0.0
65	0x00000000	0.0
66	0x00000000	0.0
67	0x00000000	0.0
68	0x00000000	0.0
69	0x00000000	0.0
70	0x00000000	0.0
71	0x00000000	0.0
72	0x00000000	0.0
73	0x00000000	0.0
74	0x00000000	0.0
75	0x00000000	0.0
76	0x00000000	0.0
77	0x00000000	0.0
78	0x00000000	0.0
79	0x00000000	0.0
80	0x00000000	0.0

action_parameters_passthrough_layer.bias f4 [27]
0	0x00000000	0.0
1	0x00000000	0.0
2	0x00000000	0.0
3	0x00000000	0.0
4	0x00000000	0.0
5	0x00000000	0.0
6	0x00000000	0.0
7	0x00000000	0.0
8	0x00000000	0.0
9	0x00000000	0.0
10	0x00000000	0.0
11	0x00000000	0.0
12	0x00000000	0.0
13	0x00000000	0.0
14	0x00000000	0.0
15	0x00000000	0.0
16	0x00000000	0.0
17	0x00000000	0.0
18	0x00000000	0.0
19	0x00000000	0.0
20	0x00000000	0.0
21	0x00000000	0.0
22	0x00000000	0.0
23	0x00000000	0.0
24	0x00000000	0.0
25	0x00000000	0.0
26	0x00000000	0.0
