RL4E2E/results/pptod/2.1k1/episode_1000/actor.pt (torch, 20755 bytes, 4 tensors)

layers.0.weight f4 [128, 30]
0	0x3d4932b9	0.04912064
1	0x3ee6dc3e	0.45089906
2	0x3ce76ffc	0.02825164
3	0xbef35365	-0.47524562
4	0x3d0e0a92	0.03467805
5	0xbed7306b	-0.42029127
6	0xbe411460	-0.18855429
7	0x3e505470	0.2034471
8	0xbdc58585	-0.096446075
9	0xbed4d27a	-0.4156683
10	0xbbad8254	-0.0052950773
11	0x3efbeda0	0.4920473
12	0x3d5abc4e	0.053402238
13	0x3d80d5ce	0.0629078
14	0xbea20a28	-0.31648374
15	0xbefd2ca7	-0.4944813
16	0xbd2c8bf9	-0.042125676
17	0x3ea85861	0.32879928
18	0xbca898c2	-0.020580653
19	0xbed05d12	-0.40696007
20	0xbc8cda0b	-0.017193815
21	0x3e8220c9	0.25415638
22	0x3dafafee	0.08578478
23	0x3e4304ae	0.19044754
24	0xbe73f22d	-0.23822851
25	0xbed4739b	-0.4149445
26	0xbeb0a2d4	-0.34499228
27	0xbdd590f0	-0.10428035
28	0xbe8413b4	-0.25796282
29	0xbe9b4b15	-0.3033072
30	0xbe865f31	-0.262445
31	0xbedfeb8c	-0.43734396
32	0xbe3c6897	-0.18399273
33	0x3e4f1d5c	0.20226043
34	0xbe5b5a81	-0.21421243
35	0xbe0143cb	-0.12623517
36	0xbe113de0	-0.1418376
37	0x3cc2900d	0.02375033
38	0xbd0b1742	-0.033957727
39	0x3d1149c6	0.035470746
40	0xbe141070	-0.14459395
41	0xbe74cf37	-0.23907171
42	0x3d089b72	0.03335137
43	0x3ed32291	0.4123731
44	0x3e580f03	0.21099477
45	0x3c8cf07d	0.017204517
46	0xbe54e3de	-0.2079005
47	0xbdfdde80	-0.12395954
48	0x3c2ab4c4	0.010419074
49	0xbed74caa	-0.42050678
50	0x3ec3b25d	0.38222018
51	0x3c87b866	0.01656742
52	0x3e527e0d	0.20555897
53	0x3d27ff71	0.041015092
54	0x3d4a59d3	0.04940207
55	0xbe6085bf	-0.2192602
56	0x3e13a087	0.14416705
57	0xbe943b31	-0.2895141
58	0xbd4340e0	-0.04766929
59	0xbdb855b1	-0.09000719
60	0xbeb91149	-0.36146
61	0x3f502e55	0.813207
62	0x3f124597	0.57137436
63	0xbf16bb6c	-0.58879733
64	0x3ed49220	0.41517735
65	0xbf2d3f71	-0.6767493
66	0xbf169276	-0.5881723
67	0x3ce5b281	0.028039219
68	0xbf236e15	-0.63839847
69	0x3e04d84b	0.12973134
70	0x3dda9a3a	0.10673948
71	0x3f9471ae	1.1597192
72	0x3e58501a	0.21124306
73	0x3d9a137d	0.07523248
74	0xbecd7745	-0.40130058
75	0x3f30b394	0.69024014
76	0xbf0cfee0	-0.5507641
77	0x3e8f07e3	0.27935705
78	0xbe022497	-0.1270927
79	0x3e7ce05b	0.2469496
80	0xbe828388	-0.25490975
81	0x3e630054	0.22168094
82	0xbed3ef20	-0.41393375
83	0x3ee3d2e9	0.4449685
84	0x3d9b046d	0.075692035
85	0xbf67e79c	-0.9058778
86	0xbe072116	-0.13196215
87	0x3daa29bf	0.08308744
88	0xbf10f1f8	-0.56619215
89	0xbf551997	-0.8324217
90	0x3d96bfc6	0.07360797
91	0xbf4ae04b	-0.79248494
92	0xbd12c6b4	-0.03583403
93	0xbe8bc4e4	-0.27298653
94	0xbdb8bd59	-0.0902049
95	0xbebf3df5	-0.37351957
96	0x3eaaf492	0.33389717
97	0x3f2e3dce	0.68063056
98	0x3e456adf	0.1927905
99	0xbeaed093	-0.34143505
100	0xbe7919f8	-0.24326313
101	0xbd8d4f61	-0.06899906
102	0xbdff054b	-0.124521814
103	0xbcad6a2c	-0.02116879
104	0x3cbc8163	0.023010915
105	0x3eacc88e	0.3374676
106	0xbf6392e7	-0.8889603
107	0xbe4a8300	-0.19776535
108	0xbe7e287e	-0.24820134
109	0xbeb0a2be	-0.34499162
110	0x3f1ff253	0.6247913
111	0x3e908305	0.2822496
112	0xbea77a03	-0.32710275
113	0x3eed4c17	0.46347114
114	0xbe89e62d	-0.26933423
115	0xbe85caeb	-0.26131377
116	0xbcec0e46	-0.0288154
117	0xbed6db7b	-0.41964325
118	0x3cb7d12f	0.022438614
119	0x3e28027a	0.16407195
120	0x3ed259da	0.41084176
121	0xbde4e62c	-0.11176714
122	0x3ab9682a	0.0014145423
123	0xbd0e6611	-0.034765307
124	0x3eb8214c	0.35962903
125	0xbe756609	-0.23964705
126	0xbe9b38b9	-0.30316713
127	0x3ec67b38	0.38765883
128	0x3dd186bb	0.10230776
129	0xbeb2288e	-0.34796566
130	0xbda2b948	-0.07945496
131	0x3d818ca4	0.06325653
132	0xbe3c3379	-0.1837901
133	0xbf335084	-0.7004473
134	0x3ca57b67	0.020200444
135	0x3d40dcdd	0.04708563
136	0xbe836c68	-0.25668645
137	0x3e28f609	0.16500105
138	0xbdbd4d9c	-0.092433184
139	0x3e2a788f	0.16647552
140	0x3b971631	0.0046107997
141	0xbd97778e	-0.0739585
142	0x3d364713	0.044501375
143	0xbe80e70b	-0.25176272
144	0xbe152ca8	-0.14567816
145	0xbe003ace	-0.12522432
146	0xbe8abb41	-0.27095988
147	0x3d130673	0.035894822
148	0xbe840e7c	-0.257923
149	0xbd84c3c8	-0.06482655
150	0xbe916fd6	-0.28405637
151	0xbda8ea7e	-0.08247851
152	0xbe8a4a39	-0.27009752
153	0xbbfcdeaf	-0.0077169756
154	0x3eaff727	0.3436825
155	0xbe40c6bd	-0.18825813
156	0xbc925d24	-0.017866679
157	0xbec95235	-0.3932053
158	0x3e6629ce	0.22476885
159	0xbe17956f	-0.14803098
160	0x3c5ca5e4	0.013467286
161	0x3f06abfe	0.5260619
162	0xbd06c715	-0.032904703
163	0xbe2e75ad	-0.17037077
164	0x3eac0488	0.33597207
165	0x3db99a18	0.09062594
166	0xbdaa5904	-0.0831776
167	0xbecb0953	-0.3965555
168	0xbeb812c9	-0.35951832
169	0xbe038920	-0.12845278
170	0xbdb68778	-0.08912557
171	0x3e436e9e	0.19085166
172	0x3e9210b9	0.28528383
173	0x3e3c5102	0.18390277
174	0xbde42de9	-0.11141569
175	0x3e8a90e0	0.27063656
176	0xbec8330e	-0.39101452
177	0xbef4706c	-0.4774202
178	0x3ea1406b	0.3149446
179	0xbe0dbcc2	-0.13841537
180	0xbbac9c3d	-0.0052676485
181	0x3f438d6d	0.76387674
182	0xbfce3aa5	-1.6111647
183	0x3d928d75	0.07155887
184	0xbd948efd	-0.07253835
185	0x3f131ba9	0.5746408
186	0x3e403d05	0.18773277
187	0xbf289a69	-0.6586061
188	0x3ecae3f7	0.39627048
189	0x3e805125	0.25061908
190	0xbe1a2f50	-0.15057111
191	0x3e28b530	0.16475368
192	0x3f49eae1	0.7887402
193	0x3e021ec6	0.12707052
194	0x3f1c6f86	0.6110767
195	0x3e84e191	0.25953344
196	0x3c1c7a19	0.009550595
197	0x3f396e00	0.7243347
198	0xbe711cae	-0.23546097
199	0x3e54e0f5	0.2078894
200	0x3e71824b	0.23584859
201	0x3e43cd54	0.19121295
202	0x3ee9544d	0.4557213
203	0x3e4414cf	0.19148563
204	0x3f1c622e	0.6108731
205	0x3f274638	0.6534152
206	0x3d88c5d7	0.0667836
207	0x3f592bf5	0.848327
208	0x3f66b46d	0.9011906
209	0x3f04cf31	0.5187865
210	0x3d06b355	0.032885868
211	0xbc6f9999	-0.014624023
212	0xbce6a780	-0.028156042
213	0xbedf2558	-0.4358318
214	0xbe8abd65	-0.27097622
215	0x3cc20184	0.023682363
216	0x3c8ff69d	0.017573649
217	0xbca0b755	-0.01961867
218	0xbeedfe24	-0.46482956
219	0x3e60964f	0.21932338
220	0xbe980a0a	-0.2969516
221	0x3e31b47a	0.17354003
222	0xbe82457f	-0.25443646
223	0xbf075fe0	-0.5288067
224	0xbdf91e20	-0.12163949
225	0xbb91d28f	-0.0044501494
226	0xbf0a44a2	-0.54010975
227	0x3d64e146	0.0558789
228	0xbd84a724	-0.06477192
229	0x3de35ee9	0.11102087
230	0xbec147c8	-0.37750077
231	0xbed45aeb	-0.41475615
232	0xbda84268	-0.08215791
233	0xbe757ec9	-0.23974146
234	0xbe50b408	-0.20381176
235	0xbea8f350	-0.32998133
236	0x3caf1209	0.021370905
237	0xbde969db	-0.113971435
238	0xbe8d34f9	-0.27579477
239	0xbe29e5be	-0.16591546
240	0xbd00aade	-0.03141295
241	0xbe4b296c	-0.1984002
242	0xbd9a869f	-0.07545208
243	0xbde09d7a	-0.10967536
244	0xbe56c2af	-0.20972703
245	0xbdf8bc36	-0.121452734
246	0x3eaa5376	0.332668
247	0xbec862dc	-0.39137924
248	0x3e44fcd0	0.19237065
249	0xbc8321e4	-0.016007371
250	0x3ddbc3be	0.10730694
251	0x3e0cdba5	0.13755663
252	0x3d9e679a	0.07734604
253	0x3dfeb305	0.12436489
254	0xbe47e45c	-0.19520706
255	0xbd8f6ddb	-0.07003375

layers.0.bias f4 [128]
0	0x3ffe43e7	1.9864472
1	0x00000000	0.0
2	0x3f5b451f	0.85652345
3	0x400510ce	2.0791507
4	0x3fcdb934	1.6072145
5	0x00000000	0.0
6	0x400821bb	2.1270587
7	0x40273598	2.612646
8	0x00000000	0.0
9	0xc0246896	-2.5688834
10	0x3fee1dc5	1.8602835
11	0x3df7be3c	0.12096831
12	0x3ff2728e	1.8941209
13	0x3f6b515a	0.9192101
14	0xbd30f316	-0.043200575
15	0x3fc9e611	1.5773336
16	0xc00f29d4	-2.236928
17	0x3fe343bc	1.7755046
18	0x00000000	0.0
19	0x3ff94b80	1.9476166
20	0x4018a34c	2.3849669
21	0xc011550c	-2.2708158
22	0x400f8177	2.242277
23	0x400a5ad6	2.1617942
24	0x3fe2ea42	1.772774
25	0x4001a60c	2.0257597
26	0x3ff01572	1.8756545
27	0x3f8d7bd2	1.1053412
28	0xc007b358	-2.1203213
29	0xc0047618	-2.0697079
30	0x401662c1	2.3497775
31	0x3fe5f843	1.7966388
32	0x00000000	0.0
33	0x00000000	0.0
34	0x00000000	0.0
35	0x3fbcea75	1.4759051
36	0xc01af25a	-2.421042
37	0x3fe19ef0	1.7626629
38	0x00000000	0.0
39	0x3fde59f8	1.7371206
40	0xc01c6fbe	-2.4443202
41	0x3fd65a6a	1.6746342
42	0x3ff5f104	1.9214177
43	0xc01892cd	-2.38396
44	0x00000000	0.0
45	0xc0039187	-2.0557573
46	0x3f6dc886	0.928841
47	0x00000000	0.0
48	0x4002ac9b	2.041785
49	0x3fd4a8da	1.661403
50	0x3fdf80af	1.7461146
51	0x00000000	0.0
52	0x3f61c599	0.88192135
53	0x3ec38dd2	0.38194138
54	0x3fef7ce8	1.8709993
55	0x3fee4462	1.8614619
56	0xbd89ed98	-0.067347705
57	0xbd881007	-0.06643682
58	0x3ff78e99	1.9340392
59	0xc0135e56	-2.3026328
60	0x3f5323aa	0.82476294
61	0x3ff6c82b	1.9279836
62	0x3d0e69f4	0.034769014
63	0xc01f8eb3	-2.4930847
64	0x4000c32a	2.0119119
65	0x40061135	2.0948002
66	0x3fd94131	1.697302
67	0x3ff15aee	1.8855875
68	0x3ffb1710	1.9616413
69	0x3ea466ff	0.3210983
70	0x40120a6a	2.2818856
71	0x3feeb924	1.865025
72	0x4007e75e	2.1234965
73	0x4002bb86	2.0426955
74	0xbff915ef	-1.9459819
75	0x4013d44b	2.3098323
76	0x3e5af023	0.21380667
77	0x4005896a	2.086512
78	0x400ec75a	2.2309175
79	0x3ff79aee	1.9344156
80	0x4004aad2	2.072926
81	0xc039ee0f	-2.905155
82	0x4002326e	2.034328
83	0xbcdef37b	-0.02721571
84	0xc002ec6f	-2.0456808
85	0x402241b3	2.53526
86	0x00000000	0.0
87	0x00000000	0.0
88	0x00000000	0.0
89	0x3fd88826	1.6916549
90	0xc01d6975	-2.4595616
91	0x3fd96224	1.6983075
92	0xc00c760d	-2.1947052
93	0x40233ec0	2.550705
94	0xc00cba08	-2.1988544
95	0x40010369	2.0158331
96	0x3fd0e349	1.6319362
97	0xc01c6250	-2.4435005
98	0x3fe2225e	1.7666738
99	0x3feb49f1	1.838194
100	0x00000000	0.0
101	0x3fdfbb9b	1.7479128
102	0x4003c091	2.0586283
103	0xc0078f66	-2.1181273
104	0xbcb4e144	-0.022080071
105	0x3f896254	1.0733132
106	0xbfe89c60	-1.8172722
107	0x400d7b6f	2.2106588
108	0x3fe5d789	1.7956401
109	0xc038180f	-2.8764684
110	0x3fe56498	1.7921324
111	0x3ff3fbfd	1.9061276
112	0xc026e87b	-2.6079395
113	0xc01f70ec	-2.4912672
114	0x3fd84782	1.6896822
115	0xc0272349	-2.6115286
116	0x00000000	0.0
117	0x40053579	2.0813887
118	0x40138ae0	2.3053513
119	0xbd25bcf2	-0.040463395
120	0x4010e55c	2.263999
121	0x3fe86099	1.8154479
122	0x3fe1318a	1.7593243
123	0x3ff56caa	1.9173787
124	0x00000000	0.0
125	0x400864ca	2.1311517
126	0x3f34a44d	0.70563203
127	0x40134bd5	2.3015034

layers.1.weight f4 [6, 128]
0	0xbea0dea7	-0.3141987
1	0xbba9e080	-0.005184233
2	0xbf28c04a	-0.6591841
3	0xbf8e6c02	-1.1126711
4	0xbe19df01	-0.15026475
5	0xbd4e3c59	-0.05035052
6	0xbfc3d8d3	-1.5300545
7	0xbf95fe6a	-1.1718266
8	0xbd96cb86	-0.07363038
9	0x3ed15b27	0.40889856
10	0xbdc61fc4	-0.096740276
11	0x3f6d2564	0.9263518
12	0xbe998074	-0.29980814
13	0xbe88e8fa	-0.26740247
14	0xbc58b580	-0.013226867
15	0xbe120fbb	-0.14263813
16	0x3e48d0d2	0.19610909
17	0xbeec5d46	-0.46164912
18	0x3c8dec9c	0.017324738
19	0xbf2206ca	-0.6329161
20	0xbf9722e6	-1.1807525
21	0x3e2836b2	0.16427115
22	0xbf4c0802	-0.7969972
23	0xbf7f7ed2	-0.9980289
24	0xbe42a260	-0.19007254
25	0xbf0970a7	-0.5368752
26	0xbea11d95	-0.31467882
27	0xbeec3aa5	-0.46138492
28	0x3e7a48b3	0.24441795
29	0x3da43178	0.08017248
30	0xbf17cf92	-0.593011
31	0xbf19b648	-0.60043764
32	0x3d1565f6	0.03647419
33	0xbd912ab6	-0.070882246
34	0xbd90fd99	-0.0707962
35	0xbea7cd8f	-0.32774016
36	0x3ec45bc5	0.38351265
37	0xbe11797d	-0.142065
38	0xbc59a5e8	-0.013284184
39	0xbe0d3ca1	-0.1379266
40	0x3e999eba	0.3000391
41	0xbe060140	-0.13086414
42	0xbe0b0a33	-0.1357811
43	0x3ee3a6e9	0.4446328
44	0xbd16979b	-0.036765676
45	0x3e80e1f4	0.2517239
46	0xbf0904f2	-0.5352317
47	0xbcf85770	-0.030315131
48	0xbe2f47aa	-0.17117181
49	0xbde251cf	-0.1105076
50	0xbf346dc1	-0.7047997
51	0xbd893fca	-0.0670162
52	0xbf49e5dc	-0.7886636
53	0x3f9135ac	1.1344504
54	0xbf4af8d0	-0.7928591
55	0xbf0183b1	-0.5059157
56	0x3cce6a35	0.025197128
57	0x3c512d0d	0.012767089
58	0xbe915e87	-0.2839243
59	0x3f0f834d	0.56059724
60	0xbf31a18d	-0.6938713
61	0xbefd22a7	-0.494405
62	0x3f85bde9	1.0448581
63	0x3e9efe7c	0.3105353
64	0xbedddd6b	-0.4333299
65	0xbf4bfba9	-0.7968088
66	0xbdf216e6	-0.11820774
67	0xbea973c0	-0.33096123
68	0xbf18a645	-0.5962871
69	0x3f183298	0.594522
70	0xbf6259dc	-0.88418365
71	0xbf51e2b0	-0.8198652
72	0xbf1c25a8	-0.6099496
73	0xbeb8ad7d	-0.3606986
74	0x3e01f98d	0.12692852
75	0xbf2f514e	-0.68483436
76	0x3f803963	1.0017513
77	0xbf110215	-0.566438
78	0xbfa3aefb	-1.2787775
79	0xbebf05c2	-0.3730908
80	0xbe62c382	-0.22144893
81	0x3f4b6ebd	0.7946585
82	0xbf198a8a	-0.5997702
83	0x3d5aaa0f	0.053384837
84	0x3e3b8e4c	0.18316
85	0xbf936bbc	-1.1517253
86	0xbd13af5d	-0.03605591
87	0x3d78361a	0.06059847
88	0x3c52bcf8	0.0128624365
89	0xbf0e089e	-0.554819
90	0x3ef394d9	0.475745
91	0xbe744145	-0.23853023
92	0x3eaaaf53	0.33336887
93	0xbdc279be	-0.09495877
94	0x3e66fb80	0.22556877
95	0xbeaf6124	-0.342538
96	0xbe2d5613	-0.16927366
97	0x3ef6a822	0.4817515
98	0xbf5792f6	-0.8420862
99	0xbf290f4a	-0.66038954
100	0xbca9a504	-0.020708568
101	0xbe1e3dde	-0.15453288
102	0xbe7428da	-0.23843709
103	0x3e190b4c	0.14945716
104	0x3cc0d418	0.023538634
105	0xbeb3c75f	-0.35113046
106	0x3f93d9b8	1.1550817
107	0xbdd42130	-0.103578925
108	0xbd37065a	-0.04468379
109	0x3f0e46e8	0.55576944
110	0xbf4c9b91	-0.79924875
111	0xbeadce67	-0.33946535
112	0x3ede5175	0.43421522
113	0x3ef5c9bf	0.48005483
114	0xbe43fc91	-0.19139315
115	0x3f04cfea	0.5187975
116	0x3d3c94ee	0.046040468
117	0xbf5aa130	-0.854022
118	0xbfd0e571	-1.632002
119	0x3d321845	0.043480176
120	0xbf3d656f	-0.739829
121	0xbed66693	-0.41875133
122	0xbe439a7a	-0.19101897
123	0xbf10f914	-0.56630063
124	0x3b8838a0	0.004157141
125	0xbf2e7d0a	-0.68159544
126	0xbe9180c5	-0.28418556
127	0xbf5d2fa3	-0.8640081
128	0xbd7c0079	-0.06152389
129	0xbd4537e6	-0.048149012
130	0xbee9ef1c	-0.45690238
131	0x3e44325b	0.19159834
132	0xb8d550cb	-0.0001017168
133	0x3d91a5dd	0.07111714
134	0xbf3b6531	-0.7320128
135	0xbf6e74c7	-0.9314694
136	0xbb33dc80	-0.002744466
137	0x3d988d7e	0.074488625
138	0x3c207f94	0.009796042
139	0xbf510cbc	-0.81660056
140	0xbeb3147d	-0.3497657
141	0xbf506595	-0.81405
142	0x3d24381a	0.040092565
143	0x3cfafeaa	0.030639011
144	0xbd62bd4b	-0.055356305
145	0xbeed3f30	-0.4633727
146	0x3d64b902	0.0558405
147	0xbe3a2249	-0.18177141
148	0xbf350705	-0.70713836
149	0x3c1f1c94	0.009711403
150	0xbef31e85	-0.47484222
151	0x3e7c3e54	0.24633151
152	0xbdbb897f	-0.09157085
153	0xbe98765f	-0.2977781
154	0xbd0bb1e4	-0.034105197
155	0xbeab5494	-0.33462965
156	0x3d8b67b6	0.06806891
157	0xbdb79fc6	-0.08966021
158	0xbf13fd36	-0.57808244
159	0xbefe9ea9	-0.49730423
160	0xbd32c078	-0.043640584
161	0x3cab0324	0.020875521
162	0xbca551b0	-0.020180553
163	0xbe848d9d	-0.25889292
164	0x3cb3de1a	0.021956492
165	0xbc1006e4	-0.008790705
166	0xbd0539f5	-0.032525975
167	0x3ca21f9c	0.019790463
168	0x3dda1f23	0.1065047
169	0x3cd0ef81	0.02550483
170	0xbca46a45	-0.020070205
171	0xbbaa2bf3	-0.0051932274
172	0x3c43dd38	0.011954598
173	0xbd087118	-0.03331098
174	0xbebb4ac3	-0.36580476
175	0x3c4ac988	0.01237715
176	0xbe07c0fb	-0.1325721
177	0xbd98f9a3	-0.074694894
178	0xbf081071	-0.5315009
179	0xbda031c9	-0.07821996
180	0xbf03c64c	-0.5147445
181	0xbf977557	-1.1832684
182	0xbedf6106	-0.4362871
183	0xbed53c33	-0.4164749
184	0xbd87dc04	-0.066337615
185	0xbc4436a0	-0.011975914
186	0xbda1b234	-0.07895318
187	0x3d8fc971	0.07020844
188	0xbed0252e	-0.40653366
189	0xbe27ac09	-0.1637422
190	0xbf085163	-0.53249186
191	0x3d927faf	0.0715326
192	0xbf1a3a8a	-0.60245574
193	0xbf464337	-0.7744631
194	0xbcc7239b	-0.02430897
195	0xbb45d1bc	-0.0030184826
196	0xbec470f9	-0.3836744
197	0xbe9c0666	-0.30473632
198	0xbf113f80	-0.5673752
199	0xbf1aa43e	-0.60406864
200	0xbf17c4ef	-0.5928487
201	0xbf208ce3	-0.62714976
202	0xbcf513af	-0.029916612
203	0xbee0d360	-0.43911266
204	0xbf73b1e0	-0.9519329
205	0xbf0d3b02	-0.55168164
206	0xbf217293	-0.6306545
207	0xbe4303cf	-0.19044422
208	0xbd1d51d4	-0.038408116
209	0xbd5d96ad	-0.054098774
210	0xbe02d322	-0.12775853
211	0x3bd7ba70	0.0065835044
212	0x3dadf1c2	0.08493377
213	0xbf5bf5b8	-0.8592181
214	0x3ce1b284	0.027550943
215	0x3d8687c5	0.06568865
216	0x3d4eda9a	0.050501443
217	0xbebba3e9	-0.3664849
218	0x3ce89db9	0.02839552
219	0x3d99bd74	0.075068384
220	0xbdb95447	-0.09049278
221	0xbd3be4c0	-0.04587245
222	0x3c0c946a	0.008580307
223	0xbf31f3d8	-0.695127
224	0x3d81f7b3	0.06346073
225	0xbc055423	-0.008137736
226	0xbf618a7b	-0.8810193
227	0xbd233d20	-0.039853215
228	0xbcc79f94	-0.024368085
229	0xbcec74a0	-0.028864205
230	0xbd10941f	-0.03529751
231	0x3d994b85	0.07485107
232	0x3a9c7680	0.0011937171
233	0xbf19bd29	-0.6005426
234	0xbcc58331	-0.024110408
235	0xbd9a3439	-0.07529492
236	0xbdb368fc	-0.087602586
237	0x3d971a34	0.07378045
238	0xbf2fd044	-0.68677163
239	0xbdd86734	-0.105665594
240	0xbc349d99	-0.011023902
241	0xbbfee095	-0.007778237
242	0xbb96212b	-0.0045815906
243	0x3aca7e32	0.0015448986
244	0x3daf6487	0.08564096
245	0xbf328431	-0.6973296
246	0xbda460ea	-0.080262974
247	0x3a452800	0.0007520914
248	0xbf5385fc	-0.8262632
249	0xbeebcacd	-0.46053162
250	0xbde1036a	-0.10986979
251	0xbf052a8c	-0.52018046
252	0x3c651070	0.01398097
253	0xbf2846bc	-0.6573293
254	0xbf344c73	-0.7042915
255	0xbec74ca2	-0.38925654

layers.1.bias f4 [6]
0	0xbfc13a99	-1.5096008
1	0xbedf03f3	-0.435577
2	0x00000000	0.0
3	0x00000000	0.0
4	0x00000000	0.0
5	0x00000000	0.0
