RL4E2E/results/pptod/2.0k1/episode_1000/actor_param.pt (torch, 18917 bytes, 6 tensors)

layers.0.weight f4 [128, 3]
0	0x3e43b8ba	0.19113436
1	0xbdb697df	-0.08915686
2	0x3fd46993	1.6594719
3	0x3ea23b49	0.31685856
4	0x3f6e9b32	0.9320556
5	0x3f1cb10a	0.6120764
6	0x3d23a28d	0.039949942
7	0xbe98adfa	-0.29820234
8	0xbf8f0bea	-1.1175511
9	0x3fac4a95	1.3460261
10	0xbf9928d0	-1.196558
11	0xbec4477e	-0.38335794
12	0xc0088c74	-2.1335726
13	0xbe9e67c7	-0.3093855
14	0xbef17753	-0.4716135
15	0x3e15c944	0.14627558
16	0x3ea6691c	0.32502067
17	0xbf6af434	-0.91778874
18	0xbf037bc4	-0.51360726
19	0xbf32778a	-0.6971365
20	0x3ec2a77d	0.38018408
21	0x3f522c6a	0.8209902
22	0xbf8c2a94	-1.0950494
23	0x3f4cf5f0	0.8006277
24	0xbf559729	-0.8343378
25	0x3f61555d	0.8802088
26	0x3f11a01c	0.5688493
27	0x3e216786	0.15762147
28	0x3d7f01b7	0.062257495
29	0xbe9faeb4	-0.31187975
30	0xbeb64a49	-0.3560355
31	0xbf47131a	-0.7776352
32	0x3e16d01d	0.14727826
33	0x3f2dc2ca	0.6787535
34	0x3ee75652	0.45183045
35	0x3d6b647a	0.05746887
36	0x3f7b4e93	0.9816677
37	0xbfce2aa4	-1.6106763
38	0x3f42f2f4	0.7615197
39	0x4016f9cd	2.3589966
40	0x3e097472	0.13423327
41	0x3c478b21	0.012179167
42	0x3f77cc9f	0.967966
43	0x3f0b68e0	0.544569
44	0xbfa36751	-1.2765905
45	0xbccf526f	-0.025307862
46	0x3eb56f9c	0.35436714
47	0x3f289dd6	0.6586584
48	0x3fc252d3	1.5181526
49	0x3d0bec1e	0.034160726
50	0xbe92161d	-0.28532496
51	0x3fa7de40	1.31147
52	0x3ef5b4e7	0.4798958
53	0x3f4463d8	0.7671485
54	0xbf0166a8	-0.50547266
55	0x3fabbd60	1.3417168
56	0x3fa57d4f	1.2928866
57	0x3f117544	0.5681956
58	0xbe8656cf	-0.26238105
59	0xbe04f093	-0.12982397
60	0x3e36e941	0.17862417
61	0xbebdd9ff	-0.3708038
62	0xbfe91027	-1.8208054
63	0xbde9e06d	-0.11419759
64	0x3f493905	0.7860263
65	0x3f2a5451	0.66534907
66	0xbeef0ddd	-0.46690264
67	0xbf2b61d4	-0.6694615
68	0xbf0458bd	-0.51697904
69	0x3d34e0dd	0.04415976
70	0x3d0bafbd	0.034103144
71	0x3f19a96e	0.60024154
72	0x3f3e635c	0.7437036
73	0x3f41bbe5	0.7567733
74	0x3f218914	0.6309979
75	0x3abe7f9b	0.0014533879
76	0x3f350ca3	0.7072241
77	0xbe85f54d	-0.26163712
78	0xbe3cff56	-0.18456778
79	0xbe93d7c4	-0.28875554
80	0x3fd03796	1.6266963
81	0xbe9dc2ca	-0.30812675
82	0x3fc3beac	1.5292563
83	0x3f98b552	1.1930335
84	0x3d763ba6	0.06011548
85	0x3e98601b	0.29760823
86	0xbe9c4ada	-0.30525857
87	0x3f094ec3	0.53635806
88	0x3f4009d1	0.7501498
89	0x3fa95972	1.3230422
90	0x3c9a34e8	0.018824056
91	0xbe809c23	-0.25119123
92	0xbd315763	-0.04329623
93	0x3f1b1164	0.6057341
94	0xbf3dacc0	-0.7409172
95	0xbf7bb4e1	-0.98322874
96	0x3f43fc9d	0.7655733
97	0xbdced0b1	-0.100983985
98	0xbfbeada7	-1.4896744
99	0xbf60c13a	-0.8779484
100	0x3f98ada3	1.192799
101	0xbe21c440	-0.1579752
102	0xbd119ec8	-0.035551816
103	0x3f14a461	0.5806332
104	0x3f38b5d6	0.7215246
105	0xbeb635d4	-0.35587943
106	0x3f2140f0	0.6298971
107	0xbe1af4a8	-0.15132391
108	0xbdb64eee	-0.089017734
109	0x3f6a014e	0.9140824
110	0x3f13e96e	0.5777806
111	0xbe34a0d8	-0.17639482
112	0xbf89f2c6	-1.0777214
113	0xbf959f77	-1.168929
114	0x400d8850	2.2114449
115	0xbe5c9d40	-0.21544361
116	0x3f611433	0.87921447
117	0xbf3725ee	-0.7154225
118	0xbf70333f	-0.93828195
119	0xbe71614e	-0.23572275
120	0xbe022687	-0.1271001
121	0x3f84a9db	1.0364336
122	0x4010c03a	2.2617326
123	0xbe6d4225	-0.23169763
124	0xbfd2c403	-1.6466068
125	0x3fd44db8	1.6586218
126	0x3f566c93	0.8375942
127	0xbf02d0b3	-0.510997
128	0xbdaca6ea	-0.08430274
129	0x3f66ef18	0.9020858
130	0x3f9b9be1	1.2156945
131	0x3ef5fa1d	0.48042384
132	0x3f2f07ad	0.6837109
133	0xbec693de	-0.3878469
134	0x3f8c1cce	1.094629
135	0x3f024477	0.5088572
136	0xbe3489f6	-0.17630753
137	0xbf6ca1da	-0.92434466
138	0x3d65abcc	0.05607204
139	0x3e8018c1	0.25018886
140	0xbf505de2	-0.81393254
141	0xbf5a3dfe	-0.8525084
142	0xbf0f950f	-0.5608682
143	0xbf8f462c	-1.119329
144	0x3f8447ea	1.0334446
145	0xbe9241c3	-0.28565797
146	0xbdccee5f	-0.10006403
147	0xbf9be27b	-1.2178491
148	0x3f91ab28	1.1380358
149	0x3ef4a277	0.477802
150	0x3ec284b1	0.3799186
151	0x3f8ac1da	1.0840409
152	0xbe02e105	-0.1278115
153	0x3e9c1f9c	0.30492866
154	0xbf5855ad	-0.8450573
155	0x3f030180	0.51174164
156	0x3ea9f5f4	0.3319546
157	0xbf4860f7	-0.78272957
158	0x3f3a4d8f	0.72774595
159	0x3e6b09eb	0.22953002
160	0x3f44026d	0.765662
161	0x3ee5777d	0.44817725
162	0x3cb48145	0.022034297
163	0x3f2d56e6	0.6771072
164	0xbeff18d5	-0.49823633
165	0x3d207744	0.03917624
166	0x3f14f712	0.581895
167	0x3c105ab5	0.008810689
168	0xbf9f5026	-1.2446334
169	0xbcf356c4	-0.029704459
170	0x3f93667d	1.1515652
171	0xbf4a2813	-0.789674
172	0xbebe17b3	-0.37127456
173	0xbf16653b	-0.58748215
174	0xbe7bdf4b	-0.24596898
175	0xbf01cffb	-0.5070798
176	0xbfbe6b46	-1.4876487
177	0x3f358cdf	0.7091808
178	0x3f6153ba	0.8801838
179	0x3e879f68	0.26488805
180	0x3e7b1536	0.2451981
181	0xbd2a4d9b	-0.041577917
182	0xbe78fff0	-0.24316382
183	0x3ead8e38	0.33897567
184	0xbfb6ca89	-1.4280559
185	0x3db4f7ad	0.08836303
186	0x3e14fef5	0.14550383
187	0x3ed174df	0.40909478
188	0x3f426f8e	0.7595147
189	0x3e92d066	0.2867462
190	0xbec4e8e6	-0.38458937
191	0x3d487f65	0.048949618
192	0x3f49c2af	0.7881269
193	0xbdd6022f	-0.10449635
194	0xbf820005	-1.0156256
195	0x3e808534	0.25101626
196	0x3e77d209	0.24201216
197	0x3f078433	0.52936095
198	0xbf7b27aa	-0.981074
199	0xbf2dc265	-0.6787475
200	0x3dcb61b2	0.09930743
201	0x3c8bf548	0.017084733
202	0x3ecf5fe3	0.40502843
203	0xbf01f83a	-0.5076939
204	0xbcf1e622	-0.029528681
205	0x3f9d786d	1.2302376
206	0x3f989f4b	1.1923612
207	0x3db01f99	0.08599777
208	0x3e9fcc79	0.31210688
209	0xbfef594b	-1.8699125
210	0x3f636c10	0.88836765
211	0xbf021715	-0.5081647
212	0xbee584bd	-0.44827834
213	0xbedbfa6f	-0.42964503
214	0xbf78ff6e	-0.97264755
215	0xbfe90680	-1.8205109
216	0x3f8903bf	1.0704268
217	0xbf9ab4e9	-1.2086459
218	0x3e5f2bd6	0.21794066
219	0xbd25ed20	-0.040509343
220	0xbfdf9ad8	-1.746913
221	0xbf864749	-1.0490505
222	0x3f418948	0.756001
223	0xbd192340	-0.037387133
224	0xbf4d076d	-0.80089456
225	0xbd9a5bdb	-0.07537051
226	0x3f3c0b0d	0.7345436
227	0x3f9cf187	1.2261208
228	0xbf666b5d	-0.90007573
229	0x3e87d6fa	0.26531202
230	0x3e47011f	0.19434021
231	0x3dd984ed	0.10621057
232	0xbff57bfb	-1.9178461
233	0xbee14820	-0.4400034
234	0x3d0a1aff	0.03371715
235	0xbf84d1a9	-1.0376483
236	0x3eaf8cdd	0.34287158
237	0x3f087ce5	0.53315574
238	0x3f85b4d3	1.0445808
239	0xbf334788	-0.70031023
240	0xbd15ce4c	-0.036573693
241	0x3f7dc6d3	0.99131507
242	0x3ea5dcc2	0.32394987
243	0x3e8adae1	0.27120116
244	0xbf8183fa	-1.0118401
245	0xbec95e57	-0.39329788
246	0x3f86cfe7	1.0532197
247	0x3fd0e1a6	1.6318862
248	0xbf2990b3	-0.6623642
249	0xbf98d94c	-1.1941314
250	0xbeb2a0ea	-0.34888393
251	0x3ef4bdf9	0.47801188
252	0xbf9a9c6f	-1.207899
253	0xbef99319	-0.4874504
254	0xbf22f261	-0.6365109
255	0x3f298167	0.6621308

layers.0.bias f4 [128]
0	0x3e19c232	0.15015486
1	0x3e5061b2	0.20349768
2	0xbd2acd79	-0.04169986
3	0xbe686740	-0.22695637
4	0x00000000	0.0
5	0xbde88385	-0.1135321
6	0x3d9143d9	0.07093019
7	0xbe48223c	-0.1954431
8	0x3d172470	0.036899984
9	0xbdfdab00	-0.12386131
10	0x3cf85324	0.030313082
11	0x3de36ff9	0.111053415
12	0xbe763f34	-0.24047548
13	0xbb7842e3	-0.0037881664
14	0xbd0c3374	-0.034228757
15	0x3e921124	0.28528702
16	0x392dff06	0.0001659357
17	0x3d961bc0	0.07329512
18	0x3e8f3848	0.27972627
19	0xbe44212e	-0.19153282
20	0xbe579a2c	-0.21054906
21	0x3ea3d647	0.31999418
22	0x00000000	0.0
23	0x3e3aa5bd	0.18227287
24	0x3e207165	0.15668257
25	0x3e24d8bd	0.16098304
26	0x3e6cd1cd	0.23126908
27	0x3eb2fce2	0.3495856
28	0x3e18ac03	0.14909367
29	0x3e48a7f2	0.19595316
30	0xbe9fd282	-0.31215292
31	0xbe89b450	-0.2689538
32	0xbe4e78bf	-0.20163248
33	0x3d862350	0.06549704
34	0x3e88722b	0.26649603
35	0x3db9bd41	0.090693004
36	0x3e9b18fa	0.30292493
37	0x00000000	0.0
38	0x3c53e293	0.0129324375
39	0x00000000	0.0
40	0x3ec42e11	0.38316396
41	0x3e209294	0.15680915
42	0xbe14d8ad	-0.1453578
43	0x3e2406dc	0.16018242
44	0x3d339609	0.043844257
45	0xbe76e6b7	-0.24111448
46	0xbdb8abbf	-0.09017133
47	0x00000000	0.0
48	0xbe0574bc	-0.13032812
49	0x3d6ee171	0.058320466
50	0x3e518fad	0.20464964
51	0xbe5bf1f2	-0.21479014
52	0xbe123d33	-0.14281158
53	0x3e651388	0.22370732
54	0x3df58fa6	0.119902894
55	0x3e857ade	0.26070303
56	0x3da88199	0.08227844
57	0x00000000	0.0
58	0x00000000	0.0
59	0x3e1da387	0.15394412
60	0xbde69ffa	-0.11260982
61	0xbe8a969b	-0.27068028
62	0x3e584fe2	0.21124223
63	0xbe6e47b5	-0.23269542
64	0xbe77f6a6	-0.24215183
65	0x3e331fec	0.17492646
66	0x3d3590ed	0.044327665
67	0x3d9b3baa	0.075797394
68	0x3e69ec2f	0.22844003
69	0xbd2249b4	-0.03962107
70	0xbe3823e5	-0.17982443
71	0x00000000	0.0
72	0xbe859822	-0.2609263
73	0x00000000	0.0
74	0xbe30837c	-0.17237657
75	0x3e673d08	0.22581875
76	0x3da42048	0.0801397
77	0xbe48860b	-0.19582383
78	0x3e0a2ff6	0.13494858
79	0x3de972ef	0.11398875
80	0x3e77d316	0.24201617
81	0xbe974179	-0.2954214
82	0x3e073bbd	0.13206382
83	0x3d801d22	0.06255557
84	0x00000000	0.0
85	0xbe955cfc	-0.29172504
86	0x3d10676b	0.035254877
87	0x3d574789	0.052558456
88	0x00000000	0.0
89	0x00000000	0.0
90	0xbe4f52a5	-0.2024637
91	0x00000000	0.0
92	0x3e5930e6	0.2121006
93	0x3e66a449	0.22523607
94	0x3e0f2ff7	0.13983141
95	0x00000000	0.0
96	0xbe845a19	-0.2584999
97	0x3d80fc12	0.062980786
98	0x3d06987a	0.032860257
99	0x3d09f2b6	0.033678733
100	0x3e2a3b38	0.16624153
101	0xbe909d31	-0.28244928
102	0x3e1b22fd	0.15150066
103	0x00000000	0.0
104	0x3e414c4c	0.18876761
105	0x3de2707c	0.11056611
106	0x3e8c9894	0.27460158
107	0x3d9467c8	0.07246357
108	0x3d5d09f9	0.05396459
109	0x3dba3bec	0.090934604
110	0x00000000	0.0
111	0x3e961b60	0.2931776
112	0x3d808e7c	0.06277177
113	0x3ea859e1	0.32881072
114	0x3d3bf56a	0.045888342
115	0xbdc61b9b	-0.09673234
116	0x00000000	0.0
117	0xbea09d93	-0.3137022
118	0x3e67081c	0.22561687
119	0x00000000	0.0
120	0xbe0e4886	-0.13894853
121	0xbca4fd19	-0.020140218
122	0xbdd8e8f5	-0.10591308
123	0x3e34e15d	0.17664094
124	0x3e355781	0.17709161
125	0x3e49f7fc	0.19723505
126	0x3d78b12b	0.060715836
127	0x3d0daa39	0.034586165

action_parameters_output_layer.weight f4 [27, 128]
0	0x3a64aba1	0.00087230845
1	0x39128492	0.00013973031
2	0x3c53ce90	0.012927666
3	0xb70680b8	-8.016992e-06
4	0xb920b74b	-0.00015327071
5	0xba6dcf90	-0.0009071762
6	0xbc852b12	-0.01625589
7	0x39c9502f	0.0003839745
8	0x3b2807c9	0.0025639406
9	0xb955278a	-0.00020327992
10	0xbc0755db	-0.008260216
11	0xb7366a32	-1.0872771e-05
12	0x397b24e1	0.00023950964
13	0x3904f4e0	0.00012679724
14	0xb955c39d	-0.00020386135
15	0xbbb347eb	-0.00547122
16	0x36d6791d	6.3917964e-06
17	0x3978f140	0.00023740996
18	0x3ad733c4	0.0016418626
19	0xb5e2cb65	-1.6897508e-06
20	0xbab9cb56	-0.0014174979
21	0x3cdddc73	0.027082657
22	0xb9386833	-0.00017586425
23	0x3a88c6c3	0.0010435212
24	0xb939d3bc	-0.00017721852
25	0x398274db	0.00024882596
26	0x3bb3bddb	0.005485279
27	0xba85f74e	-0.0010220797
28	0xba5aeb62	-0.0008351115
29	0xb89d1499	-7.49018e-05
30	0x3ba2f6b6	0.004973258
31	0xb93982a1	-0.00017691638
32	0xb9790742	-0.00023749194
33	0xba8fa8c3	-0.0010960329
34	0x3c5209ab	0.012819688
35	0x3b3f8034	0.0029220702
36	0x3d048756	0.03235563
37	0xb8d0d0a4	-9.957075e-05
38	0x3928b6db	0.00016089847
39	0x38af60f3	8.3627085e-05
40	0xbc559cc5	-0.013037865
41	0xbba07ea8	-0.004897911
42	0xb7bc9963	-2.2482773e-05
43	0xb912560f	-0.00013955704
44	0x39b57c2b	0.00034615523
45	0xb878dd66	-5.9334e-05
46	0xbb82dfd4	-0.0039939675
47	0xb919210d	-0.0001460353
48	0x3840b032	4.5940462e-05
49	0xbc05d51c	-0.008168485
50	0xb96926fb	-0.00022235133
51	0x39c5e17f	0.00037742776
52	0x39d26429	0.00040128946
53	0x37607632	1.337896e-05
54	0xbbff3502	-0.0077883014
55	0xba147a5a	-0.0005663984
56	0x3c05451c	0.008134153
57	0xb9019057	-0.0001235617
58	0xb7599dcf	-1.2970951e-05
59	0x3820f3c5	3.8374e-05
60	0x38bc5dc4	8.982004e-05
61	0x393d5474	0.00018055906
62	0x39ce9075	0.0003939901
63	0x38d5856b	0.000101814825
64	0xb8314888	-4.226764e-05
65	0x39191ae3	0.00014601233
66	0xbd0feb2d	-0.03513639
67	0xbd55cdf1	-0.052198354
68	0x3d12d13e	0.03584408
69	0xbae99fb0	-0.001782408
70	0x38e26966	0.00010796152
71	0xb874823f	-5.8295434e-05
72	0x388ff02b	6.863506e-05
73	0xb82eaad1	-4.1643918e-05
74	0xb96ea1ab	-0.00022757675
75	0xbb9514e1	-0.004549608
76	0x3a1379a1	0.0005625729
77	0x3b6f3873	0.0036502152
78	0x3cb9ca15	0.022679368
79	0xb95a4a18	-0.00020817702
80	0xbd6aa258	-0.05728373
81	0x38164e74	3.5835852e-05
82	0xb88de9fc	-6.766987e-05
83	0x3c913ed1	0.017730149
84	0x37c0fd1b	2.3006045e-05
85	0x38b6a468	8.709059e-05
86	0x3b943424	0.004522817
87	0xb7e29f7c	-2.7015565e-05
88	0x37b0e199	2.1085887e-05
89	0x3815a2ad	3.5675872e-05
90	0x389a2e6f	7.351941e-05
91	0xb7d87fc6	-2.5808706e-05
92	0x38eb9d83	0.00011235012
93	0x3acef524	0.001578961
94	0x3899be63	7.331071e-05
95	0xb835462a	-4.321911e-05
96	0xb8dcf164	-0.0001053538
97	0x3c660636	0.014039567
98	0xb8bf6fa0	-9.1283815e-05
99	0xb83591e4	-4.3289634e-05
100	0x3cc14b7b	0.023595562
101	0x38fdbf58	0.00012099621
102	0x39f090be	0.00045884209
103	0x38a89e01	8.040295e-05
104	0x393544d7	0.0001728715
105	0xb99521d9	-0.00028444713
106	0x3cd78df0	0.026312798
107	0x3999648a	0.00029257342
108	0x3c3d635c	0.011559334
109	0x3ae7cf07	0.00176856
110	0x3963ce40	0.00021725241
111	0xbd3a2ab3	-0.045450877
112	0xbb01adcc	-0.001978743
113	0xbcdca07f	-0.026932
114	0x3c4dda06	0.012564188
115	0x39d8ea22	0.00041373173
116	0x37b8054d	2.1936978e-05
117	0x3834ce9c	4.3107764e-05
118	0xbc59ba6c	-0.013289075
119	0x381606bb	3.5769055e-05
120	0x3a88ba5a	0.0010431514
121	0x37e2d320	2.7039612e-05
122	0x3994f93c	0.00028414454
123	0x3a288ed5	0.0006429975
124	0xba85560b	-0.0010172738
125	0xbc72eb59	-0.014826619
126	0xbc0dcac1	-0.008654297
127	0x3ca01d0d	0.019545102
128	0xb73b6797	-1.11701875e-05
129	0xb9c47d75	-0.00037477506
130	0x3ac4a39e	0.0015002375
131	0x39bd28d8	0.0003607932
132	0xb72abe07	-1.0177034e-05
133	0xba192c7b	-0.0005843115
134	0xbc40fbb8	-0.011778764
135	0x395c0a3f	0.00020984652
136	0xbc6fcc45	-0.014636104
137	0x3915278e	0.00014224483
138	0xbcc4e2de	-0.02403396
139	0xb8e2f586	-0.00010822252
140	0x39aefcce	0.0003337622
141	0x39268184	0.00015879242
142	0x380b6970	3.323838e-05
143	0xbc1061cd	-0.00881238
144	0xb76c38e2	-1.407994e-05
145	0xb8933910	-7.020135e-05
146	0x398a8fce	0.00026428554
147	0x37fc7b02	3.0098021e-05
148	0x3ab3f230	0.0013728794
149	0xbb69ae85	-0.0035657
150	0xb8a14f06	-7.6917975e-05
151	0xb9a15ff7	-0.00030779812
152	0xb8d19428	-9.993493e-05
153	0x39a4b061	0.0003141193
154	0x3c378291	0.011200563
155	0xbb98ed09	-0.0046669287
156	0xba7e3c01	-0.00096982723
157	0xb9a25923	-0.0003096546
158	0x3bce051f	0.0062872316
159	0x39a10acb	0.00030716354
160	0x38b2b4ac	8.521354e-05
161	0xba483da0	-0.00076385774
162	0x3d0702ec	0.03296177
163	0x3854c06e	5.0723953e-05
164	0x3d1e6b23	0.038676392
165	0x3879506a	5.9441118e-05
166	0x398fe335	0.00027444368
167	0xb9324d25	-0.00017004141
168	0x3b920d82	0.0044571767
169	0x3a49f723	0.0007704368
170	0x38d8456f	0.000103126156
171	0xb9132091	-0.00014031144
172	0x39288847	0.00016072496
173	0x399a1a9e	0.00029393
174	0xb9d848d9	-0.00041253006
175	0x38199b3c	3.6622616e-05
176	0xb78f8c2a	-1.7112197e-05
177	0xbc2746d2	-0.010209756
178	0xba04e13d	-0.00050689635
179	0x3a410afd	0.0007364003
180	0x3a092c10	0.0005232701
181	0xba1265d3	-0.0005584631
182	0xbb1b48bd	-0.0023694478
183	0xbb0c5a34	-0.002141607
184	0xbc17b0a0	-0.009258419
185	0x37bf77b3	2.2824714e-05
186	0x3826ceca	3.977007e-05
187	0xb8c78275	-9.513359e-05
188	0x398a583a	0.00026387145
189	0x3a8d16b3	0.0010764211
190	0xb9f9e1fa	-0.00047661347
191	0x3903efe7	0.00012582504
192	0x36012681	1.924491e-06
193	0xb995bdbb	-0.00028560855
194	0xbcff501c	-0.031166129
195	0xbaa0a1b9	-0.0012255228
196	0xba4af69d	-0.0007742437
197	0x3b9de91d	0.004819049
198	0x39b56c80	0.0003460385
199	0xb809b47f	-3.2831445e-05
200	0x39fa8697	0.00047783993
201	0x3848f5e1	4.791271e-05
202	0x399ad2fc	0.00029530365
203	0x3a92d015	0.0011200929
204	0x3c39f24b	0.011349271
205	0x3bcadbd2	0.0061907554
206	0x3cf000af	0.029297201
207	0xb98828a0	-0.0002597021
208	0xbcf9de39	-0.030501472
209	0x3a800047	0.0009765708
210	0xb98423da	-0.00025203713
211	0xba2b970d	-0.00065456406
212	0x38d5ef45	0.00010201199
213	0x3a24edc5	0.0006291534
214	0x3c9a5453	0.018839037
215	0x3b863993	0.004096219
216	0xb84dc785	-4.9061626e-05
217	0xb7ee1268	-2.8380382e-05
218	0x39acadc6	0.00032935868
219	0x37fcec37	3.0150737e-05
220	0xba136248	-0.000562225
221	0xbaa50e24	-0.0012592715
222	0xb9a7d1f7	-0.00032009158
223	0x38535f74	5.0395218e-05
224	0x3912926c	0.00013978191
225	0x3beba9be	0.0071918657
226	0xbc1fe20c	-0.009758484
227	0xb8d7ecf5	-0.000102961356
228	0x3c851b52	0.016248379
229	0x3aeba656	0.0017978649
230	0xb79e8083	-1.889491e-05
231	0x37dcf369	2.633939e-05
232	0xb8aa11e9	-8.109568e-05
233	0xb96e0083	-0.0002269764
234	0x3babde76	0.0052450253
235	0x39559ef5	0.00020372479
236	0x3c10fc87	0.00884927
237	0x3a66e287	0.0008807559
238	0x37dc831e	2.62871e-05
239	0xbca65fac	-0.020309292
240	0x399d8b8b	0.0003004934
241	0x3cd9db63	0.02659387
242	0x3c9fd556	0.019510906
243	0x39c4c293	0.00037529002
244	0x38672cf7	5.511657e-05
245	0x3a0bf1ac	0.0005338441
246	0x3b83df67	0.0040244344
247	0xb7cf4373	-2.4707731e-05
248	0x3a998cbd	0.0011714917
249	0xb83d0507	-4.5065794e-05
250	0x399a2f25	0.00029408294
251	0xb94fa759	-0.000198034
252	0xbadeea36	-0.0017007056
253	0x3a909ef1	0.0011033696
254	0x3b09b2ce	0.0021011117
255	0x3c623b28	0.013808049

action_parameters_output_layer.bias f4 [27]
0	0x3b6d9d9a	0.0036257268
1	0xbbb67115	-0.0055676796
2	0x3d7a36aa	0.061087288
3	0x3d222c45	0.039593
4	0x3cb2b7b1	0.021816107
5	0x3d9a0329	0.07520134
6	0x3c183f5c	0.00929245
7	0x3d5806af	0.05274075
8	0xbcae277a	-0.021259058
9	0xbb0cdea6	-0.0021495013
10	0x3ccf35af	0.025294153
11	0xbbb435ee	-0.005499593
12	0x3d22ad58	0.039716095
13	0x3d545b80	0.051845074
14	0x3d96d398	0.07364577
15	0xbc76fde3	-0.01507518
16	0x3ade97c5	0.0016982487
17	0x3c60dabe	0.013724027
18	0xbbd45cee	-0.0064808046
19	0x3e04a933	0.1295517
20	0x3cfa9d90	0.03059271
21	0x3d454f5b	0.048171382
22	0x3d9e06e7	0.0771616
23	0x3d446318	0.047946066
24	0x3b833c98	0.004005026
25	0x3dab3358	0.083594024
26	0x3dcac30b	0.09900483

action_parameters_passthrough_layer.weight f4 [27, 3]
0	0x00000000	0.0
1	0x00000000	0.0
2	0x00000000	0.0
3	0x00000000	0.0
4	0x00000000	0.0
5	0x00000000	0.0
6	0x00000000	0.0
7	0x00000000	0.0
8	0x00000000	0.0
9	0x00000000	0.0
10	0x00000000	0.0
11	0x00000000	0.0
12	0x00000000	0.0
13	0x00000000	0.0
14	0x00000000	0.0
15	0x00000000	0.0
16	0x00000000	0.0
17	0x00000000	0.0
18	0x00000000	0.0
19	0x00000000	0.0
20	0x00000000	0.0
21	0x00000000	0.0
22	0x00000000	0.0
23	0x00000000	0.0
24	0x00000000	0.0
25	0x00000000	0.0
26	0x00000000	0.0
27	0x00000000	0.0
28	0x00000000	0.0
29	0x00000000	0.0
30	0x00000000	0.0
31	0x00000000	0.0
32	0x00000000	0.0
33	0x00000000	0.0
34	0x00000000	0.0
35	0x00000000	0.0
36	0x00000000	0.0
37	0x00000000	0.0
38	0x00000000	0.0
39	0x00000000	0.0
40	0x00000000	0.0
41	0x00000000	0.0
42	0x00000000	0.0
43	0x00000000	0.0
44	0x00000000	0.0
45	0x00000000	0.0
46	0x00000000	0.0
47	0x00000000	0.0
48	0x00000000	0.0
49	0x00000000	0.0
50	0x00000000	0.0
51	0x00000000	0.0
52	0x00000000	0.0
53	0x00000000	0.0
54	0x00000000	0.0
55	0x00000000	0.0
56	0x00000000	0.0
57	0x00000000	0.0
58	0x00000000	0.0
59	0x00000000	0.0
60	0x00000000	0.0
61	0x00000000	0.0
62	0x00000000	0.0
63	0x00000000	0.0
64	0x00000000	0.0
65	0x00000000	0.0
66	0x00000000	0.0
67	0x00000000	0.0
68	0x00000000	0.0
69	0x00000000	0.0
70	0x00000000	0.0
71	0x00000000	0.0
72	0x00000000	0.0
73	0x00000000	0.0
74	0x00000000	0.0
75	0x00000000	0.0
76	0x00000000	0.0
77	0x00000000	0.0
78	0x00000000	0.0
79	0x00000000	0.0
80	0x00000000	0.0

action_parameters_passthrough_layer.bias f4 [27]
0	0x00000000	0.0
1	0x00000000	0.0
2	0x00000000	0.0
3	0x00000000	0.0
4	0x00000000	0.0
5	0x00000000	0.0
6	0x00000000	0.0
7	0x00000000	0.0
8	0x00000000	0.0
9	0x00000000	0.0
10	0x00000000	0.0
11	0x00000000	0.0
12	0x00000000	0.0
13	0x00000000	0.0
14	0x00000000	0.0
15	0x00000000	0.0
16	0x00000000	0.0
17	0x00000000	0.0
18	0x00000000	0.0
19	0x00000000	0.0
20	0x00000000	0.0
21	0x00000000	0.0
22	0x00000000	0.0
23	0x00000000	0.0
24	0x00000000	0.0
25	0x00000000	0.0
26	0x00000000	0.0
