RL4E2E/results/pptod/2.0k1/episode_1000/actor.pt (torch, 20755 bytes, 4 tensors)

layers.0.weight f4 [128, 30]
00000000: ac3f 863d a072 cb3e 2647 87bd 0e3f f2be
00000010: 52b0 cabd 0d19 dabe 41e2 7ebe 2965 4f3e
00000020: 8e54 c6bd 8d1c cebe d7a2 6dbc 79df ac3e
00000030: 11b4 d7bd c6de a33d 93af 64be 7a39 0dbf
00000040: a6d2 8abd 9c57 bf3e e1bd 7fbc aa56 d8be
00000050: 18c8 b7bc 41b7 623e d301 523e fe7d 533d
00000060: 44ea 96be 4da9 e8be d968 b9be dbfe d7bd
00000070: 85c0 93be ab85 d8be 315f 86be 89eb dfbe
00000080: 9868 3cbe 631d 4f3e 815a 5bbe ca43 01be
00000090: e03d 11be 0d90 c23c 4217 0bbd c449 113d
000000a0: 7010 14be 30cf 74be 729b 083d 9122 d33e
000000b0: 030f 583e 7df0 8c3c dee3 54be 80de fdbd
000000c0: c4b4 2a3c aa4c d7be 5db2 c33e 66b8 873c
000000d0: 0d7e 523e 69ff 273d d559 4a3d bf85 60be
000000e0: 87a0 133e 313b 94be e140 43bd b155 b8bd
000000f0: 1799 a5be 9a48 313f f020 113f 3909 e7be
00000100: 013e 7dbd 1b1b 24bf 0733 97be e1d8 7e3e
00000110: d000 c4be 6859 0b3d b21e c43d 555a 39bd
00000120: 2ed0 063e abeb 573d 51a1 9ebe cd78 4c3e
00000130: 4a55 763d 80cd 00be b8c4 0cbf b8c8 cd3e
00000140: 47d3 873e 4b9d eb3e 2905 6cba c341 863e
00000150: d577 21be b703 81be 7d09 4a3e bf33 0abd
00000160: e4cc b4be c617 17be 1481 583c e7ad 1ebf
00000170: 855e 15bd 8acb 713e 9546 993e 9b67 58bc
00000180: 0f2d cb3c 16bd 5b3f 0b9a 2e3e 254a 073e
00000190: de40 893e 6f16 b23e 4e9d 4c3e 5fd7 6c3e
000001a0: e1dd 013f dafe bb3e 6000 9cbe 01f2 543d
000001b0: 4341 7a3e fa1b 89be cead 513f 4538 bd3e
000001c0: 18b1 6c3e b2f8 3f3f bd00 69bd 1036 fc3e
000001d0: b239 293e da9d d1bc 225c 473f 0807 7e3d
000001e0: 9a7c d93e d82f 51be 04a2 b4bd cbba 1bbd
000001f0: 1704 803e d506 86be fbf7 b9be dc65 be3e
00000200: da02 ce3d 9964 aebe a635 fcbd 32f8 82bd
00000210: 2b6f bbbe a692 39bf b4e7 df3d 8f2c 0bbd
00000220: fa4f 8abe 6888 503e acee efbd 08fc 1e3e
00000230: 0ede f83b e358 f3bd 66ae 3a3e 13f3 bfbe
00000240: 363a 57be bb61 1fbe 570a 93be 5278 883b
00000250: 18ea 67be 905d 29be d66f 91be 7dea a8bd
00000260: 394a 8abe afde fcbb 24f7 af3e bdc6 40be
00000270: 3c5d 92bc 3552 c9be ce29 663e 6e95 17be
00000280: e4a5 5c3c feab 063f 09c7 06bd ad75 2ebe
00000290: 8704 ac3e 199a b93d fe58 aabd 5309 cbbe
000002a0: c912 b8be 1f89 03be 7a87 b6bd 9e6e 433e
000002b0: ba10 923e 0151 3c3e f02d e4bd e090 8a3e
000002c0: 0633 c8be 6c70 f4be 6b40 a13e abbc 0dbe
000002d0: 539b 373d f481 f33e 14cd dbbf efca de3e
000002e0: 20d8 a83c 27c7 5ebd a968 4a3e eedf e1be
000002f0: 2e1f e43d 6b09 bd3e 975f 1cbe 415f 1a3e
00000300: 76ee 3e3f 77a5 99be 9a81 443e 1125 073e
00000310: 538e 103f 864d c5bd 1316 073f ff7e 003f
00000320: ce5c fa3d 953d 873e 4f76 b23d ca81 dc3c
00000330: 16d7 553e cef6 50bd 56c2 083f cc7c 0c3e
00000340: 9f9f de3d 011b db3e cd9c 05be ab05 d63e
00000350: 4174 5a3f 7a1b 6b3e dc6e b6be b85d 7f3d
00000360: 6760 e03e e75d ba3d f82c 3dbf 8e05 153e
00000370: 2f61 4abf f0ae 5fbd 6343 14bf b16c 90bd
00000380: b564 733c b02c e1be 475b 8e3d ceab dd3d
00000390: cdf2 3cbf f42c 68bd dd7b a3be 5fff 7cbf
000003a0: 935c 873e e464 d63e 0cea a8be 7a27 3ebe
000003b0: 219f 6cbd 3844 2c3c be5c 56be 673f d33d
000003c0: e5aa 00bd 6c29 4bbe a386 9abd 7c9d e0bd
000003d0: b1c2 56be 36bc f8bd 7753 aa3e db62 c8be
000003e0: d0fc 443e e421 83bc bcc3 db3d a5db 0c3e
000003f0: 9467 9e3d 05b3 fe3d 5be4 47be e76d 8fbd
0.06555113 0.3973589 -0.06605367 -0.47313732 -0.09896912 -0.42597237 -0.24890997 0.20253433
-0.09684096 -0.40256158 -0.014504156 0.33764246 -0.10532392 0.08001475 -0.22332601 -0.5516583
-0.06778459 0.37371528 -0.0156092355 -0.4225362 -0.02243428 0.22140218 0.20508508 0.051633827
-0.29475605 -0.45441666 -0.36212805 -0.10546657 -0.28857818 -0.4228948 -0.262445 -0.43734387
-0.18399274 0.20226054 -0.21421243 -0.12623516 -0.1418376 0.02375033 -0.033957727 0.03547074
-0.14459395 -0.23907161 0.03335137 0.4123731 0.21099477 0.017204517 -0.2079005 -0.12395954
0.010419074 -0.42050678 0.38222018 0.01656742 0.20555897 0.041015062 0.049402077 -0.2192602
0.14416705 -0.2895141 -0.047669295 -0.09000719 -0.3234336 0.69251406 0.56690884 -0.45124224
-0.06182671 -0.6410386 -0.29531118 0.2488742 -0.3828187 0.03402081 0.09576167 -0.045252163
0.13165352 0.052714985 -0.3098245 0.19967957 0.06013993 -0.12578392 -0.5498767 0.401922
0.2652838 0.46018443 -0.00090034545 0.26222047 -0.15768369 -0.25198147 0.19730182 -0.033740755
-0.3531257 -0.14755163 0.013214368 -0.61984104 -0.036467094 0.236128 0.29936662 -0.013208295
0.024801759 0.858354 0.1705095 0.13211878 0.26807302 0.3478274 0.19981882 0.23129033
0.50729185 0.36717874 -0.30469036 0.051988605 0.24438958 -0.26779157 0.8190583 0.36956993
0.23114431 0.74988854 -0.05688547 0.49259996 0.16525915 -0.025587965 0.7787496 0.062018424
0.42477876 -0.20428407 -0.088199645 -0.038019937 0.2500312 -0.26177087 -0.36322007 0.37187088
0.10059138 -0.34061125 -0.1231492 -0.06394996 -0.36608252 -0.7248939 0.10932866 -0.03397804
-0.27014142 0.20364535 -0.11715445 0.1552583 0.0075948304 -0.11882188 0.1823059 -0.37490138
-0.210183 -0.15564625 -0.28718826 0.004164734 -0.22647893 -0.16539598 -0.28405637 -0.0824785
-0.27009752 -0.0077169756 0.3436824 -0.18825813 -0.017866723 -0.3932053 0.22476885 -0.14803097
0.013467286 0.5260619 -0.03290466 -0.17037077 0.33597204 0.09062595 -0.08317755 -0.3965555
-0.35951832 -0.12845276 -0.08912559 0.19085166 0.28528386 0.18390276 -0.111415744 0.27063656
-0.39101428 -0.4774202 0.3149446 -0.13841502 0.044825863 0.47560084 -1.717196 0.435142
0.020610869 -0.054389145 0.19766487 -0.44116157 0.111387596 0.36921248 -0.1527084 0.15075399
0.7458261 -0.30009052 0.19190064 0.13197733 0.5646717 -0.09633927 0.5276806 0.5019378
0.12224732 0.2641417 0.08713972 0.026917357 0.2088283 -0.05101662 0.53421533 0.13719481
0.10870289 0.4279404 -0.13048096 0.418012 0.8533364 0.229597 -0.35631454 0.062345237
0.4382355 0.09099942 -0.7389674 0.145529 -0.7905454 -0.054610193 -0.57915324 -0.07051981
0.014855553 -0.43979406 0.069510035 0.10823785 -0.73807985 -0.056683496 -0.31930438 -0.98827165
0.26437816 0.41873848 -0.32991064 -0.18569747 -0.057768945 0.0105143115 -0.20933816 0.103148274
-0.031412978 -0.1984002 -0.07545211 -0.10967538 -0.20972706 -0.121452734 0.33266804 -0.3913792
0.19237065 -0.016007371 0.10730693 0.13755663 0.077346 0.12436489 -0.19520704 -0.07003384

layers.0.bias f4 [128]
00000000: 0357 1440 0000 0000 66f8 063f 063a ff3f
00000010: 98c3 f03f 0000 0000 0dba 1a40 4cdb 483f
00000020: 0000 0000 8c11 34c0 700e 0d40 9d6e 303e
00000030: 5361 0d40 6472 0140 0000 0000 79f8 ee3f
00000040: bfa0 1cc0 c218 0540 0000 0000 5191 0f40
00000050: d445 2f40 2eb3 25c0 559b 1740 3b0c 5b3d
00000060: a438 0840 1ae6 fa3f 45b4 0940 c207 2940
00000070: 7fd9 1bc0 3169 16c0 e3b8 de3e b5eb 0940
00000080: 0000 0000 0000 0000 0000 0000 cffc 1d40
00000090: 8b57 2fc0 117f 1740 0000 0000 e4b0 0140
000000a0: 0986 39c0 c1a4 f83f af5d 1140 993a 34c0
000000b0: 0000 0000 9cb5 18c0 8564 e13e 0000 0000
000000c0: c015 2040 1fed fa3f f8fa df3f 0000 0000
000000d0: a762 eb3e 78b7 03bd fbd2 d83e 09de 0240
000000e0: b1ec b13d a54e 0940 8905 1040 0134 28c0
000000f0: c18d 023f 38ec 1f40 6568 90bd 0d98 2dc0
00000100: 0665 f33f 5f9c 2140 36a4 0040 0ac2 1340
00000110: 60f2 0e40 0475 103f afcb 2040 bde9 ec3f
00000120: cd33 2540 6957 8d3f f15c 0cc0 be6d 0b3f
00000130: 786e 64bd 911e b63f 9751 1d40 7850 0d40
00000140: 9e61 1840 7a59 35c0 a168 1440 b1c8 0dbd
00000150: eb52 18c0 406e 1f40 0000 0000 0000 0000
00000160: 0000 0000 6518 0040 9fed 28c0 6d3c f83f
00000170: 6cf4 1cc0 b3b3 30c0 05d9 1ac0 1f96 0440
00000180: 80d0 fc3f 35e5 34c0 c094 f23e 4d6e 773f
00000190: a222 523d d1fb 0340 4dca 1740 107d 19c0
000001a0: 2288 6fbd bfdd 7a3f a9de 1140 69bd 2540
000001b0: 9bf6 1040 20bf 3dc0 b8c0 873f 7057 1040
000001c0: 3c94 3dc0 5d5e 30c0 772f f93f 3183 25c0
000001d0: 0000 0000 52f5 1940 57f3 163f 946b 8fbc
000001e0: bc8e 2c40 f18c ff3f 750e 0540 489e 0c40
000001f0: 0000 0000 68c6 32bc 3c2c cb3e 3aeb 2b40
2.3178108 0.0 0.52722776 1.9939582 1.880969 0.0 2.4176056 0.7845962
0.0 -2.813571 2.2040062 0.17229696 2.2090652 2.0226068 0.0 1.8669578
-2.4473112 2.079636 0.0 2.2432444 2.738637 -2.5890613 2.3688557 0.05347846
2.128457 1.9601471 2.1516278 2.6410985 -2.43515 -2.3501704 0.43500432 2.1550114
0.0 0.0 0.0 2.4685552 -2.7397182 2.3671305 0.0 2.0264215
-2.8988059 1.9425279 2.271343 -2.8160765 0.0 -2.3860846 0.44022003 0.0
2.5013275 1.9603614 1.7498465 0.0 0.45973703 -0.03215739 0.42348465 2.044802
0.086877234 2.145425 2.2503378 -2.628174 0.5099755 2.4987926 -0.07051162 -2.7124054
1.9015205 2.5251691 2.0100226 2.3087182 2.2335434 0.5642855 2.5124319 1.8508831
2.5812867 1.10423 -2.1931727 0.5446433 -0.055769414 1.4228078 2.4581048 2.2080364
2.380958 -2.8335862 2.318886 -0.034615222 -2.380061 2.4911041 0.0 0.0
0.0 2.001489 -2.6395032 1.939344 -2.4524183 -2.760968 -2.4194958 2.0716627
1.9751129 -2.8264897 0.47379112 0.9665268 0.05130256 2.0622447 2.3717225 -2.3982582
-0.058479436 0.9799461 2.279215 2.5896857 2.2650516 -2.9647903 1.0605688 2.2553368
-2.9621725 -2.7557595 1.946761 -2.5861323 0.0 2.4055982 0.5896506 -0.017507352
2.6962118 1.9964887 2.0790074 2.1971607 0.0 -0.010911562 0.39682186 2.686232

layers.1.weight f4 [6, 128]
00000000: cf52 babe 7be0 a9bb ab2d e8be 3732 6bbf
00000010: 260a 2cbe 593c 4ebd 34a0 aabf 21bd c6bf
00000020: 86cb 96bd f9ed a43e cb28 f7bd 92c4 6d3f
00000030: 49bf b1be 0092 d1be edc6 ea3c d2cf 25be
00000040: 0ef2 3f3e 7f66 e3be 9bec 8d3c 8369 2ebf
00000050: 98fe b9bf d961 2f3e b568 54bf 3c98 77bf
00000060: c50d 5bbe 5835 efbe bb0e abbe 283f 3abf
00000070: 445b 513e 5be1 923d e446 9ebe 6ee4 24bf
00000080: f565 153d b52a 91bd 99fd 90bd 1371 1ebf
00000090: 0ee9 963e 427a 57be e4a5 59bc c486 1abe
000000a0: f2cf a63e c145 15be 0b85 1dbe 1375 be3e
000000b0: 9b97 16bd 3139 8f3e 784e b6be 7057 f8bc
000000c0: bd75 4fbe abd9 f5bd ac06 48bf ca3f 89bd
000000d0: 2894 d2be 4ed6 193d ad72 7bbe 7756 14bf
000000e0: 0ae7 0d3f 9d6b 99bf 3fa2 a6be 1041 f73e
000000f0: 11d1 e9be 1c99 0bbf a113 eabb ad9b ab3e
00000100: 0249 cdbe a9e6 79bf 7d5e 0cbe aec8 b9be
00000110: 9776 28bf a8b8 cbbe 7c27 32bf e812 57bf
00000120: 8af1 6cbf 6dc3 42be bc11 cd3d 87b5 e3be
00000130: 8938 963c 8aaa 89be 6d35 8abf fde5 cebe
00000140: 950b 79be 2df9 113f 2ca5 26bf 664c 4b3d
00000150: b4a6 1d3e 83a8 10c0 5daf 13bd 1836 783d
00000160: fabc 523c 6a39 17bf 2012 ea3e ce80 6bbe
00000170: e598 953e 8ce3 f03d e554 413e 877b 02bf
00000180: e746 4abe 3ca3 f43e 6f89 d5be 0302 8ebe
00000190: f054 88bf c0e0 37be 602f 8ebe c0c3 103e
000001a0: c14d dabb 70aa 22be 4e1a fabf 8b85 07be
000001b0: d24d 7bbd b9c5 053f b395 b4be 755b c4be
000001c0: c5e8 cc3e f087 063f 23f0 47be bf77 df3e
000001d0: ee94 3c3d 402c 46bf 7599 3fbf 0456 533d
000001e0: 9bec 48bf 0d43 cabe 46ee 56be 23b3 15bf
000001f0: a638 883b 4625 7fbf 71a7 abbe 1175 87bf
00000200: 60d1 9abd e637 45bd 27b2 9ebd 330f e7bd
00000210: 7e14 973a dda5 913d ab6c 72bf 20aa a53d
00000220: 7fdc 33bb 5b0e bb3d 734f a53b f4c6 883c
00000230: 1e0f 99be 4853 e6be 1838 243d dcfd f13c
00000240: 54e3 65bd 2ad0 fabe 01b9 643d 68bc aebe
00000250: e64a 54bf 20dc e13c 1894 e8be d58b 923d
00000260: d884 d1bd 656a fdbe c3f4 45bd cbb5 97bf
00000270: a725 ea3d 1b14 b8bd 53a9 4f3d 6671 d4be
00000280: 78c0 32bd 2503 ab3c b051 a5bc 6477 37bf
00000290: 0c82 bd3c ad63 57bd f539 05bd de49 103c
000002a0: dadc 523e 76c0 dd3c 89fb 9ebc d535 fb3d
000002b0: 35dd 433c 9ba7 45bc 65e6 e13c 86c9 4a3c
000002c0: f41d 29be 1225 c6bd 3c94 3bbf c931 a0bd
000002d0: ebb3 0cbd 8ddf 08bd bd23 4b3d c6f8 28be
000002e0: 0a54 11be 44cc 59bd a424 b4bd 1cbf 623e
000002f0: cce2 ae3c 1965 4dbe 5002 a0bd b38c e23d
00000300: edb7 32bf ed5f 76bf 6bba cebc e925 83bd
00000310: d9d7 dfbe 8953 c43c 0d8e 25bf c12c 27bf
00000320: 21e0 a5bf 236b 87bf 2157 95bc 1c58 553d
00000330: 92b5 893d 9cb7 efbe b5c5 2bbf d4d6 17be
00000340: 17d3 a3bd 1559 f23c 812b cfbe 74ba d73b
00000350: 37bf c83d f0b1 27bf 83b2 e13c c687 863d
00000360: 9bda 4e3d aedf f1be 4366 913d 21e0 273d
00000370: e36c 42bd 510f bd3c eb99 183d bfc7 3abf
00000380: 129e 1e3d eb7b f63d 7a9d 65bd c661 37bf
00000390: 949f c7bc 5e3f 22bd c39c 9fbd f7f7 d23d
000003a0: 6b76 9c3a 3466 75bf 185f 42bf f5cc b8bd
000003b0: 0ace b2bd e312 a93d 7205 38bf 0a5c 58be
000003c0: da62 363e a437 673d 4f94 99bc ea30 9f3b
000003d0: 8764 af3d eb87 febe 74f5 af3d de27 453a
000003e0: f1e9 85bf e8f5 26bf 212a 09be 6c01 0ebf
000003f0: 7410 653c 37a8 a2bc 9520 22bd 067c 2ebf
-0.36391303 -0.005184231 -0.45347342 -0.91873497 -0.16800746 -0.05035052 -1.333014 -1.5526468
-0.07363038 0.3221281 -0.120683275 0.9287807 -0.34716251 -0.40931702 0.028659308 -0.16192558
0.1874468 -0.44414136 0.017324736 -0.6812975 -1.4530821 0.1712717 -0.8297227 -0.96716666
-0.21391971 -0.46720386 -0.33409676 -0.7275262 0.20444971 0.071718894 -0.3091346 -0.64411056
0.036474187 -0.07088224 -0.0707962 -0.6189129 0.29474682 -0.21042731 -0.01328418 -0.15090472
0.32580525 -0.1457739 -0.15382783 0.37198696 -0.036765676 0.2797332 -0.35606742 -0.030315131
-0.20259757 -0.120044075 -0.7813518 -0.0670162 -0.4112866 0.037557893 -0.24555464 -0.57944435
0.5543066 -1.1985966 -0.3254566 0.48291826 -0.45667318 -0.545305 -0.007143453 0.3351721
-0.40094763 -0.97617584 -0.1370792 -0.3628592 -0.65805954 -0.3978932 -0.695915 -0.84013224
-0.9255606 -0.19019862 0.10013148 -0.44474432 0.018337505 -0.26887923 -1.0797554 -0.40409842
-0.24320824 0.5702084 -0.6509578 0.049633406 0.15395623 -2.2602851 -0.03605591 0.060598463
0.012862438 -0.5907198 0.45716953 -0.22998354 0.29218212 0.11762151 0.18880041 -0.5096974
-0.1975361 0.47780788 -0.41706416 -0.2773591 -1.0650921 -0.17956829 -0.2777052 0.14137173
-0.006662101 -0.15885329 -1.9539278 -0.13234536 -0.061353512 0.52254826 -0.3527046 -0.38351026
0.4002134 0.52551174 -0.19525199 0.43646047 0.046040468 -0.7741127 -0.7484353 0.051595703
-0.7848603 -0.3950428 -0.20989332 -0.58476466 0.0041571436 -0.9966625 -0.33526185 -1.0582601
-0.07559466 -0.048149012 -0.077488236 -0.11282196 0.0011526493 0.07111714 -0.94697064 0.080890894
-0.0027444658 0.091335975 0.0050448715 0.01669643 -0.29894346 -0.44985414 0.040092558 0.029539995
-0.056125 -0.48986942 0.055840496 -0.34128118 -0.82926786 0.027570784 -0.45425487 0.07155577
-0.10230416 -0.49495235 -0.048329126 -1.1852354 0.11432963 -0.0898821 0.05069859 -0.41492766
-0.043640584 0.020875523 -0.020180553 -0.7166655 0.0231333 -0.052585293 -0.032525975 0.008806674
0.2059206 0.027069312 -0.01940705 0.12266127 0.011954595 -0.012063886 0.027575681 0.0123771485
-0.16515332 -0.09675039 -0.7327306 -0.07821996 -0.03435127 -0.03341632 0.04959463 -0.1650115
-0.14192215 -0.05317332 -0.08796051 0.22143215 0.02134838 -0.20058097 -0.07812941 0.110619925
-0.698119 -0.9624012 -0.025235375 -0.06403715 -0.43719366 0.023965614 -0.6466988 -0.65302664
-1.2959024 -1.057957 -0.018230023 0.05208598 0.06724085 -0.4681977 -0.6709855 -0.14828044
-0.079992466 0.029583493 -0.40462878 0.0065835062 0.09802096 -0.65505886 0.027550941 0.065688655
0.050501447 -0.47240967 0.07099583 0.04098523 -0.047467124 0.023078592 0.037256163 -0.7296104
0.038724966 0.12035354 -0.056058384 -0.71633565 -0.024368085 -0.039611213 -0.07793572 0.10301202
0.0011937147 -0.95859075 -0.7592635 -0.090234675 -0.08730705 0.082555555 -0.7188331 -0.2112886
0.17811146 0.056449547 -0.018747477 0.004858126 0.08564096 -0.49713072 0.08591738 0.0007520894
-1.0462018 -0.65218973 -0.13394977 -0.5547092 0.0139809735 -0.019855602 -0.039581854 -0.68157995

layers.1.bias f4 [6]
00000000: 4d8d e0bf 9240 3ebf 0000 0000 0000 0000
00000010: 0000 0000 0000 0000
-1.7543122 -0.74317276 0.0 0.0 0.0 0.0
